machine_learning/models/model.pth (torch, 185395 bytes, 22 tensors)

gru.weight_ih_l0 f4 [96, 128]
00000000: e5f2 bb3d ac20 1c3d cf81 cd3d 46c2 4fbe
00000010: 3945 07bd 3a0b 45be 56af ac3d 1d22 3dbe
00000020: c062 42bd 99d8 efbb d688 fdbd c73a 9cbd
00000030: 3dda 45bc 7f70 2cbe 8030 a53d e183 86bd
00000040: e9c1 6c3c 12f6 dbbd e76f 0e3d a57e bf3d
00000050: 8df3 683d ede5 82bd d740 8abd 6b4d ec3c
00000060: 4de2 573d 9e55 e53d d7d0 ed3b 069e bfbd
00000070: 391e 50be d442 febc 7416 6bbd a415 0abe
00000080: c39f 01bb b231 a63c 16a2 de3c 7d98 b0bd
00000090: 019f c83c edb2 60be 089a 52be 157e 79bd
000000a0: e515 90bd c173 433d 7dec 953c 7a53 46be
000000b0: 9234 b5bc cd9f 50be af35 d7bd 0ebe 1fbe
000000c0: 21c8 de3b 3013 8cbd 48f8 5abd 9094 04bd
000000d0: b34e 93bd d729 073e f526 063e 2e0b ae3d
000000e0: 1cbf 103e 7874 b63d 738d 0bbe a669 1b3e
000000f0: 7b93 683d 8cdc 0bbd ec43 f3bd 64c2 6abd
00000100: 300d d9bd 2521 04be e35e a63d 2218 60be
00000110: eb62 1dbe 36c8 b3bd 9500 0dbd 8fe6 1a3d
00000120: 8636 333d e34c 9e3c 9845 b6bd 00d8 2f3e
00000130: f320 b3bd f82e af3a 2bc5 b93d fee0 373d
00000140: 7dc8 71bc f6ff 17be d9b6 ff3d 4686 00bd
00000150: 303f e13d 355e e83d 2f8d c13d 055d edbd
00000160: b293 393c ad48 08be f4f0 5abd 7b01 ab3b
00000170: d956 253e dfdb 2cbc 1919 103d a3a2 813d
00000180: 779c a83d ed15 57ba f174 1a3d 36c5 41bd
00000190: 7fc1 15bc f30d 1f3e ef70 9e3d 964f 96bd
000001a0: e2a0 3abe 021f 063e fe60 bb3d 1ee6 153e
000001b0: 851a a8bc c097 61bd e9ba 2f3c 7951 113d
000001c0: e576 873d b288 6abb d22a 6bbd ee30 6bbc
000001d0: 3d53 3cbe 54b2 a4bd 6936 1cbc f13c 6e3d
000001e0: e765 d53c aad8 213d 1603 27be 83d1 3bbe
000001f0: b8d4 39bd 474b d4bd cbf8 babd ab4b 02bd
00000200: 7fde bbbc 9035 ecbd 2861 c33d 1727 183e
00000210: c2c8 08be ced9 74bc 81e6 f03d 8c61 a63d
00000220: 5782 2a3e ba7a c43d ad4f a0bc 3e1e bd3d
00000230: 74fe 933d 5903 c33c a838 1ebc 8202 0b3e
00000240: be7a 64bd a116 463c e268 503e 5102 223d
00000250: dd59 7cba e853 383e 327c 71bc 9fb0 05bd
00000260: dbc4 21bd ae7f fa3d 799a 4abd a192 cdbb
00000270: 4963 393e e660 943d d249 eb3c 2ae9 cf3d
00000280: 1b3e 12be 9e7a 17bd 3584 233e 13ca cf3c
00000290: 5ac6 c1bd 3da2 1e3e d750 613c 18da e4bd
000002a0: 8fae 933d 9b19 0d3e 2602 f0bd 21c1 10be
000002b0: 836c 093d 7daa 2a3e ce5c 5f3e b398 363e
000002c0: dc2c e33c 1c62 953d 0729 333e 1602 643d
000002d0: 2c7b c83d 45cd 153e 1a09 f93a b98d 5f3e
000002e0: 1fec 3b3e e3dc 3e3e cd41 123e d152 ee3c
000002f0: eaef 183d b368 eebc 3c3f 7c3c 1721 293e
00000300: df0b a3bd 91f3 223e cf27 fcbc a963 89bc
00000310: f9ac a3bd 96f6 02be 30fd dfbc d32f 133e
00000320: a206 c53c c61e cb3d 030c 253e 2944 173d
00000330: c662 3e3e 52ee f23d 9071 133d d1ac 01be
00000340: 1a29 233e e5dd 1e3e ef58 2d3d 081a e2bc
00000350: 46eb 003e 75b7 363e 9e15 273e 81fa 213e
00000360: d889 313e d67c c93d d848 0abe 8c0d d6bd
00000370: a283 b5bd 9e94 0cbb 5baf 203e c49c 333e
00000380: 0d19 04be 9923 b33d dffb 473e db05 813d
00000390: b304 0cbe 17f1 c3bd 52ad 113e 6b40 4e3d
000003a0: c00d 273d c7ff a7bd 677c aabd 6cff ce3d
000003b0: adc1 d73d d065 b93c df34 1dbe 20a8 d7bc
000003c0: 3d8f 5e3d 7022 2b3e 5436 9cbd 8d6d a1bc
000003d0: db4a 1d3d 65c0 e8bd a6eb 5e3b 787a 0d3e
000003e0: 80c5 a1bd c6b0 b9bd 9a3a 9bbc 9fe3 e23d
000003f0: 6eef 11be 51ca 1f3d 4ffa 1a3e 87e7 13bd
0.09177188 0.038117096 0.10034525 -0.20288953 -0.033025 -0.19242564 0.0843188 -0.18470044
-0.047457457 -0.0073195216 -0.12379615 -0.076283984 -0.012075958 -0.16839789 0.08065891 -0.06568123
0.014450529 -0.107402936 0.034774687 0.093503274 0.056872893 -0.06391511 -0.067506485 0.02884551
0.05270605 0.11197971 0.0072575617 -0.093563125 -0.20324029 -0.031037726 -0.05739446 -0.13484818
-0.0019779063 0.020287368 0.027176898 -0.08622835 0.024489881 -0.21943255 -0.20566571 -0.060911257
-0.07035426 0.047717813 0.018301243 -0.19367781 -0.022119794 -0.20373459 -0.10508286 -0.15599844
0.0067987596 -0.06839597 -0.053459436 -0.032368243 -0.07192745 0.13199554 0.13100798 0.08498226
0.14135402 0.089089334 -0.13628177 0.1517702 0.056781273 -0.034145877 -0.118781894 -0.05731429
-0.105982184 -0.12903269 0.08123567 -0.21884206 -0.15369765 -0.087784216 -0.034424383 0.037817534
0.04375317 0.019323772 -0.08899993 0.17172241 -0.08746519 0.0013365438 0.0907081 0.044892304
-0.014757273 -0.14843735 0.12486047 -0.031378053 0.1099838 0.113460936 0.09450757 -0.11590008
0.011326717 -0.13308974 -0.053452447 0.0052186823 0.16146411 -0.010550468 0.035180185 0.063298486
0.08232968 -0.00082048663 0.03770918 -0.047307216 -0.009140371 0.15532665 0.07736384 -0.073393986
-0.18225434 0.13097766 0.09149359 0.14638564 -0.020520458 -0.05507636 0.010725715 0.03547809
0.06614474 -0.0035787043 -0.057413884 -0.014354927 -0.18391128 -0.08041826 -0.009534457 0.058163587
0.026049567 0.039513268 -0.16309771 -0.18341641 -0.04536888 -0.103659205 -0.09129485 -0.031810444
-0.022933243 -0.11533654 0.095400155 0.14858662 -0.13357833 -0.014944507 0.11762715 0.08124074
0.16651283 0.09593721 -0.019569242 0.09234284 0.072262675 0.023805307 -0.009657063 0.13575175
-0.05578112 0.012090356 0.2035251 0.03955299 -0.0009626428 0.18000758 -0.014739083 -0.032639142
-0.039494377 0.12231384 -0.049463723 -0.006273583 0.1810428 0.072450444 0.028721724 0.101518944
-0.14281504 -0.03698217 0.15968402 0.025364911 -0.09461661 0.15491576 0.013752184 -0.111744106
0.07211029 0.13779299 -0.1171916 -0.14136173 0.03355075 0.16666599 0.21812746 0.17831688
0.027731352 0.072941035 0.1749612 0.05566605 0.09789118 0.14629085 0.0018999905 0.21831407
0.18351792 0.18638949 0.14282914 0.029092224 0.037338175 -0.029102659 0.015395936 0.16516529
-0.079612486 0.15913226 -0.030780701 -0.016771154 -0.07991976 -0.12789378 -0.027342409 0.14373712
0.024051014 0.09917979 0.16117863 0.036930237 0.18592367 0.11861862 0.035996974 -0.1266358
0.15933648 0.15514334 0.04232114 -0.027600303 0.1258975 0.17843421 0.1631684 0.15818216
0.1733774 0.09838264 -0.1350435 -0.104518026 -0.088629976 -0.0021450887 0.15691893 0.1754027
-0.12900181 0.08747024 0.19529675 0.06299945 -0.13673668 -0.095674686 0.14226273 0.050354403
0.040784597 -0.082030825 -0.08324509 0.101073116 0.105349876 0.022631556 -0.153522 -0.026325285
0.05433582 0.16712356 -0.0762755 -0.019705558 0.038401466 -0.11364821 0.003401497 0.1381625
-0.07898998 -0.0906692 -0.018948842 0.110785715 -0.14251491 0.039011303 0.15134548 -0.036109474

gru.weight_hh_l0 f4 [96, 32]
00000000: e368 52bd 2d93 943d b452 abbc 2061 2d3e
00000010: e1dd 1ebe 7981 60bd 0eb3 c13d 0401 d4bc
00000020: 0f85 febc 449c f7bc b704 2b3e 81ee 52be
00000030: 6ee8 38be f2af 03be a827 123e 704f 42be
00000040: 0eda f83c 3975 e03d c124 e93d c0c4 e23b
00000050: fbc6 98bc 9a22 37be 7fc7 e8bc d43a f73d
00000060: 1d16 573e 36f0 89bd 7d79 24be 89fc 7b3d
00000070: 26f3 81bd 8cca 3abc 36f0 19be 98f1 f23c
00000080: 21d1 26be 196c b4bd bc00 24be 3b71 6f3d
00000090: bc88 f93b 087c 25be 1580 b7bc 9b3d ddbd
000000a0: 17af 103e 456a 35bc 32b4 363e 4cf9 75be
000000b0: 8ffc acbd 281c 773c 2e24 1fbe 4635 13bd
000000c0: 36ce 2f3e 0cf6 81bb 5bb8 083e 09e3 3bbe
000000d0: be9f 29be 3184 ae3c 5e7f 00bd 13a8 67bd
000000e0: c105 7b3d 7ec4 43be af21 d3bc e161 4a3e
000000f0: d4cb b63d 9fec 10bd ac2a 80bd b480 9dbd
00000100: d27a d43d ac29 ce3d 296c 903d 2b38 803d
00000110: e546 773d 8df4 563e c0bc 24be b063 12be
00000120: b187 bdbd baae 053e 9f5a 37be 4744 0b3e
00000130: 0ca6 96bc 6c2e 913b 4cb0 193d 1fb9 a73d
00000140: 811d c9bd 6dde acbd 46bf 8c3d cfdf 123e
00000150: 4bfa 733d 2dc1 7b3c bc7b d03d 9381 323e
00000160: 15f4 b43d 2730 e7bc 21a9 4abe ebe3 d1bd
00000170: 4797 953d 711b 433e f899 f2bd 3681 ef3d
00000180: a052 a53c b9fe 21bd 6fd8 083e da06 b1bd
00000190: e103 323e 3697 9abc 375b ce3d cc49 b2bc
000001a0: 171e 033e f7a2 3fbe 23f3 0a3e 803e 3fbe
000001b0: e718 a03d d73b 2ebe 5e64 15be 331a e3bd
000001c0: 5f95 013e 8fe3 12be 5548 5ebc 43ca bebd
000001d0: 9af4 17be 6644 6c3d 20d6 673d 3312 ce3d
000001e0: 3307 a83d faa0 84bc 3c63 a7bd fc40 b03d
000001f0: bab6 093d e5c8 d33b 76de 26be 904a c73d
00000200: 5243 e7bd a37b 45be 076d 8cbd 6fde 16bc
00000210: 32b7 cebd 11f0 193e 7077 243d cb72 cbbb
00000220: f8d4 e13a 99f8 91bd ac3e a53d ab1d a03d
00000230: 475c 07be 897e bf3b f76a d73d ddb0 cb3d
00000240: a1bd 693e adac 533e 2e72 e63d 131c 8e3d
00000250: 8f94 e43d 59c5 b2bd c9b8 3e3e 3028 cebb
00000260: 91f2 9d3d 4660 103e b4df 0bbe 665d 8d3d
00000270: a5b9 43bd 6257 1c3e 60b8 9c3d 83ff 9cbc
00000280: 5ad6 52be 7f99 0e3e 2d7b 8abd ccee d9bd
00000290: 5e77 85be 59ae 1cbd 83bc c4bd 02c5 1dbe
000002a0: 698d 72bd ea64 113e a85d 8a3d ce8e c6bd
000002b0: f278 96bd decf c63c d3fa af3d dba8 84bc
000002c0: 4362 d3bd 476b b5bd 999f 11be 9265 f4bd
000002d0: 6ec9 fd3d 5a3e 933d 9c46 4abd a8b7 95bd
000002e0: f0ec 973d e6ae 99b9 a81b e1bd 302d e2bd
000002f0: 82b1 bdbd c7bb 133c 0012 4abd ad56 1f3e
00000300: 7a44 e73d 4acb 9abd 56d2 6cbd 6448 b3bd
00000310: 0429 87bc e034 e73c 3857 adbc 9e3b 8739
00000320: a275 66bd 0e0f f8bc 75f8 753d bac6 d8bd
00000330: 5710 9b3d 383b 63bb 0cca 563d 687f 4fbe
00000340: 4375 6c3d 5d77 d7bd bfca 5dbe 551b dc3d
00000350: d290 893e 4ea2 8e3d ff76 443e ee48 8c3e
00000360: 9b25 49bd 926e 4d3e 3421 1cbd 50e6 61be
00000370: 8f22 bebc e915 49bc 5550 21be 0260 e13b
00000380: c558 53bd 9a45 c43d ecd8 133e b711 2b3e
00000390: 0e93 3d3e 00ba bb3d fc54 51be 9223 eb3c
000003a0: 60de 19be 779c d93d 4bc7 1dbe 036f 0a3e
000003b0: 51a4 e83c 8d32 2f3e 6d48 b0bd b625 69bd
000003c0: 4e9d 953e 36b4 133e 5340 9e3d a30f f63c
000003d0: 72a7 923d 8183 023e 2730 303d a9d7 dbbd
000003e0: 6c8f 2fbe b1ff 953e 9014 f03b 6b46 84be
000003f0: 4313 25bd 7261 80bd a04b c13d 829e 093e
-0.05136956 0.07254634 -0.02091346 0.16931581 -0.15514328 -0.054810975 0.0945798 -0.02587939
-0.031069307 -0.03022588 0.16701017 -0.20598795 -0.18057415 -0.12860087 0.1427294 -0.18975616
0.030377414 0.109598584 0.113839634 0.006920427 -0.018649569 -0.17884293 -0.02841544 0.120717674
0.2100453 -0.0673527 -0.16061969 0.061520133 -0.06345205 -0.01140083 -0.1503304 0.029656217
-0.16290714 -0.088096805 -0.16015905 0.058457594 0.007615177 -0.16160595 -0.022399941 -0.10802766
0.14129291 -0.0110727 0.17842177 -0.2402088 -0.08446609 0.015082397 -0.15541145 -0.035939477
0.17168507 -0.0039660987 0.13351576 -0.18348326 -0.16564843 0.021303268 -0.031371467 -0.056556772
0.061284784 -0.19117925 -0.025772898 0.197639 0.08925596 -0.03538191 -0.06258139 -0.07690564
0.103749886 0.10066542 0.0705188 0.06260713 0.060370345 0.20991726 -0.16087627 -0.1429584
-0.09254397 0.13054934 -0.17905663 0.13600264 -0.018389724 0.0044305827 0.037521645 0.08189606
-0.098200805 -0.08440862 0.0687242 0.14343189 0.05956487 0.015365881 0.101798505 0.17432241
0.088356175 -0.028221203 -0.1979108 -0.1024855 0.073042445 0.19053437 -0.118457735 0.11694567
0.020181 -0.039549563 0.13363813 -0.08643885 0.17384292 -0.018870931 0.100759916 -0.021763705
0.12804447 -0.1871451 0.13569312 -0.18676186 0.0781725 -0.17015015 -0.14589068 -0.110889815
0.12654637 -0.14344619 -0.01356705 -0.09315922 -0.14839402 0.057682417 0.05660069 0.10062065
0.08204498 -0.01619004 -0.08173224 0.08606145 0.033621527 0.0064631575 -0.162958 0.097310185
-0.11292137 -0.19285445 -0.06856733 -0.009208306 -0.100935355 0.15032984 0.040152967 -0.0062087527
0.0017229607 -0.07127494 0.08068594 0.07818159 -0.13218795 0.0058439416 0.10518449 0.09945843
0.22826244 0.2067134 0.11252247 0.069389485 0.11161148 -0.08729047 0.18625177 -0.006291412
0.077122815 0.14099225 -0.13659555 0.0690258 -0.047784466 0.15267709 0.07652354 -0.019164806
-0.20589581 0.13925742 -0.06761775 -0.1064125 -0.26067632 -0.03825221 -0.09606268 -0.15407184
-0.05921689 0.14198652 0.06756145 -0.096952066 -0.07347287 0.02426904 0.08592763 -0.016193798
-0.10321476 -0.08858352 -0.14221038 -0.119334355 0.12391935 0.07189627 -0.049383745 -0.0731042
0.07418239 -0.00029312744 -0.10991603 -0.11043775 -0.092623726 0.009016938 -0.049333572 0.15560408
0.11292358 -0.075583056 -0.05781778 -0.08754042 -0.01649905 0.028223455 -0.021159753 0.00025793625
-0.056264527 -0.030280616 0.0600514 -0.10584779 0.07571476 -0.0034672748 0.05243878 -0.20263445
0.057729017 -0.105208136 -0.21659373 0.10747401 0.26868302 0.06964551 0.19186018 0.2739939
-0.04910813 0.2006171 -0.038117602 -0.22060513 -0.023209838 -0.01227329 -0.157533 0.0068779
-0.05159833 0.09583588 0.14438218 0.16705976 0.18513128 0.09166336 -0.20442575 0.028703485
-0.15026236 0.106255464 -0.15408055 0.1351891 0.028398665 0.17109127 -0.08607564 -0.05692073
0.29221576 0.14424214 0.077271126 0.030036753 0.07160844 0.12745477 0.04301467 -0.10734493
-0.17144555 0.2929664 0.00732667 -0.25834975 -0.040301573 -0.06268586 0.094382524 0.13439372

gru.bias_ih_l0 f4 [96]
00000000: 25e7 c1bd ec43 38bd f421 2b3e a54f 16bc
00000010: d554 c03d 11e1 db3c 61ba 41bd 2d99 1cbe
00000020: da2e 393e 5aa4 2cbe 97ae 8c3c ff5b bfbd
00000030: 3131 8a3d d933 24be 5ae1 b1ba af92 af3c
00000040: 0ec1 593d 4262 eabd a365 033e 0025 943d
00000050: 5d1a c93d ff6e 63bd 0a2b 263e 271d 8cbc
00000060: c907 b53d 1c9a e3bc 50d9 65bd b0a6 6b3d
00000070: 102f 0e3d d5c7 2b3e 7764 903e fc2c 71b9
00000080: a11a bc3d 8c46 2bbe 135b 453d d4e3 8b3a
00000090: bc9e d53d f159 e13d cbd4 30bd 8161 f0bc
000000a0: 987e 65be 30bd caba 8f96 253d 21b0 73bc
000000b0: add9 33be 0cd4 efbc 9bbc b83c 8a03 923d
000000c0: ac7a 12be 2752 183e 5ab8 403d b75f 103e
000000d0: 9104 2a3e 14b7 41be b48c 81be a176 fb3d
000000e0: ab17 1abe 8ca3 80be 0cd6 5dbe 283b 2f3d
000000f0: c8df 16bd 4703 45be e70e ae3c 90cd 12be
00000100: 4d6b c6bd a316 8e3d 5264 223d 563a bdbc
00000110: 8cf4 b7bd 5a0e 413d 8b14 73bd ff43 f23d
00000120: 5a89 ffbd dc27 e13d c9ff 533d c8f1 263d
00000130: 1403 bebd 7518 5c3b 2175 973c ba11 bf3d
00000140: 1a29 ba3d 966d 913d 2a8f e8bd 8e2b 09be
00000150: 1bbf ba3d 39d4 7e3d 63fe 273d b403 19be
00000160: c5a5 adbd 7c16 30be e647 8dba 68f1 48bd
00000170: 59f3 91bc ac0f d83d d0ac 153d 28b4 dd3d
-0.094679154 -0.04498665 0.16712171 -0.009174262 0.093911804 0.026840718 -0.047296885 -0.15292807
0.18084279 -0.1685957 0.017173095 -0.09343719 0.06747664 -0.16035403 -0.0013571188 0.021432249
0.053162627 -0.114445224 0.1283174 0.0723362 0.098194815 -0.055525776 0.16227356 -0.017103745
0.088393755 -0.027783446 -0.05611545 0.057532012 0.03471285 0.16775449 0.2820165 -0.00023000309
0.091847666 -0.1672613 0.04818256 0.0010672756 0.10430667 0.11003483 -0.043171685 -0.029343368
-0.22411573 -0.0015467759 0.040426787 -0.014873535 -0.17563505 -0.029275917 0.022550872 0.07129581
-0.14304608 0.14875089 0.04705081 0.14099012 0.16603304 -0.18917495 -0.2530266 0.12278486
-0.15048091 -0.25124776 -0.21663684 0.042781025 -0.03683451 -0.19239531 0.02124734 -0.14336228
-0.09688435 0.06937911 0.039646454 -0.023099106 -0.089821905 0.047132827 -0.059345763 0.118293755
-0.124773696 0.10993931 0.051757608 0.040757924 -0.09277931 0.0033583913 0.018488469 0.09329553
0.09089871 0.0710098 -0.113554314 -0.13395521 0.09118482 0.06221411 0.041014086 -0.14942819
-0.08478884 -0.17196077 -0.0010778874 -0.049058348 -0.017816233 0.10549864 0.03654176 0.10825378

gru.bias_hh_l0 f4 [96]
00000000: 0994 683d b300 c43d e20d 293e 17c8 0cbe
00000010: 50ad 053e 17ea f33d a3bd d73d bd15 f63c
00000020: 5d3d 2b3d 59bd 07be 2c51 d5bd a03c a73d
00000030: 48b8 bc3d 6478 8e3d 2ae0 253e 4799 0abe
00000040: 7b2e 2b3e 78fa ad3d d1aa 8fbd 88d3 1b3d
00000050: 6fe3 633d 1c92 363e 40f6 ce3d 5103 5c3d
00000060: 3bf1 863e a691 5abd 8402 1a3e a492 bd3d
00000070: 24c4 e8bd 1cd8 ab3d 7c86 273e 98cd 563e
00000080: fb1f e13d be51 99bd cbad 49bc 8585 72bc
00000090: 0806 0f3e 4ab9 2c3e 78e7 1e3d e098 2dbe
000000a0: f84f d43c d3ba c43d e21a 24be 19f2 a8bd
000000b0: 66bf d83b c4c4 9a3d 74ac 36be 0425 4e3d
000000c0: ba50 87b9 a9f2 dd3d e662 133d 094e c5bc
000000d0: 0c21 a33d d743 62be 9700 993c 7c36 083d
000000e0: 04aa 15bc 72db 673d a52d 93bc e4fb f3bc
000000f0: 4cb9 0cbe 8512 37be 4c11 40be dbd9 9c3c
00000100: 57c6 01be 97c2 343e 7620 01bd 062c ca3d
00000110: f4a1 cf3d 5a3e 3b3e a247 453e aca9 183e
00000120: f2cb fbbd 3544 e13d 93b6 f63d 481d 1dbd
00000130: f4dd cb3c 4909 84bd d5e5 033e 5805 f0bd
00000140: e726 f1bb 36e3 f13d 16ba 3cbd 0b57 943d
00000150: 1096 3b3e a33c 90bb e2bd 923b 9d1d a2bc
00000160: 6dee 7fbd 829c 033e 0953 d0bd db0a 263e
00000170: c9d9 9abd e4e9 cdbd c804 bdbd 66e1 343e
0.056781802 0.09570446 0.16509202 -0.13748203 0.13054395 0.119098835 0.10534217 0.030039662
0.041806567 -0.13255824 -0.10415873 0.0816586 0.09214836 0.069565564 0.16198793 -0.13535033
0.1671695 0.08495039 -0.070150025 0.03804353 0.05563682 0.17829174 0.10105562 0.0537141
0.2635592 -0.053361557 0.15040022 0.09256485 -0.11365536 0.08390829 0.16359895 0.20976865
0.10992428 -0.07486294 -0.012309502 -0.014802341 0.13967144 0.16867557 0.038794965 -0.16952848
0.025917038 0.096059464 -0.1602588 -0.082493015 0.0066146133 0.07557061 -0.17839223 0.05032827
-0.00025809353 0.108372994 0.03598299 -0.024085062 0.079652876 -0.22096191 0.01867704 0.033255085
-0.009134773 0.056605764 -0.017966101 -0.029783197 -0.1374256 -0.17878158 -0.18756598 0.01914685
-0.12673317 0.17652355 -0.031525098 0.09871678 0.10138312 0.18285504 0.19265607 0.14908475
-0.12294759 0.109993376 0.12046542 -0.038358003 0.024886109 -0.064470835 0.12880643 -0.11719769
-0.007359374 0.11810915 -0.046075903 0.07243165 0.18318963 -0.0044017597 0.004478202 -0.019789511
-0.06248324 0.12852672 -0.10172088 0.16215079 -0.075610705 -0.10054377 -0.092294276 0.17664108

gru.weight_ih_l1 f4 [96, 32]
00000000: 2a38 8ebc 96b6 f7bd 499b 483d 0825 06bc
00000010: 9152 05be 9e82 4b3e f45b 91bd 6c5e 05be
00000020: fe82 fc3d 7597 453e e2b5 373e 6286 7e3c
00000030: 386f 02be 3a41 e9bd 2dc8 50bd 294e 19be
00000040: 7ca4 7ebc cf74 95bc f79d c03d cf5a ce3d
00000050: 1d73 14bd bc26 173e 4101 863d e8b5 993c
00000060: d56d 89bd 97a7 7cbd 2206 b4bd b720 67bd
00000070: 3eab 27bd 4fc8 de3d 50ed afbd a828 12be
00000080: c4f9 45be 2c81 223e a49c 713d 7a34 363d
00000090: 25f7 2cbe 87d7 183d f890 b73d 355b 933d
000000a0: 1f15 55bc 49e2 8b3d 1c93 913c 60d7 013d
000000b0: 5c45 51be fe62 94bc 88c2 63bc 50f6 47bd
000000c0: efe4 24be ff68 0a3e 502c ccbd 2748 703d
000000d0: 0a1d 5ebd 1331 183e e441 593d 3839 dabd
000000e0: 0bc4 5e3d ce39 803d acfe bf3d c4a0 0dbd
000000f0: 634a 69bd 6b56 33be f5f0 2c3e 5beb adbd
00000100: c624 eb3d 3087 df3d b223 0f3d d6ea 9d3d
00000110: 28fe 553e d2f2 c23d b554 fd3d 0f00 4d3d
00000120: e1e1 f03d a2ef e5bd 609f ec3d 3cfa 223e
00000130: 5c07 333d 4f60 bfbd 948a 133d 8e81 103e
00000140: e6c8 8dbd 4a92 443b 7d09 6c3d 7473 813d
00000150: 27f6 62be 4dea 7abd 27f9 e2bd 3d3f 51bd
00000160: 6002 b03d e161 28be ac22 a9bd 5b91 823e
00000170: 7801 2d3e e869 b43d f3c9 113d 33a8 08be
00000180: fddf 3a3e 285f 313c 1bfb 0fbd f559 b2bd
00000190: 649c 883d de1e bf3c 222c 373d 384c 5d3e
000001a0: cd5e 2ebe 16c4 26be 3888 c73c 45a8 a63d
000001b0: 46a9 603d 31c9 9e3d 8c24 8b3c 2195 3fbd
000001c0: f02c cd3c d19a 2c3e 91b9 2f3c 6bfd 423e
000001d0: 924d 46be b9d8 76be 08ed 7ebd 4dad bfbd
000001e0: 8bc9 bf3d 8bd1 b0bd 6f31 a3bb c361 d33d
000001f0: 0b4c 4a3c cbe3 45bc ba16 debd 4ddd 463e
00000200: 7408 5cbd 3f22 93bd 4356 f13d 6c91 0c3d
00000210: 3d51 2a3d 9a5a 213e b2de f1bd 5d4f 633d
00000220: 6def 32be 54b6 363d e292 ef3d 098e 88bc
00000230: 2ae1 88bd 91d8 21be 6778 f93d b2df 37be
00000240: 2662 9f3d 35a3 a5bb 5c28 b63d 9043 9e3d
00000250: 1f0b 973d bad1 05be c75b 693d 266a 5a3e
00000260: 3bd5 c8bd cbdf 1dbe 0d0b e4bd ce6e 39bd
00000270: 10d0 803d e725 47be ef90 0d3e 8235 22be
00000280: 3d86 ebbd 4e13 07be dd1c 58bd b619 35be
00000290: 04cb 073e 44a8 5f3d 50f6 15bd 4ab1 3bbe
000002a0: 59f7 b53d ca14 adbb 4c1f 04be c4da 7c3d
000002b0: d4bc 6bbe 09e4 3bbd 5f0b 41bd 64f6 3d3e
000002c0: 9880 ae3d 924f 3c3e a490 3b3e ae2d 15bd
000002d0: 6d3e 6b3e 7b68 843d ece2 2f3e 40f7 e7bd
000002e0: 7f95 3b3b c400 2c3d 0846 393e 4895 1ebd
000002f0: 5d23 22be ecf8 963d cc7b b53d 6842 e43d
00000300: a92b 3e3d c0f8 513e 8588 873d 8c06 d6bd
00000310: e94a bd3d 6717 373d 5928 173e 0c8c a23d
00000320: 98dc 1c3e ca0b b7bd d542 81bd b322 ddbc
00000330: 171a 43bd 2762 9dbd 1586 a13d 74ab 113e
00000340: ecf6 863d a168 7fbc e741 3e3e 0f5a e63b
00000350: 6a63 b9bd d6b3 c93d 8a7f 883c ffca dabc
00000360: 5b39 073e 2e14 30be f33d 9d3d d766 11be
00000370: 900d d53d ca37 61bd d05c 603e 4cff a6bd
00000380: f9d2 b0bd d8ce f73c fd08 67bc bd7e e73c
00000390: 157b 61bd ef8a fdbd 9b33 a33c 4f2a 0cbe
000003a0: 7061 4d3c 60b7 0b3e add3 28be 596c 3bbe
000003b0: 8889 15be a29c 033e 21e1 90bd 32c7 cd3d
000003c0: 9d29 e33d 2ef4 373e 942e f7bd 4e5c afbd
000003d0: 6f13 323e 93f3 3ebd 9f3b 2b3c be77 a63c
000003e0: d7ec 03be 7d37 753d a269 193e ff26 34be
000003f0: f347 0fbe 1021 093e 5d9b b33b ba3d 02be
-0.017360765 -0.120953724 0.048976216 -0.00818754 -0.13019778 0.19874045 -0.07097617 -0.130243
0.12329672 0.19296058 0.17940477 0.015534969 -0.12737739 -0.11389394 -0.050972153 -0.14971222
-0.015542146 -0.018244175 0.094051294 0.10075914 -0.036242593 0.1476087 0.06543208 0.018763497
-0.06710402 -0.061683264 -0.08790232 -0.056427684 -0.040934794 0.108780496 -0.08590186 -0.14273322
-0.1933356 0.15869588 0.058987275 0.04448364 -0.16891153 0.037314918 0.089631975 0.07195131
-0.013005524 0.0683027 0.017770343 0.03169954 -0.20436615 -0.01811361 -0.01390136 -0.048818886
-0.16102956 0.13516615 -0.099693894 0.05866256 -0.054226913 0.1486247 0.053041354 -0.10655445
0.05438618 0.06261025 0.09374747 -0.034577146 -0.056955706 -0.17513435 0.16888793 -0.08492156
0.11481623 0.10914457 0.03494615 0.07710807 0.20897734 0.095189705 0.12369672 0.050048884
0.11761833 -0.11227347 0.11553836 0.1591577 0.04370819 -0.09344541 0.03602083 0.14111921
-0.06923084 0.0029994422 0.057626236 0.06320849 -0.22164212 -0.061258603 -0.11082678 -0.0510857
0.08594203 -0.16443588 -0.08258566 0.25501522 0.16895092 0.088092625 0.035592984 -0.13345413
0.18249507 0.01082591 -0.035151582 -0.08708564 0.06670454 0.023330148 0.044719823 0.21611106
-0.17028351 -0.16285738 0.024356946 0.081375636 0.05484893 0.07753218 0.0169852 -0.04677308
0.025045842 0.16855933 0.010725395 0.19041984 -0.19365528 -0.2410611 -0.06223777 -0.093592264
0.09364613 -0.08633717 -0.004980258 0.10321381 0.012347232 -0.012078236 -0.108441785 0.19420357
-0.053719 -0.07184266 0.11784031 0.034318373 0.04158138 0.15757218 -0.11810054 0.05549561
-0.17474146 0.044607475 0.116979375 -0.01666929 -0.06683572 -0.1580527 0.12181168 -0.17956427
0.07782392 -0.005054856 0.08894417 0.0772773 0.07375168 -0.13068286 0.05697229 0.21329555
-0.098062955 -0.15417401 -0.1113492 -0.045271687 0.06289685 -0.19448052 0.13824819 -0.15840724
-0.11500213 -0.13190958 -0.0527619 -0.17685589 0.13261038 0.05460383 -0.036611855 -0.18329349
0.088850684 -0.0052820193 -0.12902564 0.06173207 -0.23021251 -0.04587177 -0.047129985 0.18551022
0.08520621 0.18389729 0.18316895 -0.036420517 0.22973032 0.064652406 0.17176408 -0.11326456
0.0028623042 0.041992918 0.18093121 -0.038716584 -0.15833803 0.07371697 0.08861503 0.111454785
0.046428356 0.20505047 0.06617836 -0.104504675 0.092428036 0.044700053 0.14761485 0.07936868
0.15318525 -0.089377955 -0.06311575 -0.026994085 -0.047632303 -0.07684737 0.07886902 0.1422556
0.06590065 -0.01558891 0.18579827 0.007029779 -0.09052165 0.09848754 0.016662378 -0.026708124
0.13205473 -0.17195198 0.076778315 -0.14199387 0.104029775 -0.054984845 0.21910405 -0.08154163
-0.0863399 0.030249998 -0.014101264 0.028258676 -0.05504902 -0.12380015 0.019922068 -0.13688014
0.012535438 0.13644171 -0.16486998 -0.1830305 -0.14603245 0.1285272 -0.0707419 0.10047759
0.110919215 0.17964241 -0.12069431 -0.085625276 0.17390226 -0.04661901 0.0104512265 0.02032077
-0.12883316 0.05986737 0.14981702 -0.17593001 -0.1399229 0.13391519 0.005481167 -0.1271886

gru.weight_hh_l1 f4 [96, 32]
00000000: 1583 d6bd a7b3 613d 5b67 05be 87db 113d
00000010: 705b 1f3e b63c be3d 0308 ab3d 54e5 6fbd
00000020: 9245 333d 7f50 0d3e 2649 693c b935 7f3e
00000030: 4b95 8fbd 19cc 16be 8994 afbc ac9d d3bd
00000040: 3fc0 63be 2ac1 e53d 77ff 113e a152 81bd
00000050: 5364 e53d b6b2 2fbe ba04 06bd c708 e2bd
00000060: 45a6 e53d 991a c63d 24d0 5fbd df84 9e3c
00000070: af89 063c 6ef1 99bd 1a5a 413d 6973 09be
00000080: c755 45be 9159 b13d 36d1 063e dc6e 423e
00000090: 6a7b da3d b436 50bd aef5 be3d 9786 0cbe
000000a0: e1d5 233e 0055 1f3e d9ad 77bd 674d db3d
000000b0: bcf7 e03d 3605 503d 67e2 e23d 51d1 b43d
000000c0: bb44 3bbe 887c 853d 2f2f 8f3d 32f6 19bd
000000d0: 12b9 493d a7ae 97bd 23c1 023e 32e3 fc3d
000000e0: 0cda 3b3e 735e 28be 459d 2d3d 0ff9 e6bd
000000f0: 1c63 0d3d 2d22 633d 6a43 52bc 9d57 0e3d
00000100: e6b7 94bd 3f93 9ebd 62a8 313d 0228 0d3e
00000110: cb1b 0abe b657 913d 8bbb a73c dbe8 183e
00000120: ca5e f93d 774e 3c3d 7b4b ebbc 8413 073c
00000130: daea 41bd 247d 8e3d 475c 0dbe 9938 2a3e
00000140: d5fa 283e f0e1 19be 0c76 d03c a5eb 0fbd
00000150: 7c8e 243e e27b f23d e41c 17be d013 d43d
00000160: a7ea da3d 4276 24be a550 b0bd d827 1e3e
00000170: 04b1 34be 6a8e 1cbe 09d5 7dbc 6564 ad3d
00000180: d939 d63d 03bd 813d 0240 cc3d 0093 3cbe
00000190: 72ca 11be d520 73bd 1cab be3d bbcb e8bd
000001a0: 023a 013e 462c 5a3d 1e10 e5bd 5ade c1bd
000001b0: f936 05be ead5 873d 34c8 21be 18fc fe3d
000001c0: 81c2 21bc 064e 4a3e 7ab6 1bbe d758 133e
000001d0: 868e 20bd 1a85 973d f173 b1bd 23dd ebbd
000001e0: 92fc 453d b281 363d 79d0 713d 89e0 873c
000001f0: e107 fcbd 38c9 f23d 88af 043e 02eb bf3d
00000200: 94cd a63d a282 27be 7cb7 853d 297b 88bd
00000210: 0b01 173e b72a 19be d147 c13c efc5 5abd
00000220: 12b6 3abd 9a5e b13d 3f17 a2bd cabc 03be
00000230: dfa0 dd3d 276e 323d 06fa fb3d e528 d93c
00000240: 7fcc 29be aa4f 52bd 1107 77bd d6e1 bd39
00000250: a784 5cbe d139 dfbd be62 913d f5e7 cf3c
00000260: 0797 dabd e2af f9bd 3354 d5bd 65f0 d43d
00000270: 5b1d 143e 388f 123e 82c7 243d 7586 f53d
00000280: 3c98 02be 8b75 b33c 6a86 2ebe d18a d13d
00000290: 55da 00bd 3779 4abd 352d 11be 1bef 4a3d
000002a0: c4e5 0a3e ebb4 c5bb 1b31 7f3d 0258 83bc
000002b0: 56c0 a9bd fc7f 30be 9c2b 753d 8b54 f43d
000002c0: 6144 1e3e 887c f23d 6fc5 e13c 3a93 323d
000002d0: 11ca 70bd aa85 42be 544e 093e ecd8 e43d
000002e0: 0c85 193d 404c f33d 5558 26be 56cd 16be
000002f0: 6ab5 c0bd 8c4b 103d 1b17 9abd c46d d13c
00000300: 7887 1c3e 9b99 b4bd da4b aebd 746a 0a3e
00000310: 0329 0dbe 7aa1 303e 146d dbbd ba1f bd3d
00000320: 6afc 033e b910 b4bd dbfe b43d e980 0bbe
00000330: faba 013e 107a d7bd 8fbd ecbd 8452 a93d
00000340: 527b 50be 5c2d 23be d916 24bc 2992 21bd
00000350: 6237 11be 4642 37bd eff7 063d 3d55 943d
00000360: 176c f53d d8dd 143e 5a98 013e 78dc 323d
00000370: b9f1 c53d 0d3b bd3c ea0c 173e 4d97 99bd
00000380: 848c 2d3e d06f bd3d 8246 ffbd e063 4abd
00000390: f4d8 f7bd 9875 053e 96b9 50bc 3596 2ebe
000003a0: 7eda 9abc 34fc 033e bfe1 06be 6ee9 e33c
000003b0: d36c fc3d cf36 54bd 22a2 90bd 9b4f aa3d
000003c0: 523e 96bd 4aaf 273c f7ef 2dbd 0a5f d43d
000003d0: 5b84 ca3d a0de e3bd 0d29 2d3e a473 68be
000003e0: 438c ab3d 2b04 3bbe a69c 1dbe f044 72bd
000003f0: 9946 0e3e fe1b c9bd 67db 303e 15a0 14bd
-0.10474221 0.05510297 -0.13027708 0.03560975 0.15562224 0.092889234 0.083511375 -0.058568314
0.04376752 0.13800238 0.014238631 0.24922837 -0.07010897 -0.14726295 -0.021433132 -0.10332808
-0.22241305 0.11218484 0.14257608 -0.06314588 0.11200776 -0.17158017 -0.03271935 -0.110368304
0.11213354 0.09673042 -0.054641858 0.019350467 0.008211537 -0.07516752 0.04720507 -0.13422932
-0.19271003 0.086596616 0.13165745 0.18987602 0.106680706 -0.05083342 0.093242034 -0.13723217
0.15999557 0.15559769 -0.06046853 0.10708123 0.109847516 0.05078622 0.11078339 0.088289864
-0.18287937 0.06517893 0.069914214 -0.037588306 0.049248762 -0.07406359 0.12768988 0.123480216
0.18344897 -0.1644228 0.042386312 -0.11277973 0.034518346 0.055452514 -0.012833456 0.034751523
-0.07261638 -0.07742929 0.043373473 0.13784793 -0.13487165 0.07096808 0.02047517 0.14932577
0.12176283 0.045973267 -0.028722515 0.008244399 -0.047343113 0.069574624 -0.13804732 0.16623153
0.16501935 -0.15027595 0.025446914 -0.035136838 0.16069978 0.11840035 -0.14757115 0.103553414
0.10689288 -0.16060737 -0.08609132 0.15444887 -0.17645651 -0.15288702 -0.015492686 0.08466414
0.10460252 0.06334879 0.09973146 -0.18415451 -0.14237383 -0.059357483 0.0930998 -0.113669835
0.12619784 0.05326488 -0.11184715 -0.09466238 -0.13009252 0.06632598 -0.15799028 0.12450427
-0.0098730335 0.19756326 -0.15206328 0.14389358 -0.03919842 0.07398434 -0.08664692 -0.11516788
0.048336573 0.04455728 0.059036706 0.016586559 -0.1230619 0.11854786 0.12957585 0.09370996
0.0814468 -0.16358426 0.065291375 -0.06664116 0.14746492 -0.149577 0.023593815 -0.05341142
-0.045583792 0.08660622 -0.0791459 -0.12864986 0.10821699 0.04356208 0.123035476 0.026508758
-0.16581915 -0.051345505 -0.060309473 0.0003621715 -0.21534978 -0.108996995 0.07098912 0.02537916
-0.106733374 -0.1219175 -0.1041645 0.10397414 0.14464323 0.14312446 0.040229328 0.11988536
-0.12753385 0.021906635 -0.17043462 0.10231555 -0.031458218 -0.049432006 -0.14177401 0.049544435
0.13564211 -0.00603353 0.06230269 -0.016033176 -0.08288638 -0.17236322 0.059856042 0.11930188
0.15455772 0.11840159 0.027559964 0.043597437 -0.058786456 -0.18996301 0.13408786 0.11174187
0.0374804 0.11879778 -0.16244633 -0.14726767 -0.09409602 0.035228297 -0.07523938 0.025565036
0.15286052 -0.088183604 -0.08510561 0.13517171 -0.13785176 0.17249098 -0.107141644 0.09234567
0.12889257 -0.08792252 0.08837672 -0.13623394 0.12668982 -0.105213284 -0.11559593 0.08267692
-0.20359543 -0.15935272 -0.010015213 -0.03944603 -0.14181283 -0.044740938 0.03295129 0.072428204
0.11983507 0.14537752 0.12655774 0.043667287 0.096652456 0.023099447 0.1475102 -0.074995615
0.16948134 0.09249842 -0.1246462 -0.049411654 -0.121019274 0.1303314 -0.01273956 -0.17049487
-0.018903013 0.12889177 -0.13172053 0.027821269 0.12325444 -0.051810082 -0.070621744 0.08315965
-0.073361054 0.010234663 -0.042465176 0.1036969 0.09888526 -0.11126447 0.16910191 -0.22700363
0.08376362 -0.18263309 -0.15391788 -0.059147775 0.13894118 -0.09819792 0.17271195 -0.03628548

gru.bias_ih_l1 f4 [96]
00000000: 771d c33d ceff 3b3c 99f3 a8bc 7d96 533d
00000010: a3cf 6d3c 9388 b8bd 72a3 ca3c 26fb d1bd
00000020: 7e3a 13be 2ca1 023e 9df2 22be 77b4 803d
00000030: 1f1e e83d fb93 22bd 9ad2 b5bd 95e6 343d
00000040: dde9 5d3d 356e 1dbe 80aa 1d3d ee85 ed3d
00000050: f51f 563d 3c56 483b 3670 c5bd 2ab1 113e
00000060: 1f2b 153e e8e0 793d a9c5 1abd 2636 cfbd
00000070: e3a0 3c3c 6c04 9e3d 49ac 973d 08cb 183d
00000080: d52f 16be 2f5d f2bc 9eec e9bd 8080 27bd
00000090: 8a66 e33d 86c0 05be b976 4c3c 3fb3 013e
000000a0: 5fdc 1cbe 9757 0abc e246 c4bd 39cd a2bd
000000b0: 9887 2b3d 0718 f73c 1368 003c d0bc 33be
000000c0: 75cb 56be 26cc 3c3d 8e09 36bd ee84 20bd
000000d0: 72f8 4abe e06e 81bd 6b88 c4bd 0a4b 1f3d
000000e0: 917e 4bbe ce50 ccbd 50f5 493d 8459 9cbd
000000f0: 1f13 7ebd 894f 17be 7b4e 67be 3ef4 d7bd
00000100: 700f bbbd 1718 fd3d f2a3 06be 49c2 d8bd
00000110: 9039 b6bd bddd d7bd 3750 e1bc 8295 b8bd
00000120: 3f03 323e d901 1fbe c6f2 c8bd bf9b 103d
00000130: c6f2 2dbc 7476 a53c 8d4b 04be df2f 08be
00000140: e5ab 7cbd 0280 9d3c 3ec8 0cbd 33c9 71bd
00000150: ceb1 093e 88f7 81bd b1bf da3c bc5d abbd
00000160: e509 16be 5b12 16bc 3857 23be e1c4 dfbc
00000170: 75d6 f93d d506 1e3e a036 243e 3749 0f3e
0.09527104 0.011474563 -0.020623969 0.05165719 0.0145148365 -0.090104245 0.02473614 -0.10252981
-0.14377782 0.12756795 -0.15912862 0.06284421 0.1133387 -0.039691906 -0.0887806 0.044165213
0.054178108 -0.15374072 0.03849268 0.11597811 0.05227657 0.0030568978 -0.09640543 0.14227739
0.1456723 0.061005503 -0.03778616 -0.1011775 0.011512968 0.07715687 0.07405908 0.037303
-0.14666684 -0.029585449 -0.11422084 -0.04089403 0.11103542 -0.13061723 0.012479478 0.12666033
-0.1531844 -0.008443735 -0.09583832 -0.07949299 0.04187736 0.030162824 0.007837313 -0.17552495
-0.2097605 0.04609313 -0.044442706 -0.03918927 -0.19821337 -0.06319976 -0.09596332 0.038889922
-0.198725 -0.0997635 0.049306214 -0.07634261 -0.062029954 -0.14776434 -0.22588532 -0.105446324
-0.09133804 0.123581104 -0.13148478 -0.10583932 -0.08897698 -0.1054034 -0.02750407 -0.09012891
0.17384051 -0.15528049 -0.0981193 0.03530478 -0.010616964 0.020198084 -0.12919445 -0.13299511
-0.06168737 0.019226078 -0.034370653 -0.05902977 0.13446733 -0.06346041 0.026702734 -0.08367488
-0.14652212 -0.00915965 -0.1595124 -0.027315559 0.121991076 0.15432294 0.16036463 0.13992773

gru.bias_hh_l1 f4 [96]
00000000: d1c5 8ebc 275f 133d 9700 13be aec3 0d3e
00000010: c8e7 303e 0bef 603c 0896 24be 3c14 2f3e
00000020: 2e2e 2dbe ac78 09be 9a23 bebd 2770 313e
00000030: 85ae c13d 3930 163d fb6d 9e3c 37d3 eb3d
00000040: fc80 0f3d cab6 083c e3df e3bd 641d bb3d
00000050: 32d9 143e f5a5 96bc 58c1 24bd 6ead 073b
00000060: c5b2 9fbd 8c8a a63d 5dfd 003e 3809 3bbe
00000070: 3790 963c 2d9a 98bd 9126 38bd 7b8d 2f3e
00000080: 073b d0bd a8be 40be d8f8 ac3c be55 91be
00000090: de3d 24bd c96d 383c 95ae 83be 2d3c 5f3c
000000a0: f8eb 09be 9691 78be b67d 3abe 1287 333d
000000b0: 2ea6 83be 9847 62be 0b15 fdbd 3839 7c3d
000000c0: b3f1 21be d017 5ebe 9dc2 bcbd 5db2 0f3d
000000d0: b1cf d93b 051b 07be f43b b73c 9884 77bd
000000e0: d8c0 98be 9225 eabd 6f9d 3dbe 178d 80be
000000f0: baf3 68be bd5e ebbd 65aa 1abe 8e06 21bd
00000100: fd3d 44bd f03a 9cbc 7b48 363e a8ad 123e
00000110: 0b47 0abe fe90 48bc 8363 f63d 330c 10be
00000120: bad6 00bd 2ebd eb3d 1efa 04be bba8 0e3e
00000130: e73f 60bd f0e6 7c3d bf85 77bd b6b4 c43d
00000140: 344e 53bd e6b9 a93d 8762 993d 3ad0 403e
00000150: 166f 823d 5a6a 113e 178b 2abe bed7 383d
00000160: d9a0 313c ba9c 983d bd2c 053e 7a1b a6bd
00000170: 134c a7bd 52fe 2dbc f157 cdbd 7dfe d43d
-0.01742831 0.035979416 -0.14355694 0.13844177 0.17275918 0.013728867 -0.16072857 0.17097563
-0.16912147 -0.13424939 -0.09284134 0.17327939 0.09457115 0.036667082 0.019339552 0.115148954
0.03503512 0.008344362 -0.111266874 0.09136465 0.14535978 -0.018389681 -0.04022345 0.0020702737
-0.077977695 0.081318945 0.1259665 -0.18265235 0.018379314 -0.07451282 -0.044958655 0.17143814
-0.101675086 -0.1882273 0.021114752 -0.2838573 -0.040098064 0.011256644 -0.25719133 0.013625187
-0.13468921 -0.24274287 -0.18212017 0.043829985 -0.25712723 -0.22097623 -0.12357529 0.061578006
-0.15814857 -0.21688771 -0.09216807 0.03508221 0.006647073 -0.13193901 0.022367455 -0.060429186
-0.29834628 -0.11432947 -0.18517087 -0.25107643 -0.22749224 -0.11492679 -0.15104063 -0.03931289
-0.04791068 -0.019071072 0.17801087 0.14324057 -0.13503663 -0.0122416 0.12030699 -0.14067154
-0.03145478 0.115106925 -0.12986037 0.13931553 -0.054748442 0.061743677 -0.060430285 0.096047804
-0.051588252 0.082874104 0.07489496 0.18829432 0.06368844 0.14200726 -0.16654621 0.045127623
0.010841572 0.07451768 0.13005348 -0.081107095 -0.08168807 -0.010619717 -0.10026539 0.10400102

gru.weight_ih_l2 f4 [96, 32]
00000000: 6155 a3bc 8a32 053e d429 f53d 3ad7 b53d
00000010: 5881 59bd 39ed 0f3e d8bc a9bc 18bd 13be
00000020: 9671 4f3d e9ed 2f3e 9bb0 253e 9988 6fbd
00000030: dafc 92bd e9b6 e93b 8f7a 41bb 6c65 cdbd
00000040: 896b fe3c 25b9 d93d da99 823c 377c 9e3d
00000050: 4604 2f3d 8032 c5bd 597f e5bc bc62 6fbe
00000060: 8243 3a3d 082b 1cbe bd14 37bc 7124 023e
00000070: cbfc 5ebd 94a8 f23c 1240 0ebe c815 27be
00000080: 5474 be3d e576 d2bd b4de debc 7f09 813d
00000090: 64fd 8c3c 36d8 1dbe 6c1b 9cbd 0a92 e7bd
000000a0: 4414 453e 8ec7 ce3d a879 933c b850 debd
000000b0: ccb5 383d b7b2 043b a000 37bd f7db 9d3d
000000c0: ea9a 053c b0ab cc3d d116 2f3e f722 863d
000000d0: 6cef eabd 58c8 753c 84b7 e33d 472f 303e
000000e0: 67ea babc 6d86 17be f964 283e 0cb2 973d
000000f0: bcbe bfbd 50af f13d 9bc5 073e 498c 0c3d
00000100: 11a2 5abe f6fb 873d 4414 033d 198e a73d
00000110: 8b79 053d dc44 36bb 9546 31bd 7b04 debd
00000120: 6b8b 733c 3d04 20bd 4f63 003e aa21 173d
00000130: 435a 5cbd 35db 813b 6ae8 4dbd 8c49 723d
00000140: 9d5f d33c 7d07 013e d0c0 45bd f415 743d
00000150: 6ada 2dbe b05f f53d 4b94 6b3c 4195 b73d
00000160: 0c93 1c3d 5a9a c5bc aa6a 04be 64c7 2d3d
00000170: a36e 5d3d a6de 313d e004 19bc 4371 923b
00000180: 51f4 2bbe 02ea 12be 8f24 43bd 29f5 f3bc
00000190: 8523 90be 8162 453d 6f88 dbbd 81ea 0a3e
000001a0: 8d00 3f3d e785 d93d 63b6 253c e0cc 623c
000001b0: 1d92 16be c1c0 0c3e f81d 553e 2e74 b0b9
000001c0: 8f5b b03d 8a7f aebd 8827 9abd 6add 803c
000001d0: eefa 433d 5412 efbc 0216 06bc 100c 16bd
000001e0: 9dc9 be3d 5e80 7f3d 1c60 a5bd c907 533e
000001f0: 5d49 e6bd dba7 363e e6c5 193d d5ac 6e3d
00000200: bd82 c33d 963f 30bd 0b50 bb3d 2dad 193d
00000210: db2a d33c dbbd e2bd f540 e63c e3c6 c93d
00000220: 224e 373d 6986 473d 8a18 283e c292 8bbd
00000230: 986c 1d3e 277f 00bd 1d9b 40be 9163 90bd
00000240: ca80 30be 9a91 a8bd d006 f2bd 031c e13d
00000250: 735d 1cbe 80bc 53bd ed28 bbbd 0172 2abd
00000260: 6830 8bbd f557 edbd 61c8 3abd 3189 a0bd
00000270: 5705 6d3e b652 66be 69f6 933d 910f d2bc
00000280: f130 86bd d29e 83bd da78 08be 81a6 8f3d
00000290: 5593 4c3e 91e0 3abd 1195 81bd 31e9 e6bd
000002a0: 1d8c 2a3d 9751 03be 6f73 943d 9bc5 ff3d
000002b0: 32cd 0bbe 9155 22bd c5b2 b5bd 747c babb
000002c0: c73c 383d 77cf e43c 1f49 383e 6638 313d
000002d0: 37ee ce3d e1c7 f1bc 2424 0abe 21be 813b
000002e0: ff79 883d d788 71bd edd3 04be 45d1 5f3b
000002f0: b98a 353e 83f0 a2bb bb66 103e 5007 a5bd
00000300: 798d 153d 8cb5 cbbb ac31 8f3d 40b6 23be
00000310: bc71 0dbe d30b b0bc 7190 7f3d 61c1 6abd
00000320: b3ed 0bbe 9548 c23d 7802 20bd a8f5 273e
00000330: e2ca d2bd eeab a5bd 16bc e3bd 4eb0 e73c
00000340: 1131 8fbd 3dfe 18bd 59ee 58bc c716 533d
00000350: df25 003e fd51 433e 1f56 2bbe e3f5 e93d
00000360: 7990 5fbc c8fc 0fbe 3e22 22be 593d 6dbd
00000370: 403e fabd 48da 793d 7f71 a93d 1f50 e13d
00000380: 387e 7ebd a8ad 1a3d 4494 61bd 7241 783e
00000390: 94fc 75bd 6865 653e 4510 803e ac5e 71ba
000003a0: c7d0 07bd c8fe c23d d6cc a83d d290 003e
000003b0: 3ed5 b8bd ee45 37be 9e0c 043e 4911 073e
000003c0: 1324 923e 5b63 5dbd 7a07 003e 8a99 1d3e
000003d0: 9201 7a3c fcac b73d d488 0ebe b645 0abe
000003e0: e9a7 393c bbba 01be 0fd0 f2bd b623 e63d
000003f0: 597c f5bd 879b 97bd 00f6 44bd 0b29 67be
-0.019938173 0.1300756 0.11970869 0.08878942 -0.053101867 0.14055337 -0.02071993 -0.14427602
0.050645433 0.171806 0.16180651 -0.05847988 -0.07177134 0.0071324003 -0.0029522514 -0.1002911
0.031057136 0.10631017 0.015942503 0.07738536 0.042728685 -0.09628773 -0.028014826 -0.23377508
0.045474537 -0.1525079 -0.011174378 0.12709214 -0.0544403 0.0296214 -0.13891628 -0.16316903
0.092995316 -0.102765836 -0.027205803 0.06300639 0.01721067 -0.15414509 -0.07622418 -0.113071516
0.19246012 0.10096656 0.018002346 -0.1085524 0.04509525 0.0020248124 -0.04467833 0.077079706
0.00815461 0.09993684 0.17098548 0.06549638 -0.11471447 0.015001379 0.11118987 0.17205535
-0.02281685 -0.14797373 0.16444768 0.074070066 -0.093625516 0.11801016 0.13258974 0.034313474
-0.21350886 0.066398546 0.03200175 0.081814 0.032586616 -0.002781204 -0.043280203 -0.10840698
0.014864783 -0.039066542 0.12537883 0.03689734 -0.053797018 0.003962899 -0.050270475 0.05915217
0.025802428 0.12600513 -0.048279583 0.05959125 -0.1697785 0.119811416 0.0143786175 0.08964015
0.038226172 -0.024121452 -0.12931314 0.04242648 0.05406059 0.043425225 -0.009339541 0.0044690683
-0.16792418 -0.1434708 -0.047642287 -0.029779987 -0.281521 0.048189644 -0.10719382 0.13566019
0.046631385 0.10621243 0.010114285 0.013842791 -0.14704175 0.13745405 0.20812213 -0.00033655897
0.086112134 -0.0852042 -0.07527071 0.015730578 0.047846727 -0.029183544 -0.008183958 -0.036632597
0.093157984 0.06237828 -0.08074972 0.20608439 -0.11244462 0.1783747 0.037542246 0.058270294
0.09546421 -0.04302939 0.09146126 0.03751867 0.025777271 -0.11071368 0.028107146 0.09852388
0.044752248 0.048712168 0.16415611 -0.06815101 0.15373456 -0.031371262 -0.18809171 -0.07050241
-0.17236629 -0.08230896 -0.11817706 0.10991671 -0.15270023 -0.05169344 -0.09138665 -0.04161263
-0.06796342 -0.11589042 -0.045601252 -0.07838667 0.23146568 -0.22492489 0.072247334 -0.025642188
-0.065523036 -0.06426777 -0.13327351 0.0701418 0.19978078 -0.04562432 -0.0632726 -0.112749465
0.04163753 -0.12824093 0.0724858 0.12488862 -0.13652495 -0.039632384 -0.08871988 -0.0056911055
0.044979837 0.027930958 0.17996643 0.043266676 0.101040296 -0.029514255 -0.13490349 0.0039594327
0.06663894 -0.05896839 -0.12971468 0.0034151834 0.177287 -0.004972519 0.14101689 -0.080580354
0.036511872 -0.0062167104 0.06991896 -0.15987492 -0.13812917 -0.021490013 0.06239361 -0.057313327
-0.13664894 0.094865 -0.039064854 0.16402304 -0.10292603 -0.080894336 -0.11119859 0.02828231
-0.069917805 -0.037351836 -0.01324042 0.051535394 0.12514447 0.19074245 -0.16732071 0.11423852
-0.013645285 -0.14061272 -0.15833375 -0.057919834 -0.122189045 0.060999185 0.08273601 0.1100161
-0.06213209 0.037763268 -0.055073038 0.24243715 -0.06005533 0.22401965 0.25012413 -0.00092075276
-0.03315809 0.09521252 0.08242194 0.12555245 -0.09025048 -0.1789777 0.12895438 0.13190188
0.28543147 -0.05404983 0.12502852 0.15390602 0.015259163 0.08968541 -0.13919383 -0.13503155
0.011331537 -0.12668888 -0.1185609 0.1123728 -0.11986608 -0.07402711 -0.048086166 -0.2257425

gru.weight_hh_l2 f4 [96, 32]
00000000: bc45 10be cdb2 923d 9527 2abd 667a 053e
00000010: 832e 0cbe 4dc9 aebc 9e8f ce3d 3418 dbbd
00000020: 2615 ecbd 1e4a aa3d d4d0 b53d ea5d f9bc
00000030: 3dee 26bd f9be 21bd 8ccd b6bd 956f 1e3e
00000040: 2280 71bc bc93 c5bd e902 213e 185a f63c
00000050: c4fa d0bd ba52 bb3c 6246 bbbd 8746 853d
00000060: cbc4 0f3e 8424 00be 6e26 92bd 2044 af3d
00000070: bdec 0fbe 5be8 e0bd ddde 013e e25e d2bd
00000080: 8b9e 1c3d 7922 d63d f634 65bd 3d9d d2bd
00000090: 0a22 bfbd 49ac b23c d896 083e 2679 d1bd
000000a0: b81c 90bc ff46 c0bd 5183 113e a0b3 89bd
000000b0: ef63 633c 7da7 173e 66e8 5e3d ad5d 403e
000000c0: 459b f63b 3b64 0abc 25d3 043e 1d5d c63d
000000d0: 9b60 843d 60e8 86bd ab6e b4bd 778d 103d
000000e0: e18b e13c 62e6 debd 3af4 a53c 71ac e3bd
000000f0: 2798 34be e061 e8bd f5fb 17be 58b9 b23d
00000100: 949b 373e f2a3 81bd fad3 16be 0a1d 0cbd
00000110: aba8 7f3c efac 6f3d 3e21 89bb db97 02be
00000120: 4e98 07bd 05e3 96bd 2f77 143e 57ac 24bd
00000130: a697 3cbd edbc c7bc 5992 c63d 0517 21be
00000140: cd9c 323e 9bd4 dcbd 529a 173e 5b35 c33d
00000150: d16c 453e 5587 873c 107e 173e 7efa 8cbd
00000160: 073b 083e 805c 8d3d def1 0d3e 0049 07be
00000170: 2a21 b6bd 7ebf 083e 5803 5bbc 5012 9cbd
00000180: be86 d9bd fa13 7bbd 2401 71bd da55 7ebd
00000190: 7688 283d 1c72 babd 8f20 063e 794c 213e
000001a0: 8886 2d3d 7e58 dd3d b882 4d3d 6340 1c3e
000001b0: 2813 d1bd d335 e7bc 31b1 003e a3fd ffbd
000001c0: 2aa3 2f3d b6ea a03d 56e1 92bd 10a1 e93d
000001d0: 4bcd bbbd 2e58 a23b 0081 19be cfb3 a03c
000001e0: 67da d13d 1e60 263e 98f0 5d3c 4ce2 42bc
000001f0: 7a88 293e 02dd cabc 7ae6 6a3d 66e3 0abd
00000200: 1723 2c3c f4d3 2d3e afc5 953d 9948 f5bc
00000210: 06f2 d4bd d805 f53b 20aa 2c3c c302 103e
00000220: e6f4 23be d2c6 19be 9a0a 6fbd efa1 853d
00000230: 96f0 dabd 10bf ce3d 94f8 2a3e 0239 40bd
00000240: c4fa 26bd 2ad6 60bd df6b 113e a2b6 453e
00000250: e8fc 0bbe 0477 073e d33b 1ebe 4882 ad3c
00000260: 1495 a23d 22b3 08be 2a49 ee3d 3491 dc3c
00000270: 1bd5 3fbe ad60 c4b9 6445 25be 64b4 cb3d
00000280: 0908 183e db08 9dbb 1a65 e6bd f817 b13b
00000290: e53f 9bbd 3b3d e23d 5f28 a5bd e190 60bd
000002a0: 76f0 c7bd 4947 133d 5435 18be 479b e43c
000002b0: 16ee 2c3d 0657 0dbe 65dd 6dbd 4af9 15be
000002c0: 19e6 dd3d 084c eb3c 504c f5bd 3ff2 d33a
000002d0: 5c75 ce3d 5e2d 07bd 3b80 06be 03ce dfbc
000002e0: 592f e6bd c3c0 7e3c 36d0 033e 2476 23be
000002f0: 08e3 383e e42e d3bc ddc3 143e 8a44 103e
00000300: 836f 61bd 0fa5 c63d 9391 5b3d 3061 59be
00000310: 89bb dd3d a1b0 213d 848e 5d3d 0fdc 55be
00000320: 8422 d23d 11bf 1cbe e5d0 9bbd e1e5 103d
00000330: 2635 163e 35bb e43c fb80 213e 8478 adbd
00000340: 5bbd 9abd 5899 dc3d ed0b 053d 603f b8bd
00000350: fed3 87bc b338 0abe 1e01 c03c fdd1 3cbd
00000360: 7122 66bd 2831 4dbd 6333 eabd b806 133e
00000370: 8185 89bd c30b 3f3e a460 ad3d 3d1e 163e
00000380: ce9a 803e e09f 293e c557 b63d 1a70 a63c
00000390: 928b 0a3e 2a2f ea3d 377a 5d3c 6a24 f03d
000003a0: 0bc8 18be 1952 bcbd 5ed9 0cbd e5df 053e
000003b0: 5f91 adbd dbd3 c63d 06c6 9d3a 1c9f 01be
000003c0: 4dc7 1f3e 3425 8ebd 5b09 ec3d f2c5 14bd
000003d0: 36d1 11be c545 deba c843 7f3d 28f0 183e
000003e0: 762f 37be 47f5 4dbd a536 84bc 9fc4 d6bc
000003f0: adc0 f63d 32fa 4a3c 74ab f2bd 2c44 083d
-0.14089102 0.0716301 -0.041541655 0.13034973 -0.13689618 -0.021336222 0.100859866 -0.10697976
-0.11527471 0.08314918 0.088777214 -0.03044029 -0.040754545 -0.039488766 -0.08925924 0.15472253
-0.014740022 -0.09647319 0.15723766 0.030072257 -0.1020408 0.022866596 -0.09144284 0.06507593
0.14039914 -0.1251393 -0.07136236 0.08557916 -0.14055152 -0.10981818 0.12682672 -0.10272004
0.038237136 0.10455794 -0.05595871 -0.10283897 -0.09332664 0.021810668 0.13338792 -0.10228185
-0.01759182 -0.093885414 0.1421025 -0.06723714 0.0138788065 0.14809985 0.05442085 0.18785734
0.007525834 -0.008446748 0.1297117 0.09685729 0.064637385 -0.06587291 -0.08810171 0.03529116
0.02753252 -0.10883786 0.020258058 -0.11116875 -0.17636167 -0.11346793 -0.14842208 0.08726758
0.17930442 -0.06330098 -0.147293 -0.03420738 0.015604178 0.05851453 -0.004184871 -0.12753241
-0.033104233 -0.07367519 0.1449859 -0.04020342 -0.04604306 -0.024382079 0.09695882 -0.15731438
0.17442627 -0.10782739 0.14804962 0.09531661 0.19279791 0.016544024 0.14794183 -0.06883715
0.13303767 0.069024086 0.13861796 -0.13211441 -0.08893044 0.13354298 -0.013367496 -0.0762068
-0.10621403 -0.061298348 -0.05883898 -0.062093593 0.041145764 -0.09103796 0.13098358 0.15751828
0.042364627 0.10807894 0.05017349 0.15258937 -0.10208732 -0.028223908 0.12567593 -0.12499549
0.042880215 0.078572676 -0.07171886 0.11407673 -0.09170016 0.0049543595 -0.14990616 0.01961699
0.10246735 0.16247603 0.013546132 -0.011894774 0.16555968 -0.024763588 0.057348706 -0.03390827
0.010506413 0.16975385 0.07313096 -0.029941844 -0.10397725 0.0074775033 0.010538608 0.14063554
-0.1601139 -0.1501725 -0.05835972 0.06525027 -0.106904194 0.10095036 0.16696388 -0.046929367
-0.040766492 -0.054891743 0.14201306 0.1930795 -0.13670695 0.13228995 -0.15452509 0.021180287
0.07938591 -0.13349584 0.11635049 0.026924707 -0.18733637 -0.00037456062 -0.16139752 0.09946516
0.14846815 -0.0047923154 -0.11249752 0.0054044686 -0.07580546 0.11046835 -0.08064341 -0.054825667
-0.09762661 0.035956655 -0.14864093 0.027906073 0.042219244 -0.13802728 -0.058072466 -0.14645877
0.10834903 0.028722778 -0.11977446 0.0016170217 0.10080978 -0.03300225 -0.13134854 -0.027319914
-0.112394996 0.015548888 0.12872395 -0.15963036 0.18055356 -0.025779195 0.14527841 0.14088646
-0.055037986 0.09699451 0.053605627 -0.2122848 0.10826785 0.039475087 0.05409099 -0.20884727
0.102604896 -0.15307261 -0.07608203 0.03537548 0.14668712 0.027921299 0.15771858 -0.08470252
-0.07555648 0.107714355 0.032482076 -0.08996463 -0.016580578 -0.13498192 0.023438033 -0.046098698
-0.05618519 -0.050095707 -0.114355825 0.14358032 -0.06714917 0.1865683 0.08465698 0.14659972
0.25118107 0.16564894 0.089034595 0.020317126 0.13529804 0.11434777 0.013517908 0.117256954
-0.1492006 -0.091953464 -0.034386985 0.1307369 -0.08474993 0.09708377 0.0012037165 -0.12658352
0.15603371 -0.0694069 0.11525222 -0.036321588 -0.14239964 -0.0016958049 0.0623205 0.14935362
-0.17889199 -0.050282743 -0.016139338 -0.026216803 0.12048469 0.012388753 -0.11849108 0.03326814

gru.bias_ih_l2 f4 [96]
00000000: 5b7d 10be b3d0 cb3c 31e6 dfbd 2e79 0e3d
00000010: 9884 113e ecdf 333d 4845 fd3d 28b4 013e
00000020: 4584 1dbe 79ba f1bd 3a23 01be 14dc a13b
00000030: 7cfc 993c bf7b a6bd cac5 213e 1b6e 833d
00000040: 1e6c 1ebe 6a82 8f3d 81bb 25be 55e9 babd
00000050: ee01 53bc c27e 863c 6025 043d c0f1 483d
00000060: 0504 9b3d 9583 fdbd a0c2 1d3e 2dac fdbd
00000070: 29e3 353e 31d9 d5bd 7c7d 09be 8b84 61bc
00000080: 87a6 f2bd eb66 3ebe 6bdc 96bd 0107 97bd
00000090: 2565 f8bd 6a43 853c c66b 3bbe a112 933d
000000a0: 2268 233d 9f5d 32bc a286 4fbe 10c1 80be
000000b0: 2625 59bd 571c 66bd 991f d4bc 6511 94bd
000000c0: 7782 80be e562 e13b 0740 84bd b304 aebd
000000d0: d8a5 ebbd 7da0 3cbe cdbe 273b fe87 d2bc
000000e0: 59c2 c5bd ff53 00be 94ad be3c 9e2a e63d
000000f0: e370 9cbe a938 7abe b0ac 10be e6de cdbd
00000100: c086 1c3c a2f7 3cbd 17d2 10be d036 1f3e
00000110: 0313 0d3e 2e76 5e3d 4b64 22be a078 853b
00000120: 358b 643d 06f8 81bc 5792 113e d999 96bd
00000130: 2e11 07be 2c15 03be dba7 2ebe 8e1f e33d
00000140: d7fb 5dbd 7322 1dbe 5c43 e2bd 3286 37bd
00000150: 52a7 b93d c34c 34bc 4d61 d03c 319e 28be
00000160: b87e 47bc 9bc3 18be 228d 213d 7806 173e
00000170: 492b 0cbe b357 86bd 4d3c 443d b599 30be
-0.1411032 0.024879789 -0.109325774 0.034783535 0.14210737 0.04391472 0.1236673 0.1266638
-0.15382488 -0.11803145 -0.12611094 0.0049395654 0.018797152 -0.081290714 0.15798107 0.06417485
-0.15470931 0.070072964 -0.16184808 -0.09126536 -0.012878878 0.016417865 0.032262206 0.049058676
0.07569126 -0.12378613 0.15406275 -0.123863555 0.17762436 -0.104418166 -0.13426775 -0.013764511
-0.11848169 -0.18593948 -0.0736626 -0.07374383 -0.12128667 0.016267497 -0.18302831 0.071812876
0.03989423 -0.010886579 -0.20266202 -0.25147295 -0.053013943 -0.05617937 -0.025893973 -0.0722988
-0.25099537 0.006878244 -0.06457525 -0.0849699 -0.115062416 -0.18420596 0.0025595904 -0.025699612
-0.096562095 -0.12532042 0.023276128 0.11238597 -0.30554876 -0.24435677 -0.14128375 -0.1005228
0.009553611 -0.0461346 -0.14142643 0.15548253 0.13776784 0.054311924 -0.15858571 0.0040732175
0.05579682 -0.015865337 0.1421598 -0.07353563 -0.13190147 -0.12801045 -0.1705622 0.11090003
-0.05419525 -0.15345173 -0.11048004 -0.044805713 0.09065117 -0.01100463 0.025437022 -0.16466595
-0.012176208 -0.14918368 0.039441235 0.14748561 -0.13688387 -0.06559696 0.04790907 -0.17246135
