machine_learning/models/model.pth (torch, 220979 bytes, 22 tensors)

rnn.weight_ih_l0 f4 [64, 128]
0	0xbc57653d	-0.013146696
1	0x3dc4fd26	0.09618597
2	0xbcb3bfa5	-0.02194197
3	0x3dbdc571	0.092661746
4	0x3d15f6d7	0.036612358
5	0xbe0657b8	-0.131194
6	0xbd874829	-0.0660556
7	0xbd0a75d1	-0.033803765
8	0x3d543948	0.05181244
9	0x3d25d3ca	0.04048518
10	0x3df2cbb1	0.11855257
11	0xbd6001a2	-0.054689057
12	0x3d78596b	0.06063215
13	0xbd9ad67d	-0.07560442
14	0xbdde5099	-0.108552165
15	0x3c6b85ef	0.014375194
16	0x3db3a1bb	0.08771082
17	0x3da82c6c	0.08211598
18	0xbe02f4f9	-0.12788762
19	0x3bf6a4ac	0.0075269546
20	0xbdc176cb	-0.09446486
21	0x3dcf22da	0.10114069
22	0xbcd49409	-0.025949495
23	0xbdc9a0c5	-0.098451175
24	0xbc9b68ed	-0.018970931
25	0x3dbfc9f8	0.09364694
26	0x3d12e83a	0.035866
27	0xbd86ef88	-0.06588656
28	0xbd7ab6fe	-0.06120967
29	0x3de011ad	0.109408714
30	0x3dc3ecb8	0.09566635
31	0x3bb4cfaf	0.005517922
32	0x3d15a2b3	0.036532115
33	0xbc9c2521	-0.019060673
34	0xbd17346b	-0.036915224
35	0xbe019744	-0.1265536
36	0x3d731cd1	0.059353653
37	0xbddcaf4d	-0.107756235
38	0x3da66d83	0.081263565
39	0xbd8a0b2f	-0.06740414
40	0x3dcc52d0	0.09976733
41	0x3ddba158	0.10724133
42	0x3d9a4ba2	0.07533957
43	0x3bbe0b96	0.005799721
44	0xbcc33696	-0.02382974
45	0x3dc11cdb	0.09429332
46	0x3d7f3319	0.06230459
47	0xbc7fd67d	-0.015615103
48	0xbd9ae74d	-0.075636484
49	0x3dac0b9b	0.08400651
50	0x3cec4831	0.028843017
51	0xbd842442	-0.06452228
52	0xbdd49b5c	-0.10381195
53	0xba8cb718	-0.0010735719
54	0xbdc6835e	-0.09693025
55	0x3ba48f76	0.0050219847
56	0xbb8b9ead	-0.004260859
57	0xbdf339ad	-0.11876235
58	0x3d390a2f	0.045175727
59	0x3d4a39a8	0.04937139
60	0xbc529ff3	-0.012855518
61	0x3d385954	0.045007065
62	0x3c0e90a1	0.008701474
63	0x3ce7c982	0.028294329
64	0xbdd214a2	-0.10257842
65	0x3d6b6860	0.057472587
66	0xbac0765e	-0.0014683714
67	0x3d7f8167	0.062379267
68	0xbd533514	-0.05156429
69	0xbd48f2f0	-0.04905981
70	0x3de880d3	0.11352696
71	0xbc60feb9	-0.013732606
72	0x3d557434	0.052112773
73	0x3d92bfa5	0.071654595
74	0x3db1b979	0.08677954
75	0x3d2aad13	0.041668963
76	0xbcfc63ab	-0.030809244
77	0xbd068e6a	-0.03285066
78	0xbdb6e000	-0.08929443
79	0xbdac13cd	-0.08402214
80	0xbde3e1d3	-0.11127057
81	0xbe07cd09	-0.13261808
82	0x3c829799	0.015941428
83	0xbdb6684d	-0.089066125
84	0xbde9f802	-0.11424257
85	0x3d920573	0.071299456
86	0x3df3ea3f	0.11909913
87	0xbd632a88	-0.055460483
88	0x3d64c2de	0.055849902
89	0x3d9f59b8	0.07780784
90	0xbd1e83c9	-0.0386999
91	0x3d9658d6	0.07341163
92	0x3d9066f0	0.07050884
93	0xbd9d5d14	-0.07683769
94	0x3c9cdb80	0.019147635
95	0x3de262b2	0.11053981
96	0xbd5df5ff	-0.05418968
97	0x3dd2014d	0.10254154
98	0x3d3ab66a	0.04558412
99	0xbdc84fa2	-0.09780814
100	0xba8b01ae	-0.0010605359
101	0x3db43987	0.08800035
102	0x3c3d57f9	0.011556619
103	0x3daa82d4	0.08325735
104	0xbdecdf97	-0.11566084
105	0x3da649a0	0.081195116
106	0xbd67513e	-0.056473963
107	0x3d9fd6c6	0.07804637
108	0xbc2b7007	-0.010463721
109	0xbc9dc138	-0.019257173
110	0x3deefa87	0.11668878
111	0x3df12533	0.11774673
112	0x3d11bddd	0.03558146
113	0xbdac12f9	-0.08402056
114	0x3c5ea503	0.013589147
115	0xbd9d0968	-0.0766781
116	0x3ddc8aa8	0.10768634
117	0x3ce2c311	0.027680906
118	0x3d84e381	0.064887054
119	0x3d94f14b	0.072725855
120	0xbda6bf03	-0.08141901
121	0x3d4a4d24	0.049389973
122	0x3e020b4e	0.12699625
123	0xbdec6c00	-0.11544037
124	0x3ce6f8df	0.028194843
125	0xbdd5fcd1	-0.104486115
126	0x3dcbe453	0.09955659
127	0xbcf12388	-0.029435888
128	0xbc688135	-0.014190962
129	0x3dfd9244	0.123814136
130	0x3db53e37	0.08849757
131	0x3cfc8c32	0.03082857
132	0x3c176817	0.009241126
133	0xbdc4f4b2	-0.096169844
134	0x3dd6bc13	0.10485091
135	0x3e1377c0	0.1440115
136	0x3de46952	0.11152901
137	0x3d99eaf5	0.075155176
138	0x3ca196e4	0.01972527
139	0xbc834615	-0.016024629
140	0xbd1c1e04	-0.038114563
141	0x3e12c7c3	0.14334016
142	0x3d609cea	0.054837145
143	0x3d21ec71	0.03953213
144	0x3dea8d3b	0.11452719
145	0xbd86dbe7	-0.06584912
146	0xbd8a6a62	-0.06758572
147	0xba73b4da	-0.00092966633
148	0x3dd83bd5	0.10558287
149	0x3dcc82fc	0.09985921
150	0x3ce3a585	0.027788887
151	0x3e28c5a4	0.16481644
152	0xbd8cc973	-0.06874361
153	0x3cab8696	0.020938199
154	0xbd2384b0	-0.039921463
155	0x3e163f08	0.14672482
156	0x3cdc716b	0.02690955
157	0x3d82b1ee	0.06381594
158	0x3df00d7b	0.11721321
159	0xbd8c39ba	-0.06846948
160	0xbd53ec01	-0.051738743
161	0x3ccc1bd7	0.024915619
162	0x3d9fd3b6	0.078040525
163	0x3d803f96	0.06262128
164	0xbd43c268	-0.047792822
165	0x3d089694	0.033346727
166	0xbce41836	-0.027843576
167	0x3c103be2	0.00880334
168	0xbb97f2bb	-0.00463709
169	0xbd4b5a97	-0.04964694
170	0xbd1c786d	-0.038200784
171	0x3db3d556	0.08780925
172	0xbdbf3e3a	-0.09338041
173	0xbd6195fd	-0.05507468
174	0xbd3d5006	-0.046218894
175	0xbdc2afda	-0.09506197
176	0x3b6249ae	0.003452878
177	0x3df560c7	0.119813494
178	0x3d8aef7c	0.06783959
179	0xbd8b0b67	-0.06789284
180	0x3e058ae4	0.13041264
181	0x3b16048d	0.0022890896
182	0x3ca4a432	0.020097826
183	0xbd24e35f	-0.0402559
184	0x3e05a643	0.13051705
185	0x3d9d5199	0.07681579
186	0xbdf37192	-0.11886896
187	0xbd32ffac	-0.04370086
188	0x3d9bfc2e	0.07616459
189	0xbd2f493a	-0.042794444
190	0x3d869a7d	0.06572435
191	0x3d88ddab	0.06682905
192	0x3d540523	0.05176271
193	0x3d71272e	0.058875255
194	0x3d8be0f1	0.068300135
195	0xbdcbe9eb	-0.09956726
196	0x3d811b0a	0.063039854
197	0x3c81cd6f	0.015845029
198	0xbddbd808	-0.10734564
199	0xbd7eaa0f	-0.0621739
200	0xbd259477	-0.04042479
201	0x3dd5b124	0.104341775
202	0xbc8f5d67	-0.017500592
203	0xbd6bf548	-0.057606965
204	0x3ded547a	0.11588378
205	0x3ddf2b17	0.108968906
206	0x3db5fe95	0.08886448
207	0x3e00371a	0.1252102
208	0xbd5f8662	-0.054571517
209	0xbcc6e560	-0.024279296
210	0xbdb32a66	-0.08748321
211	0xbe023e53	-0.12719087
212	0x3dd5e4e3	0.10444047
213	0xb9eaa952	-0.00044758111
214	0xbd58dfa7	-0.052947666
215	0x3d22d0d5	0.03974994
216	0x3d0878c6	0.033318304
217	0xbcad7607	-0.021174444
218	0xbd9e03f8	-0.07715601
219	0xbce4894b	-0.027897498
220	0xbe00c526	-0.12575206
221	0xbd6e199c	-0.05812989
222	0x3cc7c8fa	0.024387825
223	0xbcc301bf	-0.023804544
224	0xbb8c9521	-0.0042902385
225	0xbdb1de80	-0.08685017
226	0xbc2f7044	-0.010707919
227	0x3b30d97e	0.0026985104
228	0xbd107886	-0.03527119
229	0x3ded0584	0.11573318
230	0xbcfb3e88	-0.030669466
231	0xbd67d1d5	-0.056596596
232	0xbdd9f14c	-0.10641727
233	0x3d993b01	0.07481957
234	0xbe104d78	-0.14092052
235	0xbdddbd90	-0.10827172
236	0x3ca52619	0.020159768
237	0xbdf34416	-0.11878221
238	0x3db7fdc9	0.089839526
239	0xbdd8b14c	-0.10580692
240	0xbd92c7d2	-0.07167019
241	0xbd86b586	-0.065775916
242	0x3d357a60	0.04430616
243	0x3c110efe	0.008853672
244	0xbdf6b82c	-0.12046847
245	0xbd637de8	-0.055539995
246	0x3db4dd61	0.08831287
247	0xbd8659f4	-0.06560126
248	0xbdf439e0	-0.11925101
249	0xbd71f2dc	-0.0590695
250	0x3d7c1776	0.06154581
251	0x3cf097d3	0.02936927
252	0xbdf61b3d	-0.12016914
253	0xbd4e3fa0	-0.050353646
254	0xbd7a391f	-0.06108963
255	0xbd26a1b2	-0.04068155

rnn.weight_hh_l0 f4 [64, 64]
0	0xbd277fcc	-0.04089336
1	0xbc91109f	-0.01770812
2	0xbc021ca6	-0.007941401
3	0x3d7e0385	0.062015075
4	0x3da7e8e9	0.08198721
5	0x3d3d6608	0.046239883
6	0xbd57ca93	-0.052683424
7	0xbd4d11a8	-0.050065666
8	0xbe0ac0e7	-0.13550149
9	0xbd9c66c3	-0.07636788
10	0xbd0a4e79	-0.033766244
11	0xbdf72f63	-0.12069585
12	0x3d5ad240	0.053423166
13	0x3da3fe2f	0.08007466
14	0x3b933178	0.004491981
15	0xbdb4bbe0	-0.08824897
16	0xbd8024b2	-0.06256999
17	0x3daeb071	0.08529747
18	0xbd610c82	-0.05494357
19	0xbc9d71cc	-0.019219302
20	0x3d434a6e	0.047678404
21	0x3df64865	0.12025527
22	0x3a694956	0.00088991725
23	0xbc7b67a4	-0.015344534
24	0x3d531610	0.051534712
25	0xbda8adb5	-0.08236257
26	0xbe17ed79	-0.14836682
27	0x3d932101	0.07184029
28	0xbd544f02	-0.05183316
29	0xbddeb176	-0.10873692
30	0xbd48a507	-0.048985507
31	0x3de76447	0.11298423
32	0x3d359ef7	0.044341054
33	0xbddb4915	-0.10707299
34	0xbd2c607d	-0.042084206
35	0x3df38fa1	0.118926294
36	0xbc99597f	-0.018719433
37	0x3d4d3145	0.050095815
38	0xbdc69194	-0.096957356
39	0xbdadd666	-0.08488159
40	0x3dd7ec1c	0.10543081
41	0x3dcb373b	0.09922644
42	0x3bf4a288	0.0074656643
43	0x3db2f96d	0.087389804
44	0xbda38a82	-0.07985403
45	0x3da76dc7	0.08175235
46	0xbd7d8325	-0.061892647
47	0x3df1bdc1	0.11803771
48	0xbe03dbdf	-0.12876843
49	0x3cce7ec1	0.025206925
50	0x3de9e9da	0.11421557
51	0x3d16252d	0.036656547
52	0xbd8f0fb0	-0.06985414
53	0xbce41084	-0.027839907
54	0xbdcfd953	-0.10148873
55	0x3dbfaad2	0.09358753
56	0x39f262ed	0.00046231542
57	0xbc7eefe1	-0.015560121
58	0xbd4ca5bf	-0.049962755
59	0xbd8de1ff	-0.06927871
60	0x3c00abda	0.007853473
61	0x3cb31bda	0.021863867
62	0x3dc49c8c	0.096001714
63	0xbdbcb966	-0.092150494
64	0xbe1268f4	-0.14297849
65	0x3d79f503	0.061024677
66	0xbd7955d6	-0.060872875
67	0xbc700091	-0.014648573
68	0xbe122852	-0.14273193
69	0x3c12d69e	0.008962302
70	0xbd3efa78	-0.046625584
71	0x3dae4b03	0.08510401
72	0x3d94a380	0.07257748
73	0xbdbfa66c	-0.09357914
74	0xbcad6ca4	-0.021169968
75	0xbd1cf763	-0.038321864
76	0x3e2ffa06	0.1718522
77	0x3d9e9a2e	0.07744251
78	0xbd852079	-0.06500334
79	0xbe187a46	-0.14890394
80	0x3e03b87d	0.12863345
81	0xbde5374a	-0.11192186
82	0xbbdfd406	-0.006830695
83	0xbdbd62f3	-0.09247389
84	0xbe0611d9	-0.13092746
85	0x3d56f153	0.05247624
86	0x3be5f09b	0.007017208
87	0xbe1e3a6b	-0.15451972
88	0xbe01c79b	-0.126738
89	0xbdcf5097	-0.10122793
90	0xbaf620c4	-0.0018778075
91	0xbe0452a8	-0.12922156
92	0x3e05249a	0.13002244
93	0x3d1fe4d3	0.039036583
94	0x3de3d2b2	0.11124171
95	0x3e3fa40a	0.1871492
96	0x3dd073ba	0.10178323
97	0x3e150157	0.14551292
98	0x3cce96d4	0.025218405
99	0x3da12683	0.07868674
100	0xbc2f5ee4	-0.010703776
101	0xbbdd8ae7	-0.006760943
102	0x3d91c015	0.07116715
103	0xbda06838	-0.07832378
104	0x3d24170b	0.040061038
105	0xbd9ef6ed	-0.07761941
106	0x3ccbed83	0.024893528
107	0x3db740e3	0.08947923
108	0xbe0a6f01	-0.13518907
109	0x3e3f671f	0.18691681
110	0x3d46b606	0.048513435
111	0x3d2df7ae	0.042472534
112	0x3bfce58f	0.007717795
113	0x3cfba8ea	0.030720193
114	0x3dfcf5e8	0.123515904
115	0x3d9e82a8	0.077397645
116	0x3da39491	0.07987321
117	0x3d877613	0.06614318
118	0xbde84938	-0.1134209
119	0x3cc1f795	0.023677627
120	0x3d96c5c2	0.07361938
121	0x3cf3e1bd	0.029770726
122	0x3dca1f02	0.098691955
123	0x3c7551e6	0.014973139
124	0xbd49fadb	-0.0493115
125	0xbdac5916	-0.08415429
126	0x3d99ed20	0.07515931
127	0xbcc06855	-0.02348725
128	0x3d9e3d4e	0.07726537
129	0xbd94b34a	-0.07260759
130	0x3cb9276a	0.022601802
131	0x3db34972	0.08754243
132	0xbdd6b0e3	-0.10482957
133	0x3d4d725d	0.050157893
134	0x3cb801c0	0.022461772
135	0xbd983e45	-0.07433752
136	0xbda1d584	-0.07902053
137	0xbdcca720	-0.09992814
138	0xbd005102	-0.031327255
139	0xbb684487	-0.0035441236
140	0x3d183ee2	0.037169345
141	0xbd488a0d	-0.04895978
142	0x3dcb9975	0.09941379
143	0xbd019554	-0.03163655
144	0x3bb1b684	0.005423369
145	0xbdf07053	-0.11740174
146	0x3d846f5b	0.06466552
147	0x3c9cacf2	0.019125436
148	0xbd9cf09c	-0.0766308
149	0xbd294af9	-0.041331265
150	0xbd4a5470	-0.049396932
151	0x3d890004	0.06689456
152	0x3b12f696	0.0022424809
153	0x3d9dba13	0.077015065
154	0x3df9202b	0.12164339
155	0x3ce40d9c	0.02783852
156	0xbd45ad66	-0.04826107
157	0x3d1d4e18	0.038404554
158	0x3d785fc4	0.060638204
159	0xbba076fa	-0.0048969956
160	0xbd4a0407	-0.049320247
161	0x3de20375	0.110358156
162	0xbe00d9ff	-0.12583159
163	0xbdfda650	-0.12385237
164	0xbe0b36e5	-0.1359516
165	0xbddc7e12	-0.107662335
166	0x3dee5e51	0.11639083
167	0x3df52521	0.119699724
168	0xbdaa53ca	-0.08316763
169	0x3b859906	0.0040770797
170	0xbdd6644e	-0.1046835
171	0x3db55b64	0.08855322
172	0xbdcb1a5c	-0.09917137
173	0x3d8d51d4	0.06900373
174	0x3dda4dd4	0.10659376
175	0x3dfd602c	0.12371859
176	0x3d5cdfe5	0.05392446
177	0x3e042897	0.12906109
178	0x3dc5cfda	0.09658785
179	0x3c0b4359	0.008499944
180	0x3d91b8d4	0.07115331
181	0xbe0087f2	-0.12551859
182	0x3c3db061	0.011577697
183	0xbdb3b337	-0.08774417
184	0x3e13ff35	0.14452823
185	0xbd861628	-0.06547195
186	0x3d541642	0.05177904
187	0xbd7e13b6	-0.062030517
188	0x3d4276d5	0.04747661
189	0x3cd0dc2b	0.02549561
190	0x3d6105be	0.054937117
191	0xbae3912c	-0.001736199
192	0xbd39f18b	-0.04539637
193	0xbcf798cc	-0.030224226
194	0x3dd8b7c3	0.10581925
195	0x3d211259	0.03932414
196	0xbd9121c7	-0.07086521
197	0xbd9e92f2	-0.07742871
198	0xbdd4354e	-0.103617296
199	0x3d49937b	0.049212914
200	0x3df5b6c9	0.11997754
201	0xbc9e4cc7	-0.01932372
202	0xbe1f5bc8	-0.15562356
203	0xbd0965a1	-0.033544187
204	0xbdf20032	-0.118164435
205	0x3d0bf327	0.034167435
206	0xbc0f834d	-0.008759332
207	0x3e0ff10b	0.14056794
208	0xbd91915b	-0.071078025
209	0xbdc04ade	-0.0938928
210	0xbd83320f	-0.06406032
211	0xbd28fae2	-0.041254885
212	0xbd17d42f	-0.03706759
213	0x3d73f031	0.059555236
214	0xbd836f95	-0.06417767
215	0xbe0abac2	-0.13547805
216	0xbdabd313	-0.083898686
217	0x3c75af23	0.014995369
218	0x3d46c593	0.048528265
219	0xbd5b1600	-0.053487778
220	0x3dee0a20	0.11623025
221	0x3e054db1	0.13017918
222	0x3c3eafc2	0.011638584
223	0xbdf9c3be	-0.12195538
224	0xbe12dfb7	-0.14343153
225	0x3cd688da	0.026188303
226	0xbdea245e	-0.11432718
227	0xbcb3a90f	-0.0219312
228	0x3d8272ac	0.06369528
229	0xbdc26afd	-0.09493063
230	0x3dddd783	0.10832121
231	0x3e201663	0.1563354
232	0xbdc2301c	-0.094818324
233	0x3d3f1cd8	0.046658367
234	0xbe110e7f	-0.14165686
235	0xbdfb4ec8	-0.12270886
236	0x3c86df4d	0.0164639
237	0x3cfc6dca	0.03081407
238	0xbda44135	-0.0802025
239	0x3c1df482	0.009640815
240	0x3dc1fd30	0.0947212
241	0xbc882c4f	-0.01662269
242	0x3dc1268f	0.094311826
243	0xbcc0949e	-0.023508366
244	0xbde79734	-0.113081366
245	0xbdb153a9	-0.08658535
246	0xbcc39b0f	-0.023877649
247	0x3d7d1d52	0.06179554
248	0x3ddd9e94	0.10821262
249	0x3cd6c6a7	0.026217772
250	0x3c3065e0	0.010766476
251	0x3d98c97b	0.07460304
252	0x3dcfabc0	0.101401806
253	0xbcd4d7ae	-0.02598175
254	0xbc8571b5	-0.016289571
255	0x3cdab594	0.026697911

rnn.bias_ih_l0 f4 [64]
0	0xbda4a863	-0.0803993
1	0x3d24d357	0.040240612
2	0xbd9abb82	-0.075552955
3	0xbdb7a54c	-0.08967075
4	0xbdb1f859	-0.08689947
5	0x3d87f2ff	0.06638145
6	0x3de0a22f	0.10968434
7	0x3d3a7e7e	0.04553079
8	0xbd186be9	-0.037212286
9	0xbd227616	-0.039663397
10	0xbd535448	-0.05159405
11	0x3ddbc366	0.10730629
12	0xbd6966ac	-0.05698268
13	0xbc943d62	-0.018095676
14	0x3c38ddf9	0.011283391
15	0xbd7490d8	-0.059708446
16	0xbd9b87bb	-0.07594248
17	0xbd588835	-0.052864272
18	0xbd87432c	-0.06604609
19	0x3d917514	0.07102409
20	0x3d6a74fb	0.057240468
21	0xbdf31ce4	-0.11870745
22	0x3d1b2321	0.0378753
23	0xbd47e7f2	-0.048805185
24	0x3ce305f1	0.027712794
25	0xbdd501ca	-0.10400732
26	0xbd52373f	-0.051322218
27	0xbc12f745	-0.008970086
28	0xbcdd830f	-0.027040033
29	0x3d4ee6fd	0.050513256
30	0xbbd0a432	-0.00636723
31	0x3db687f8	0.08912653
32	0x3ceb9152	0.028755818
33	0xbba5e84d	-0.005063093
34	0xbb4dadcf	-0.0031384116
35	0x3dcde81e	0.100540385
36	0x3db52150	0.088442445
37	0x3c8ec3b1	0.017427297
38	0x3cbcc21b	0.023041775
39	0xbce0214e	-0.02735963
40	0x3d15190c	0.03640084
41	0xbdea698f	-0.11445915
42	0x3c9daa34	0.019246198
43	0xbd4eeb81	-0.050517563
44	0x3df662c7	0.12030559
45	0xbd882f65	-0.06649665
46	0xbdec838f	-0.1154853
47	0x3da28361	0.07935215
48	0xbdce3219	-0.10068149
49	0xbd250191	-0.040284697
50	0x3dc726fc	0.097242326
51	0xbb60574d	-0.0034231723
52	0xbdf699e7	-0.12041073
53	0xbda4296b	-0.08015712
54	0x3c7331da	0.0148434285
55	0xbcd5058c	-0.026003622
56	0xbd967d9a	-0.07348175
57	0x3d8566a9	0.065137215
58	0x3d386786	0.045020603
59	0xbd93e446	-0.07221274
60	0x3dd0b2fe	0.1019039
61	0xbdb302ef	-0.08740794
62	0xbdb81a39	-0.089893766
63	0x3dbc1b1f	0.091848604

rnn.bias_hh_l0 f4 [64]
0	0x3d8cc663	0.06873777
1	0x3d04ae6d	0.032392908
2	0x3dcb23cb	0.09918936
3	0xbdd59352	-0.1042849
4	0x3dc36e29	0.09542496
5	0x3d22e842	0.03977228
6	0x3caf56a2	0.021403614
7	0x3d66efc6	0.05638101
8	0x3d2143ef	0.039371427
9	0xbd829bc4	-0.06377366
10	0xbd5b5b5e	-0.05355393
11	0x3d84312b	0.064546905
12	0xbd177c6b	-0.03698389
13	0xbd834e86	-0.064114615
14	0xbd26c700	-0.040717125
15	0x3c307981	0.010771156
16	0xbdd4863c	-0.10377166
17	0xbdfff63b	-0.124981366
18	0x3df0b85b	0.11753913
19	0x3d793d3b	0.06084941
20	0xbdc9b302	-0.09848596
21	0x3d9ca39d	0.07648394
22	0xbd1d4f68	-0.038405806
23	0x3cd96642	0.026538018
24	0xbcb757cb	-0.02238073
25	0x3da553e7	0.08072644
26	0xbdca8667	-0.098889165
27	0x3bc4eceb	0.006009688
28	0xbd381c7b	-0.044949036
29	0x3dd15cdf	0.10222792
30	0xbde383b4	-0.11109105
31	0xbdf239f8	-0.11827463
32	0xbc275e79	-0.010215395
33	0xbcf85e5a	-0.030318428
34	0x3da8969a	0.0823185
35	0xbce964da	-0.028490473
36	0xbd63a348	-0.05557564
37	0x3c9ab127	0.018883301
38	0x3d7a9c25	0.061184067
39	0x3db9ce6e	0.090725765
40	0x3d1fd5d3	0.039022278
41	0x3e06a755	0.1314977
42	0xbcba77e6	-0.02276225
43	0x3d8514fd	0.06498144
44	0x3c7439fd	0.014906404
45	0xbdebf6b6	-0.11521666
46	0x3df5c5c6	0.12000613
47	0xbdca6795	-0.09883038
48	0xbd3d043b	-0.046146613
49	0xbdc2d56f	-0.095133655
50	0xbdae9f7d	-0.08526514
51	0xbddf4fe8	-0.10903913
52	0x3dce218f	0.100649945
53	0x3c4cec70	0.012507543
54	0xbd1069be	-0.035257094
55	0x3d408235	0.046999175
56	0xbd1eae8e	-0.038740687
57	0x3db66aef	0.08907115
58	0xbd88a9a5	-0.06672982
59	0x3d928fc7	0.071563296
60	0x3d1cbe94	0.038267687
61	0x3d8af494	0.06784931
62	0x3d605679	0.054769967
63	0x3bcb44f1	0.006203287

rnn.weight_ih_l1 f4 [64, 64]
0	0x3d0a1a59	0.033716533
1	0x3ce17614	0.027522124
2	0x3c803768	0.01565142
3	0x3dfea952	0.12434639
4	0xbdc7a8cb	-0.097489916
5	0xbd2b2d0b	-0.041791003
6	0xbdddcc12	-0.10829939
7	0x3db8eac8	0.09029156
8	0xbd6e80f9	-0.058228467
9	0x3db70aaf	0.089375846
10	0x3de69b02	0.11260034
11	0x3d86e59a	0.06586762
12	0x3d954298	0.072880924
13	0xbd3b4453	-0.045719456
14	0xbd1a0e49	-0.03761128
15	0x3e001477	0.12507807
16	0xbdce6d0e	-0.10079394
17	0xbc8460e0	-0.016159475
18	0x3d1525cb	0.036412995
19	0x3ca63102	0.02028704
20	0x3dbf8c96	0.093529865
21	0x3d8948b6	0.06703322
22	0x3d3fdbcb	0.04684047
23	0x3dd674d9	0.10471506
24	0x3e0477e4	0.1293636
25	0xbceeec14	-0.029165305
26	0x3dcd234b	0.10016497
27	0xbda5a455	-0.080879845
28	0xbd732cde	-0.05936896
29	0x3dbc9064	0.09207228
30	0x3e02bef6	0.12768158
31	0xbdd09b4f	-0.10185873
32	0xbc9da802	-0.019245151
33	0x3b670430	0.0035250299
34	0x3d8b0249	0.06787545
35	0x3d184be7	0.03718176
36	0xbda23017	-0.07919329
37	0x3d1719d2	0.03688986
38	0x3dbe704b	0.09298762
39	0x3dadefc6	0.08492999
40	0x3dd73a23	0.105091356
41	0x3b276074	0.0025539668
42	0xbc7a1b76	-0.015265336
43	0x3cac48b1	0.021030756
44	0xbd9437c7	-0.07237201
45	0x3d077cc3	0.033077966
46	0x3df1ad7b	0.11800667
47	0xbd27f4c5	-0.041004915
48	0xbddc1810	-0.10746777
49	0x3ccf091d	0.0252729
50	0xbd55e0bd	-0.05221628
51	0x3b93479d	0.004494621
52	0x3df898c6	0.12138514
53	0x3e2ab34f	0.16669963
54	0xbe0d5087	-0.1380025
55	0x3d747050	0.059677422
56	0x3df625eb	0.12018951
57	0x3da0a999	0.07844848
58	0x3d384294	0.04498537
59	0x3d929570	0.07157409
60	0xbdb748d7	-0.0894944
61	0xbd7fd6b0	-0.0624606
62	0xbde1ff3c	-0.1103501
63	0xbcc643be	-0.024202224
64	0xbd6071ae	-0.054795913
65	0xbdc07be2	-0.09398629
66	0xbcdb964e	-0.02680507
67	0xbd1b6113	-0.037934374
68	0xbd64fda0	-0.05590594
69	0xbd28a72b	-0.04117505
70	0x3dac29ad	0.084063865
71	0xbd84c4e8	-0.064828694
72	0x3dab2201	0.08356095
73	0x3c8eccdb	0.017431667
74	0xbad99003	-0.0016598705
75	0xbd94f106	-0.07272534
76	0x3de974ea	0.11399253
77	0x3ced76a1	0.02898723
78	0x3e4a900c	0.19781512
79	0xbbd88c0d	-0.006608492
80	0x3dadd840	0.08488512
81	0xbdd5772d	-0.104231216
82	0xbdc33d5e	-0.09533189
83	0xbd71c73d	-0.0590279
84	0xbd69d18f	-0.057084616
85	0xbcce44bd	-0.025179261
86	0xbd483547	-0.048878934
87	0x3e196186	0.14978608
88	0xbd992dc1	-0.0747943
89	0x3deb78f1	0.11497677
90	0xbdd27238	-0.10275692
91	0xbd912f2a	-0.07089074
92	0x3c7e83ff	0.0155344
93	0xbde78eec	-0.11306557
94	0xbd5e8835	-0.054329116
95	0x3d7b4db6	0.061353408
96	0x3d95b10e	0.07309161
97	0xbce05fe3	-0.027389472
98	0x3e18d617	0.14925419
99	0xbdcb46be	-0.099256024
100	0x3d0f938c	0.03505282
101	0xbdd14384	-0.10217956
102	0xbcd66c14	-0.026174583
103	0xbdfdf860	-0.124008894
104	0x3c7a2453	0.015267449
105	0xbdb00c6b	-0.085961185
106	0x3c822e71	0.015891286
107	0xbd9d26d2	-0.0767342
108	0x3e1f472b	0.15554492
109	0xbdcfd8b0	-0.10148752
110	0xbde97883	-0.11399939
111	0xbb999ebf	-0.0046881135
112	0xbe0bc708	-0.13650143
113	0x3d745092	0.05964715
114	0xbd7d2912	-0.061806746
115	0xbd85fc4b	-0.06542262
116	0xbd7c9d1f	-0.06167328
117	0x3d637399	0.055530164
118	0xbdc9770d	-0.0983716
119	0xbd55e555	-0.05222066
120	0xbdb247d4	-0.087051064
121	0x3d1281d0	0.03576833
122	0x3dcdefd1	0.10055507
123	0x3d7d2bfd	0.06180953
124	0xbde71e87	-0.112851195
125	0xbdd7cb0a	-0.105367735
126	0x3cd7ec85	0.026357898
127	0xbc8c36a5	-0.0171159
128	0x3d939edb	0.07208034
129	0x3e021a94	0.12705451
130	0x3e034ea1	0.12822963
131	0xbdb84605	-0.0899773
132	0xbdc182cf	-0.09448778
133	0x3db2ff4d	0.08740101
134	0x3d152075	0.036407907
135	0xbe145e82	-0.14489177
136	0xbd73b010	-0.05949408
137	0xbc299fe6	-0.010353064
138	0xbe0733be	-0.13203332
139	0xbd5be06a	-0.053680815
140	0xbd62c8a0	-0.055367112
141	0x3d88be37	0.066769056
142	0xbd3fd1f6	-0.046831094
143	0xbdc4972e	-0.09599148
144	0xbd030d67	-0.031995203
145	0x3bc2e311	0.0059474786
146	0x3d825543	0.06363919
147	0x3cfa6d37	0.030569656
148	0xbd3e598e	-0.046472125
149	0xbdcbd52f	-0.09952771
150	0xbcf1d7b5	-0.029521802
151	0xbd20e634	-0.03928204
152	0x3cf7f211	0.030266793
153	0xbdca1633	-0.098675154
154	0xbd287403	-0.041126262
155	0xbd423d56	-0.047421776
156	0x3cb19037	0.021675212
157	0xbdb158b6	-0.086594984
158	0xbddc3619	-0.10752506
159	0x3d2bbb90	0.04192692
160	0xbdacfbd1	-0.08446468
161	0x3c77e3b1	0.015129969
162	0xbca1e575	-0.019762734
163	0xbde5781a	-0.11204548
164	0xbc635ee7	-0.013877607
165	0xbd8641d2	-0.06555523
166	0x3dfdeff4	0.12399283
167	0x3e3a50a4	0.18194824
168	0xbdb4c477	-0.08826535
169	0xbdc445ec	-0.09583649
170	0xbcc39ac1	-0.023877503
171	0x3bd794a3	0.006578998
172	0x3c25834a	0.0101021025
173	0xbd864587	-0.0655623
174	0x3ce2b8d3	0.027676022
175	0x3d749a48	0.059717447
176	0xbdecba6e	-0.11558996
177	0x3c7a6f90	0.015285388
178	0x3c99c009	0.018768327
179	0x3cc43610	0.02395156
180	0x3db6b195	0.0892059
181	0xbe197d82	-0.14989284
182	0x3daaaa36	0.083332464
183	0xbb7c8102	-0.0038529043
184	0x3db3ace6	0.08773212
185	0x3dd8558d	0.105631925
186	0x3e1f7ce0	0.1557498
187	0xbdbd7c69	-0.09252245
188	0x3c196ecf	0.009364798
189	0x3d3c10f5	0.04591461
190	0xbdf1ff46	-0.11816268
191	0x3db86b9c	0.090049
192	0xbd29693d	-0.04136013
193	0x3dbe2164	0.092837125
194	0xbd8acdb7	-0.06777518
195	0xbddca714	-0.10774055
196	0x3d489b8e	0.048976474
197	0xbdc8a161	-0.097964056
198	0xbcef4796	-0.02920894
199	0xbd1d0b95	-0.038341124
200	0x3d9e6951	0.07734931
201	0xbd9db2bd	-0.07700107
202	0x3cefebbb	0.02928721
203	0xbe0e89a0	-0.13919687
204	0x3e0b89ea	0.13626829
205	0x3c5237f3	0.012830722
206	0xbb5c5581	-0.00336203
207	0x3db569cf	0.08858072
208	0x3d866271	0.06561745
209	0x3da6c775	0.08143512
210	0x3d91e101	0.07122994
211	0xbdc8bef9	-0.0980205
212	0x3d58cb33	0.05292816
213	0x3deb3f3f	0.114866726
214	0xbce1c62c	-0.027560316
215	0xbd7af77a	-0.06127117
216	0xbd4efb1b	-0.05053244
217	0xbdb81f86	-0.089903876
218	0xbdc4e025	-0.09613065
219	0xbc823302	-0.015893463
220	0x3cf81e3c	0.030287854
221	0xbda088da	-0.07838602
222	0xbdd1b290	-0.10239136
223	0xbdb96ca0	-0.09053922
224	0x3df786ce	0.12086259
225	0x3c900c36	0.017583948
226	0x3d8932f6	0.06699173
227	0x3dcd4ba9	0.10024197
228	0xbda72598	-0.08161467
229	0x3d517bc2	0.051143415
230	0xbe1465f6	-0.1449202
231	0xbdf4c9c7	-0.119525485
232	0x3d17e426	0.037082814
233	0xbc1c454a	-0.009538004
234	0x3d31c324	0.04339899
235	0xbd777fb2	-0.060424514
236	0xbe075b6b	-0.13218467
237	0xbd048173	-0.032350015
238	0xbd4d93e0	-0.050189853
239	0xbda7de96	-0.08196752
240	0x3db1854e	0.08668004
241	0x3dcd4403	0.10022738
242	0x3d527d11	0.051388804
243	0xbda33c81	-0.079705246
244	0x3be706e5	0.0070503824
245	0x3dcee52e	0.10102306
246	0xbda86c49	-0.08223779
247	0xbd4d8e40	-0.05018449
248	0xbdd1ee3b	-0.10250517
249	0xbd4f45e1	-0.05060375
250	0xbdc7e212	-0.09759916
251	0xbd9a9bb7	-0.075492315
252	0xbe1826f4	-0.1485861
253	0x3dfe300d	0.12411509
254	0x3c164735	0.0091722505
255	0xbbd9d530	-0.0066477284

rnn.weight_hh_l1 f4 [64, 64]
0	0x3c830c5f	0.01599711
1	0x3d8e553a	0.069498494
2	0x3d101965	0.035180468
3	0x3df64ed6	0.120267555
4	0x3da7c375	0.08191577
5	0x3dc54e5f	0.09634089
6	0x3da4c76d	0.0804585
7	0x3d192341	0.037387136
8	0x3cf35194	0.029701985
9	0x3cabf595	0.020991126
10	0xbd053c7b	-0.03252838
11	0xbd9df4d7	-0.07712715
12	0xbd4781cc	-0.04870777
13	0x3dd91063	0.10598829
14	0xbdb5e99b	-0.08882447
15	0xbcb28ec5	-0.021796593
16	0xbdaab525	-0.08335332
17	0xbe13454b	-0.14381902
18	0xbdc571d0	-0.09640849
19	0xbe027adb	-0.12742178
20	0xbd845fb4	-0.064635664
21	0xbcd46625	-0.025927613
22	0xbdb09202	-0.08621599
23	0xbde59727	-0.11210471
24	0x3bb1f1de	0.005430444
25	0xbdc9d1de	-0.09854482
26	0xbde56a13	-0.11201873
27	0xbdc4e29a	-0.09613533
28	0xbd5a5c0a	-0.05331043
29	0x3dd99fa9	0.10626156
30	0x3d13be47	0.036070134
31	0x3d9c287c	0.07624909
32	0x3d08a01a	0.03335581
33	0x3c913a50	0.017728
34	0xbd840728	-0.064466774
35	0xbe12a20b	-0.14319627
36	0xbd1ce11a	-0.03830061
37	0x3d8bb698	0.06821936
38	0x3d87b66f	0.06626593
39	0x3dbd2aa6	0.0923665
40	0x3cfd57d4	0.030925669
41	0xbc950de2	-0.018195096
42	0x3dc54614	0.09632507
43	0xbda0ad71	-0.07845581
44	0x3d3c116b	0.04591505
45	0x3d8c1c7a	0.06841369
46	0x3d8d9ce2	0.06914689
47	0x3c40500a	0.011737833
48	0x3cf43a88	0.029813066
49	0x3cdd3b89	0.027005928
50	0x3dbd3b20	0.09239793
51	0x3d5c5e5f	0.053800937
52	0x3deb95ce	0.11503182
53	0x3dc101ad	0.09424148
54	0xbcde6969	-0.027149873
55	0xbdb6ceb0	-0.08926141
56	0xbdb34705	-0.0875378
57	0x3d900bbb	0.070334874
58	0x3df6f980	0.12059307
59	0xbe04e9c1	-0.12979795
60	0x3d31ded7	0.043425407
61	0xbde27ac9	-0.11058576
62	0xbca8396c	-0.020535193
63	0xbdd083ac	-0.101813644
64	0xbd9a345a	-0.075295165
65	0xbd9d9d59	-0.07696027
66	0xbdf7840b	-0.12085732
67	0x3dacf5de	0.08445333
68	0x3e05a4f4	0.13051206
69	0x3d8568bb	0.065141164
70	0x3c4a8512	0.012360828
71	0xbd81e20d	-0.06341944
72	0xbd83c4b1	-0.06434
73	0x3e511fa8	0.20422232
74	0x3d8c3d1c	0.06847593
75	0xbd60b1a0	-0.054856896
76	0x3d23ed2f	0.040021118
77	0xbd33d552	-0.04390461
78	0xbcb3be85	-0.021941433
79	0x3b91f241	0.0044539277
80	0xbd1799a6	-0.037011765
81	0xbde695a3	-0.1125901
82	0xbdb7f490	-0.089821935
83	0xbd862338	-0.06549686
84	0xbd8f8558	-0.07007855
85	0xbd55c271	-0.052187387
86	0xbdb184f4	-0.08667937
87	0xbd9a11d5	-0.075229324
88	0x3d112dd2	0.03544409
89	0xbe01d396	-0.1267837
90	0x3d0d3350	0.034472764
91	0xbd92e070	-0.07171714
92	0xba83f8aa	-0.0010068615
93	0xbdb5f82d	-0.088852264
94	0xbcd392f7	-0.025826914
95	0x3cf4b25b	0.029870203
96	0xbdbdc3f5	-0.092658915
97	0x3e25c2d0	0.16187596
98	0xbe061aae	-0.13096115
99	0xbd3b8b2c	-0.04578702
100	0xbe0155cc	-0.12630385
101	0x3e057439	0.13032617
102	0x3e211d61	0.15733863
103	0xbd676b94	-0.05649908
104	0xbd0289f5	-0.031869847
105	0x3d015cc3	0.031582605
106	0x3bfb7495	0.00767381
107	0xbde39ca1	-0.11113859
108	0xbd859576	-0.06522648
109	0x3cd3fc06	0.02587701
110	0x3dbee348	0.09320694
111	0xbd5eacc9	-0.054364
112	0x3e068caf	0.13139604
113	0x3d1df2e5	0.03856172
114	0xbd98e276	-0.07465069
115	0xbdc6199f	-0.096728556
116	0x3d64d918	0.0558711
117	0xbd8cbc19	-0.06871814
118	0xbde54158	-0.11194104
119	0xbe171df0	-0.14757514
120	0x3dcdf77a	0.10056968
121	0x3d833e2b	0.06408342
122	0xbe0b4f79	-0.13604535
123	0x3c661005	0.014041905
124	0x3dea7300	0.11447716
125	0x3ddfe68d	0.10932646
126	0xbdeb21c5	-0.114810504
127	0x3d91df70	0.071226954
128	0xbe09e556	-0.13466391
129	0x3cf6de8c	0.030135415
130	0xbdd76158	-0.10516614
131	0xbd47210e	-0.048615508
132	0xbe081de7	-0.13292657
133	0x3d9d0b58	0.07668179
134	0x3daf9b90	0.08574593
135	0xbd6aba43	-0.05730654
136	0x3dc5f947	0.096666865
137	0xbe0bcc87	-0.1365224
138	0xbde76caf	-0.113000266
139	0x3dd152eb	0.102208935
140	0x3d8897e8	0.06669599
141	0xbdc0ed64	-0.09420279
142	0x3dd695a6	0.10477762
143	0x3db980db	0.0905778
144	0x3de9dd13	0.1141912
145	0xbdecef88	-0.115691245
146	0x3cc22113	0.023697412
147	0xbde756b9	-0.11295838
148	0x3df3d0f8	0.11905092
149	0xbdbd4302	-0.09241296
150	0xbe56921c	-0.20954174
151	0xbe1260eb	-0.14294784
152	0xbc2a4a60	-0.010393709
153	0xbb5a5549	-0.0033314994
154	0x3dcd40fb	0.1002216
155	0xbd0e486a	-0.03473703
156	0xbd875b16	-0.0660917
157	0x3df2860e	0.11841975
158	0xbd75dd96	-0.060025774
159	0x3de52121	0.111879595
160	0xbd74c548	-0.059758455
161	0x3e01f856	0.12692389
162	0x3d61c106	0.055115722
163	0xbdb87269	-0.09006197
164	0x3d126da5	0.035749096
165	0x3d6bae30	0.057539165
166	0x3d9f9b76	0.07793324
167	0x3dc4430b	0.095831
168	0xbd839271	-0.06424416
169	0x3d7ef051	0.062240902
170	0x3dbc3e31	0.091915496
171	0xbd4413e8	-0.047870547
172	0xbdcdca2f	-0.10048329
173	0x3d43301d	0.047653306
174	0x3ca61d28	0.020277575
175	0xbc9e6a1c	-0.019337706
176	0x3d559515	0.05214413
177	0xbd9dd2dc	-0.07706234
178	0xbd62cede	-0.055373065
179	0x3c7092b4	0.014683414
180	0xbdc5c768	-0.09657174
181	0xbd954de7	-0.07290249
182	0x3e0218e1	0.12704803
183	0x3cd76544	0.026293404
184	0xbe05e1fd	-0.13074489
185	0xbdc54e59	-0.09634084
186	0xbdc15875	-0.094407
187	0xbca33f73	-0.019927716
188	0xbbeca518	-0.007221829
189	0xbd1ffc42	-0.03905893
190	0x3d399a3b	0.0453131
191	0x3d8e063e	0.06934784
192	0x3d88dfde	0.06683324
193	0xbc45e164	-0.012077663
194	0x3cd509bd	0.02600562
195	0x3dd6af8e	0.10482703
196	0xbe2d2ecb	-0.16912381
197	0xbd5f5351	-0.054522816
198	0x3dbe9ebb	0.09307619
199	0x3bf1e175	0.007381613
200	0xbde080e1	-0.10962082
201	0x39f9926d	0.00047602077
202	0x3ce103b3	0.027467584
203	0xbe055167	-0.13019334
204	0xbd3b04cb	-0.045658868
205	0x3d727a2c	0.059198543
206	0xbbb717d3	-0.005587557
207	0xbccc2699	-0.024920749
208	0x3d9eed57	0.07760113
209	0xbd012741	-0.031531576
210	0x3d615c2c	0.055019543
211	0x3da81d29	0.08208687
212	0xbe045654	-0.12923557
213	0xbe0b175c	-0.1358313
214	0x3d0e5846	0.034752153
215	0xbe0045d5	-0.12526639
216	0x3dcc9d9a	0.099909976
217	0xbdbd7cc0	-0.0925231
218	0xbdde5fe4	-0.108581334
219	0xbd873be1	-0.06603218
220	0x3ce190eb	0.027534923
221	0xbdafb780	-0.08579922
222	0xbd9d1381	-0.07669736
223	0xbdc3e12a	-0.09564431
224	0x3dca758f	0.09885704
225	0xbd91ea94	-0.0712482
226	0xbdf278f7	-0.118394785
227	0x3d9679e5	0.07347468
228	0x3c803fd8	0.015655443
229	0xbd96ada1	-0.07357336
230	0x3d258dfd	0.040418614
231	0xbdd427c6	-0.10359149
232	0xbe0f6c51	-0.14006163
233	0x3d2cb966	0.042168997
234	0x3d7cffca	0.061767377
235	0x3d909182	0.070590034
236	0xbd95e065	-0.073181905
237	0x3de433f6	0.11142723
238	0x3d5f87b3	0.054572772
239	0x3c720fa9	0.0147742415
240	0x38f82388	0.0001183218
241	0xbd9fbe2f	-0.077999465
242	0xbc29ac37	-0.010356001
243	0xbd476198	-0.048677057
244	0xbd0131ad	-0.031541515
245	0x3d9e5094	0.07730213
246	0xbdddbd67	-0.10827141
247	0x3dcd8917	0.100359134
248	0x3a68f644	0.0008886794
249	0xbbcad36c	-0.006189754
250	0x3df06894	0.11738697
251	0xbc54df9e	-0.012992768
252	0x3dae4258	0.08508748
253	0x3d550197	0.05200347
254	0xbd9a1be0	-0.07524848
255	0xbdb0f8b5	-0.08641187

rnn.bias_ih_l1 f4 [64]
0	0xbb824f3b	-0.00397673
1	0x3d7fd772	0.062461324
2	0xbd845be7	-0.064628415
3	0xbddf8051	-0.10913146
4	0x3bef62df	0.0073054875
5	0xbaefeab1	-0.0018304196
6	0x3d643be8	0.055721194
7	0xbdfb33fe	-0.12265776
8	0x3d76006e	0.060059004
9	0x3bafc78e	0.005364365
10	0x3dde2d6a	0.10848506
11	0xbd8a7cae	-0.06762062
12	0x3d767b3d	0.060176123
13	0x3d205958	0.039147705
14	0xbdb1d079	-0.08682341
15	0xbdee369e	-0.11631511
16	0xbd5a4152	-0.05328495
17	0x3d83e693	0.06440463
18	0xbd8dc0c7	-0.06921535
19	0x3d5bbea9	0.053648625
20	0x3ca8b00d	0.02059176
21	0x3dd908c8	0.10597378
22	0x3dcfd258	0.10147542
23	0x3ddfe094	0.10931507
24	0x3d1904d1	0.03735811
25	0x3dbf40bf	0.09338521
26	0x3cedce58	0.029029056
27	0x3da0d2c8	0.07852703
28	0xbd58d5ad	-0.052938152
29	0xbd9808f2	-0.07423581
30	0xbc2dc96b	-0.010607104
31	0x3dd3db79	0.103445955
32	0x3d98644d	0.07441006
33	0x3db873c7	0.09006458
34	0x3d5b9a9a	0.053614236
35	0xbdfb9f47	-0.12286239
36	0xbdb9f7b7	-0.09080451
37	0xbdd4973a	-0.10380407
38	0xbc8dcbc2	-0.017309073
39	0x3df361c1	0.118838795
40	0xbd490834	-0.04908009
41	0x3cdc0552	0.026858006
42	0x3d045cb9	0.03231499
43	0x3d3a3aa7	0.04546609
44	0x3cf8b66f	0.030360429
45	0x3dcada0e	0.09904872
46	0x3ddf9bda	0.10918398
47	0x3d042ec7	0.032271173
48	0xbbb5648c	-0.0055356678
49	0xbcda971a	-0.026683379
50	0xbd711d24	-0.05886568
51	0xbc8a826b	-0.016907891
52	0xbde6c58a	-0.11268146
53	0x3db0221b	0.08600255
54	0x3e013382	0.12617305
55	0xbdc377a5	-0.09544305
56	0x3d94aa47	0.0725904
57	0xbd0d238d	-0.034457732
58	0xbd09d242	-0.033647783
59	0x3d0efb54	0.034907654
60	0x3def5490	0.11686051
61	0x3dbbfd9b	0.09179231
62	0x3d0b1b93	0.033961844
63	0x3c668fbf	0.014072358

rnn.bias_hh_l1 f4 [64]
0	0xbdb2a5c0	-0.087230206
1	0x3da259da	0.07927294
2	0xbd5098f4	-0.050927117
3	0x3db26199	0.087100215
4	0xbdc932e4	-0.0982416
5	0x3d16f475	0.036854226
6	0xbd90cd0e	-0.07070361
7	0xbdea6c1a	-0.114464
8	0x3dc3b24b	0.09555491
9	0x3dc24062	0.09484936
10	0x3d9fa644	0.077953845
11	0x3cea4a3e	0.028599855
12	0x3de77eb3	0.11303463
13	0x3db691ba	0.08914514
14	0xbdd9b664	-0.106304914
15	0x3d59f6a1	0.05321372
16	0xbdd29d12	-0.10283865
17	0xbc1e9a5b	-0.009680356
18	0x3beb755d	0.0071856217
19	0x3d419726	0.047263287
20	0x3ce6fa31	0.028195472
21	0xbd5a8952	-0.053353615
22	0xbdaf76db	-0.08567592
23	0x3ddf9019	0.10916156
24	0x3d5660d8	0.05233845
25	0x3da2407e	0.07922457
26	0xbd3817ca	-0.044944562
27	0xbdf7e746	-0.12104659
28	0xbdf22f11	-0.118253835
29	0x3d9ae3cd	0.07562981
30	0xbdb08bc5	-0.08620409
31	0x3bc0b4d1	0.00588093
32	0x3c94d264	0.018166728
33	0xbbe1601e	-0.006877913
34	0xbb7792b7	-0.0037776658
35	0xbd90438d	-0.07044134
36	0xbd7fc62d	-0.062444855
37	0xbc9e95ab	-0.019358477
38	0x3dbd2434	0.09235421
39	0xbc92a5d9	-0.017901348
40	0x3d689db2	0.056791015
41	0x3d225afb	0.039637547
42	0xbc7aa720	-0.015298635
43	0x3dcf5438	0.10123485
44	0xbd90a99d	-0.07063601
45	0xbb70bd70	-0.0036734007
46	0x3c11666b	0.008874516
47	0x3c3bcb4a	0.011462042
48	0xbd86e263	-0.065861486
49	0x3ca5407f	0.020172356
50	0xbbd7244d	-0.0065656067
51	0x3c11cd3c	0.008899029
52	0xbddda235	-0.10821954
53	0x3decf7db	0.11570712
54	0xbd869d21	-0.06572939
55	0xbaeeb5ff	-0.0018212198
56	0xbda15de6	-0.07879238
57	0x3da412d5	0.080114044
58	0x3d5b25aa	0.053502716
59	0x3d3ddf85	0.046355743
60	0x3d40d7b9	0.04708073
61	0xbbe82916	-0.007084976
62	0x3cfcf341	0.030877711
63	0x3d596694	0.05307634

rnn.weight_ih_l2 f4 [64, 64]
0	0xbd442e54	-0.047895744
1	0xbc8ed3ee	-0.01743504
2	0xbe1c32ce	-0.15253755
3	0xbe05e04a	-0.1307384
4	0x3da35f36	0.079771444
5	0x3ddcbc10	0.107780576
6	0x3ced1ed0	0.028945357
7	0x3dcae4bd	0.099069096
8	0x3e0d7026	0.13812312
9	0xbd29288f	-0.041298445
10	0x3cf213dd	0.029550487
11	0xbc2c1abf	-0.010504424
12	0xbda7cd21	-0.08193422
13	0x3d56ed0d	0.052472163
14	0xbda2ff1c	-0.079588145
15	0xbdd82767	-0.105543904
16	0x3d70811f	0.05871689
17	0xbd073ac6	-0.033015035
18	0xbd8f1add	-0.06987546
19	0xbd4d0d18	-0.050061315
20	0xbdf7084f	-0.120621316
21	0x3df81627	0.121136
22	0xbc978081	-0.018493893
23	0xbd495f3e	-0.049163096
24	0xbd59b5e2	-0.053151973
25	0x3d83ac18	0.06429309
26	0x3da41caa	0.0801328
27	0xbdbc6a4f	-0.09199964
28	0xbd487703	-0.048941623
29	0xbd8cfa30	-0.06883657
30	0xbd5e7e6e	-0.05431979
31	0xbdc83b69	-0.097769566
32	0xbe05b7c7	-0.13058387
33	0xbce68957	-0.02814166
34	0x3d98b0f8	0.07455629
35	0xbd9cbc16	-0.07653062
36	0xbe05db4e	-0.1307194
37	0x3deae3ef	0.11469256
38	0x3d2a4a62	0.041574843
39	0xbd200ce7	-0.039074805
40	0xbceaf5df	-0.028681694
41	0x3d8f2743	0.069899105
42	0x3d50124c	0.0507987
43	0xbdaa9a8c	-0.08330259
44	0x3dd9cd2d	0.10634837
45	0x3d8d5d83	0.069026016
46	0x3d84f3bb	0.064918004
47	0x3dda9ac2	0.10674049
48	0x3d20596f	0.03914779
49	0x3d679946	0.056542657
50	0xbdb4c7e1	-0.088271864
51	0xbdb7d551	-0.08976234
52	0x3b95ec87	0.0045753154
53	0xbd32446e	-0.04352229
54	0xbb72a648	-0.003702538
55	0xbe07d213	-0.1326373
56	0x3ded0432	0.11573066
57	0x3caf8bd0	0.021428972
58	0xbe099845	-0.13436992
59	0x3d75319d	0.059861768
60	0x3df92c31	0.12166632
61	0x3d869179	0.065707155
62	0x3d81ae35	0.063320555
63	0xbb8abe50	-0.004234113
64	0x3a69aa49	0.0008913619
65	0xbd8e1635	-0.069378294
66	0x3c5338da	0.012891972
67	0xbc516779	-0.012781017
68	0x3dd72c83	0.10506537
69	0xbb948600	-0.0045325756
70	0xbd24e5d7	-0.040258255
71	0x3da6be43	0.08141758
72	0xbb842273	-0.004032427
73	0x3bdc189c	0.006716801
74	0x3d8435a6	0.06455545
75	0x3ce24022	0.027618472
76	0x3e01bbc9	0.1266929
77	0x3c9b1b1a	0.018933821
78	0xbd0e6c03	-0.034770977
79	0x3db1fe92	0.086911336
80	0x3dc6b6f3	0.097028635
81	0xbdc40062	-0.095703855
82	0xbd3ea7aa	-0.046546616
83	0x3dfde6b8	0.12397522
84	0xbba19bc0	-0.004931897
85	0xbddbff38	-0.107420385
86	0x3cb4af35	0.022056201
87	0x3cbfa936	0.023396116
88	0x3de9145d	0.11380837
89	0x3dc376ec	0.09544167
90	0xbd7d9b17	-0.061915483
91	0xbd94e1ed	-0.072696544
92	0xbda62454	-0.08112398
93	0x3e00e690	0.12587953
94	0x3d072bde	0.03300082
95	0xbd9ead23	-0.07747867
96	0x3e034795	0.12820275
97	0xbe0da446	-0.13832197
98	0x3d24fba6	0.040279053
99	0x3bf678b0	0.0075217113
100	0xbd3cbf0c	-0.046080634
101	0xbdd0a42e	-0.10187565
102	0x3dff33e1	0.12461067
103	0x3dd62155	0.10455576
104	0x3de2b6b3	0.11070003
105	0xbdaba2bd	-0.08380649
106	0x3dbf211e	0.093324885
107	0xbd5636fb	-0.052298527
108	0xbdeef19a	-0.116671756
109	0x3d6cc094	0.057800844
110	0xbd5a591d	-0.05330764
111	0x3dcb9287	0.09940057
112	0xbdbd3309	-0.0923825
113	0x3de073bb	0.10959574
114	0xbd0fb910	-0.0350886
115	0x3b8eafee	0.0043544685
116	0x3d2a3619	0.041555498
117	0xbd57f8ba	-0.05272744
118	0xbd8873b9	-0.06662697
119	0xbdae4ac8	-0.08510357
120	0x3dba3c34	0.09093514
121	0xbcd961ae	-0.026535835
122	0xbd938122	-0.072023645
123	0x3dd99178	0.10623449
124	0xbdb7f5e6	-0.08982448
125	0x3d9e9157	0.07742565
126	0x3b28a88b	0.0025735225
127	0x3c4b45bc	0.012406763
128	0xbdbd3762	-0.09239079
129	0x3a377927	0.0006998949
130	0xbd1cf624	-0.038320675
131	0x3df2bafe	0.11852072
132	0xbdda563c	-0.10660979
133	0xbd5d416f	-0.05401748
134	0x3dd1f438	0.10251659
135	0xbce095d4	-0.027415194
136	0xbe0b35ab	-0.13594691
137	0xbd293e06	-0.041318916
138	0x3e1a7605	0.15084083
139	0x3e44e5ce	0.19228289
140	0xbce73afb	-0.028226366
141	0xbd969493	-0.07352557
142	0xbe191e44	-0.14952952
143	0xbdf3eb1e	-0.119100794
144	0xbda9b5c0	-0.08286619
145	0x3de60c73	0.11232843
146	0xbd08490b	-0.033272784
147	0x3d9882b7	0.07446807
148	0xbda244be	-0.07923268
149	0xbc70077c	-0.014650222
150	0x3e0d21cc	0.13782424
151	0x3dacc848	0.08436638
152	0xbd9132b1	-0.07089747
153	0x3e101abf	0.14072703
154	0x3ca5d01e	0.02024084
155	0xbde0385d	-0.109482504
156	0xbdd28218	-0.1027872
157	0x3dea4d11	0.114404805
158	0xbdb6b1ae	-0.089206085
159	0x3ce5a75e	0.028033908
160	0xbda6846b	-0.081307255
161	0xbe041865	-0.12899931
162	0xbca8b76b	-0.020595273
163	0x3d0c763c	0.034292445
164	0x3d97a253	0.07404008
165	0xbd92124c	-0.07132396
166	0xbe0035e6	-0.1252056
167	0x3dad0835	0.08448831
168	0x3d41729b	0.047228437
169	0x3d00298b	0.03128962
170	0x3e20fcda	0.15721455
171	0xbc9bae03	-0.019003874
172	0xbd8f4eaf	-0.069974296
173	0x3dde347f	0.108498566
174	0xbd849ff5	-0.06475822
175	0x3d1fb2ab	0.03898875
176	0xbc011b12	-0.007879989
177	0x3d0c7007	0.034286525
178	0xbd8bb9a5	-0.06822518
179	0x3dcecfa2	0.100981966
180	0x3de549fb	0.11195751
181	0xbdde08f4	-0.108415514
182	0x3dbe89af	0.09303605
183	0x3d387fd1	0.04504377
184	0x3c9e057d	0.019289726
185	0xbd3e9639	-0.046529982
186	0xbc711524	-0.014714513
187	0x3cf09469	0.029367642
188	0xbdc33a29	-0.095325775
189	0xbd8f6b98	-0.07002944
190	0x3e30909a	0.17242661
191	0xbdde3452	-0.10849823
192	0xbdb762b7	-0.08954375
193	0xbd881702	-0.066450134
194	0x3bff7e05	0.007797005
195	0x3d281396	0.041034304
196	0xbdfdbcca	-0.12389524
197	0xbceccf46	-0.02890743
198	0x3d898cea	0.0671633
199	0xbe1d4a55	-0.15360387
200	0x3d7899a1	0.060693387
201	0x3d900013	0.07031264
202	0xbd0037f9	-0.03130338
203	0xbbb10b80	-0.0054029822
204	0x3dde7be4	0.10863474
205	0xbc8e9c65	-0.01740856
206	0xbde11048	-0.109894335
207	0xbcdd4da8	-0.027014568
208	0xbcf39a97	-0.0297368
209	0x3d3f0526	0.04663577
210	0xbdbb9b68	-0.09160501
211	0xbd86df8e	-0.065856084
212	0xbdab8832	-0.083755866
213	0xbcb5e5cb	-0.0222043
214	0x3bb6aaaf	0.0055745463
215	0x3da88f05	0.08230404
216	0x3d320af7	0.04346749
217	0x3d840a11	0.064472325
218	0x39055b22	0.00012717818
219	0xbd2a5b58	-0.04159102
220	0xbdfa6fe0	-0.1222837
221	0x3dc88579	0.09791083
222	0xbd21e83c	-0.039528117
223	0xbdb22daf	-0.0870012
224	0xbda44472	-0.080208674
225	0x3de9c63e	0.11414765
226	0xbd6a0810	-0.057136595
227	0x3cb63ac4	0.022244819
228	0xbd761d62	-0.060086615
229	0x3d9f9e0a	0.077938154
230	0x3e41a14d	0.18909188
231	0x3e2350b3	0.15948753
232	0xbdeb9825	-0.11503629
233	0x3cd8a0c0	0.02644384
234	0x3dc009ed	0.09376893
235	0xbe031c03	-0.12803654
236	0x3e079310	0.13239694
237	0xbc70f87b	-0.01470768
238	0x3c7dcf4a	0.015491316
239	0x3d87b17e	0.06625651
240	0x3dc9a634	0.09846154
241	0x3e0c0506	0.13673791
242	0x3c815f53	0.015792524
243	0x3df1e2b1	0.11810816
244	0x3c4dad4f	0.012553527
245	0x3dfb0ca0	0.122582674
246	0xbd0fbeeb	-0.035094183
247	0x3c34069e	0.010987906
248	0x3dde2793	0.10847392
249	0xbd61cd60	-0.0551275
250	0xbb8021ff	-0.0039103027
251	0x3c9a5a7e	0.018841978
252	0xbd7dfe28	-0.06200996
253	0xbd821de8	-0.063533604
254	0xbe02108c	-0.12701625
255	0xbda43f99	-0.08019943

rnn.weight_hh_l2 f4 [64, 64]
0	0xbd4df0d8	-0.050278515
1	0xbdda70c2	-0.10666038
2	0x3dd76f61	0.10519291
3	0x3b346d15	0.0027530838
4	0xbd8d13ea	-0.06888564
5	0x3da7d6a1	0.08195234
6	0xbda1d0d1	-0.07901157
7	0x3d3f4a90	0.046701968
8	0x3e165813	0.14682035
9	0xbd5fb28d	-0.05461364
10	0xbde88937	-0.11354297
11	0x3d2822e1	0.041048888
12	0xbdcb21d6	-0.09918563
13	0x3d1581f5	0.03650089
14	0xbdad8e3c	-0.08474395
15	0xbdde2dd6	-0.10848586
16	0xbd1a3087	-0.037643936
17	0xbdc8943d	-0.09793899
18	0x3c7485ea	0.014924506
19	0xbc97db06	-0.018537056
20	0xbd562455	-0.052280743
21	0x3df12adb	0.11775752
22	0xbd96627a	-0.07343002
23	0xbdd4ccdf	-0.103906386
24	0xbde34387	-0.11096864
25	0x3b592484	0.0033133337
26	0xbdbd4d1e	-0.092432246
27	0xbd4b7665	-0.049673457
28	0x3c9f7970	0.019467086
29	0xbdb6a5ac	-0.08918318
30	0x3d8f9f82	0.070128456
31	0xbc4f78c6	-0.012663072
32	0x3e0db146	0.13837156
33	0x3ddd739f	0.108130686
34	0x3c7f8835	0.015596439
35	0x3dfd9dcb	0.12383612
36	0x3c41e8ce	0.01183529
37	0xbdb4ed85	-0.08834366
38	0xbd25683e	-0.040382616
39	0x3df14db2	0.11782397
40	0x3c2094a2	0.009801062
41	0x39d1bc82	0.00040004036
42	0xbd4c9b08	-0.049952537
43	0x3cd88b5c	0.02643364
44	0xbd5f6c14	-0.05454643
45	0x3e06f865	0.13180692
46	0xbdc8c13b	-0.09802481
47	0xbdc3d3ff	-0.095619194
48	0x3dcc9b56	0.099905655
49	0xbdcfab2a	-0.10140069
50	0xbdb1a2cb	-0.086736284
51	0xbd7ab49f	-0.06120741
52	0xbdaddf7f	-0.08489894
53	0x3c8069a1	0.015675368
54	0xbdc5f97b	-0.09666725
55	0x3e2245c7	0.1584693
56	0xbe0ae4b7	-0.1356381
57	0x3d1f62a4	0.03891243
58	0xbd844fc2	-0.06460525
59	0xbdd6a522	-0.10480715
60	0x3db80f60	0.089873075
61	0x3dcb2b54	0.099203736
62	0x3d7f0f79	0.062270615
63	0xbcb7abff	-0.022420881
64	0xbdeb67a2	-0.11494376
65	0x3cc394ec	0.023874722
66	0xbd01da75	-0.031702477
67	0xbcea6703	-0.028613573
68	0xbd44fc1f	-0.048092004
69	0x3da811b8	0.082065046
70	0x3da0c317	0.078497104
71	0x3dda9a37	0.106739454
72	0xbd02806f	-0.031860765
73	0x3d2f5216	0.042802893
74	0xbdc98ff8	-0.09841913
75	0x3ce11e65	0.027480314
76	0xbd9cc464	-0.07654646
77	0xbc87aa74	-0.01656077
78	0xbd3903b1	-0.045169536
79	0xbcb52d46	-0.022116315
80	0x3db8d6fb	0.09025379
81	0x3e0a8b66	0.13529739
82	0xbcf302df	-0.029664455
83	0xbcc9f44b	-0.02465262
84	0xbd96ce60	-0.07363582
85	0x3ca90c25	0.020635674
86	0xbd9f4377	-0.0777654
87	0xbd2e28fa	-0.042519547
88	0x3d41010f	0.04712015
89	0x3dacd921	0.084398516
90	0x3df8e917	0.12153833
91	0xbd68264f	-0.05667716
92	0x3d42dd1f	0.04757416
93	0xbdbf4ba1	-0.09340597
94	0xbddbbc14	-0.107292324
95	0x3da32a05	0.07966999
96	0x3c91caf9	0.01779698
97	0x3c83b7c7	0.016078843
98	0x3dcc27fc	0.09968564
99	0x3b08a71d	0.002085156
100	0x3db9772d	0.09055934
101	0x3db6fedf	0.089353316
102	0x3c6edd23	0.01457909
103	0xbb4ab4e0	-0.0030930564
104	0x3c8e1c43	0.01734746
105	0xbdf4d8a5	-0.11955384
106	0xbc530548	-0.012879677
107	0xbd6f0d14	-0.05836208
108	0x3d649be3	0.055812728
109	0x3da2f31c	0.07956526
110	0xbda4112a	-0.08011086
111	0xbd4c6f33	-0.049910735
112	0xbc314edc	-0.010822024
113	0x3c869b60	0.01643151
114	0x3da5af33	0.08090057
115	0xbd2c86ef	-0.04212087
116	0x3d572cee	0.052533083
117	0x3cf9810b	0.03045704
118	0xbcf133ff	-0.029443739
119	0xbd366769	-0.044532213
120	0xbd5e3dd7	-0.054258194
121	0x3dad7e1b	0.08471318
122	0xbda55237	-0.08072322
123	0x3d0513ad	0.032489467
124	0xbd95135f	-0.07279085
125	0x3c85db5c	0.01633995
126	0x3d67b1f3	0.05656619
127	0x3d8a1ce4	0.06743792
128	0xbe268072	-0.16259935
129	0x3e0493fe	0.1294708
130	0xbc924959	-0.01785724
131	0xbdbfe60d	-0.093700506
132	0xbda72d2f	-0.08162915
133	0xbdcb3837	-0.099228315
134	0xbda76629	-0.081737824
135	0x3c633a82	0.01386893
136	0x3e3cfcca	0.18455806
137	0xbde29e20	-0.11065316
138	0xbdcffa24	-0.101551324
139	0x3dd89db4	0.105769545
140	0x3d82a221	0.0637858
141	0xbc30cd5f	-0.010791152
142	0x3b172574	0.0023063095
143	0x3dbd1905	0.09233288
144	0x3ddb683c	0.107132405
145	0xbdb64e8e	-0.08901702
146	0xbdd58526	-0.10425787
147	0xbe001fc8	-0.12512124
148	0xbd9cd459	-0.076576896
149	0x3d409ce7	0.047024634
150	0xbdc59211	-0.096470006
151	0xbc9c829b	-0.019105246
152	0xbdc0ec05	-0.09420017
153	0x3dadb1a0	0.08481145
154	0x3dbade2c	0.09124407
155	0xbde0ec47	-0.10982566
156	0x3def93ad	0.11698089
157	0xbe0a8d02	-0.13530353
158	0xbd6bb20f	-0.057542857
159	0xbe2b92e6	-0.16755256
160	0xbd6f6bc5	-0.058452386
161	0x3d87d5ff	0.066326134
162	0xbd00dde3	-0.031461608
163	0x3db5a9a5	0.08870248
164	0x3d9cff95	0.07665936
165	0x3d2d7d39	0.04235575
166	0x3d0e6bfc	0.03477095
167	0xbda08faf	-0.078399055
168	0x3d9fe2bc	0.07806918
169	0x3dae5573	0.08512392
170	0x3dbcebe6	0.092246816
171	0x3ddb957e	0.10721873
172	0xbd8ac9d5	-0.06776778
173	0xbc25a7fd	-0.010110852
174	0xbd3b120c	-0.045671508
175	0x3d95fc71	0.0732354
176	0xbdb129fb	-0.08650585
177	0xbdbfdfed	-0.09368882
178	0xbd8079a6	-0.062732026
179	0xbd4d4d2f	-0.050122436
180	0x3cd4b675	0.025965909
181	0xbdc876dc	-0.097882956
182	0x3e06a1d2	0.13147667
183	0x3e00d9ba	0.12583056
184	0xbcac0952	-0.021000538
185	0xbd185398	-0.037189096
186	0xbd34a1f4	-0.044099763
187	0x3d89f214	0.06735626
188	0xbe43ad57	-0.19109093
189	0xbdb83fb5	-0.08996526
190	0xbd9bbcec	-0.07604393
191	0xbe0093fa	-0.12556449
192	0xbcb87e98	-0.022521302
193	0xbd5165d8	-0.051122516
194	0x3e0d1891	0.13778903
195	0x3da56bf9	0.08077235
196	0x3b8e9da4	0.0043522883
197	0x3c287f4b	0.010284255
198	0x3dd2af66	0.10287361
199	0xbd940aee	-0.07228647
200	0xbe1250a7	-0.14288579
201	0x3cd8a4bd	0.02644574
202	0x3d820cce	0.063500986
203	0x3b6864be	0.0035460438
204	0x3de0d650	0.10978377
205	0x3d9dce4e	0.07705365
206	0x3dbb0687	0.09132104
207	0x3d2d45e5	0.042302985
208	0xbd86378b	-0.06553563
209	0xbdf71f66	-0.12066536
210	0xbdcc4169	-0.099734135
211	0xbcfebb4a	-0.031095166
212	0xbdd2c8fa	-0.102922395
213	0xbdc398c8	-0.09550625
214	0xbcee2e52	-0.029074822
215	0x3d8e3f42	0.06945659
216	0xbdc8350f	-0.09775745
217	0x3b95187f	0.0045500393
218	0xbdb69ae7	-0.08916264
219	0xbc057bd6	-0.008147201
220	0xbd5cc831	-0.053901855
221	0xbc9ac199	-0.018891143
222	0xbd3ccb82	-0.046092518
223	0x3dfa9001	0.12234498
224	0xbdbae576	-0.091257975
225	0x3d193d93	0.037412237
226	0xbd90b7a4	-0.07066277
227	0x3dc0f205	0.094211616
228	0xb8338b63	-4.280674e-05
229	0xbd82cfe5	-0.06387309
230	0x3cdf6968	0.027271941
231	0x3c07fd69	0.008300164
232	0x3d964810	0.073379636
233	0x3e1420ff	0.14465712
234	0xbda3c7da	-0.07997103
235	0xbd8e9ce8	-0.06963521
236	0x3c9495fb	0.018137923
237	0xbdb38215	-0.087650456
238	0x3d8437f9	0.064559884
239	0xbe41248b	-0.18861596
240	0x3d49102a	0.04908768
241	0xbcd207ee	-0.025638547
242	0xbd9168ad	-0.071000434
243	0x3dc39656	0.09550159
244	0xbd2aa080	-0.04165697
245	0xbd2cac8a	-0.042156734
246	0x3c5ec706	0.013597256
247	0x3dc31863	0.09526136
248	0x3de59185	0.11209396
249	0x3dbb064f	0.09132063
250	0xbc3acd82	-0.011401536
251	0x3d8a238e	0.06745063
252	0x3d436b45	0.047709722
253	0xbe11fb6b	-0.14256065
254	0x3df4b281	0.119481094
255	0xbda8a8e2	-0.08235337

rnn.bias_ih_l2 f4 [64]
0	0xbc9bfd3f	-0.019041656
1	0x3d373024	0.044723645
2	0x3be89e9d	0.0070989863
3	0x3bf391f5	0.007433171
4	0xbdd21439	-0.102577634
5	0x3dcb15d1	0.099162705
6	0x3dbbe3e5	0.09174327
7	0x3d9c49db	0.07631274
8	0x3df66a41	0.12031985
9	0xbd3a956b	-0.045552652
10	0x3dca94ce	0.098916635
11	0xbdcc4c33	-0.09975471
12	0xbd88777f	-0.06663417
13	0x3d8de3b0	0.069281936
14	0x3db0582a	0.08610566
15	0xbdb3a95a	-0.087725356
16	0xbdf4875e	-0.11939882
17	0x3dc432d1	0.09580005
18	0x3c3f6ede	0.011684148
19	0x3c1fd667	0.009755707
20	0xbd067e05	-0.032835025
21	0x3c927a69	0.017880635
22	0x3c96c385	0.018403778
23	0x3d0ccf87	0.0343776
24	0x3dd0e6d1	0.10200275
25	0x3df2def9	0.11858935
26	0xbcfba8ec	-0.030720197
27	0xbc9c4393	-0.01907519
28	0x3d8a2c81	0.0674677
29	0xbd4f8fef	-0.050674375
30	0xbda2107a	-0.07913299
31	0xbdcbdb0b	-0.099538885
32	0xbdd9912f	-0.10623395
33	0xbda90848	-0.08253533
34	0xbdb8d92d	-0.09025798
35	0xbd5e4ab2	-0.054270454
36	0xbb7559d3	-0.0037437573
37	0xbdaa1fbb	-0.08306833
38	0xbde0d005	-0.109771766
39	0xbd660da6	-0.05616536
40	0xbd8463ce	-0.06464349
41	0xbdec370c	-0.11533937
42	0x3dab446a	0.08362658
43	0xbd714f59	-0.058913562
44	0x3cfa7cb9	0.03057705
45	0xbdae7a7a	-0.08519454
46	0x3d5225ff	0.051305767
47	0x3dd4e5dd	0.103954054
48	0xbd3b56d5	-0.045737106
49	0x3de0cb53	0.10976281
50	0xbc874e41	-0.016516807
51	0xbdfa1a68	-0.12212068
52	0x3da10057	0.07861393
53	0x3c3014fe	0.010747192
54	0xbd21dfd2	-0.039520092
55	0xbd3592eb	-0.044329565
56	0x3dffa077	0.12481778
57	0xbd406444	-0.04697062
58	0xbdff1388	-0.12454897
59	0xbc3ed4db	-0.011647428
60	0x3d064862	0.032783873
61	0xbc75d5cb	-0.0150045855
62	0xbd805d67	-0.06267815
63	0xbd3b2fd4	-0.04569991
