machine_learning/models/model.pth (torch, 185395 bytes, 22 tensors)

gru.weight_ih_l0 f4 [96, 128]
-0.07736636 0.01699932 0.026603179 0.1358863 -0.0045766127 -0.020706546 -0.10602107 0.08291745
0.18018676 0.09640095 0.127077 0.13662311 0.100024894 0.060611162 -0.20182757 -0.096214086
0.09914289 0.08843565 -0.22669598 -0.12104094 -0.16919847 0.044043306 -0.102139734 -0.15695837
-0.21455744 -0.10301019 0.009470161 0.034740563 0.12861483 -0.19271979 -0.14381379 0.14049682
0.044512656 -0.25261298 -0.10452156 -0.19747551 -0.056445032 0.08985476 0.060300414 -0.113370776
-0.09042117 -0.12360166 -0.2271324 -0.26077908 -0.240328 -0.3861623 -0.41766816 -0.035807766
-0.22098286 -0.16300172 -0.18659565 -0.20380312 -0.32800928 -0.192228 -0.17031217 -0.36166382
-0.17599712 -0.41655326 -0.471212 -0.5953714 -0.41700846 -0.52973807 -0.48595124 -0.45435828
-0.5739668 -0.4316461 -0.77606493 -0.6386272 -0.22605497 -0.6497391 -0.41592008 -0.24939911
-0.39554912 -0.55042547 -0.18143485 -0.24683051 -0.59051335 -0.45859012 -0.30396727 -0.32983413
-0.3142284 -0.12806468 -0.47446248 -0.4103406 -0.059134137 -0.29032782 -0.25289315 -0.0917507
-0.115508325 -0.15277845 -0.23061831 -0.32926205 -0.012397319 -0.08146694 -0.10942453 -0.10979
-0.25958574 -0.32032704 -0.13076843 -0.13074474 -0.29797062 0.09715825 0.018997012 -0.2127931
0.09539212 0.13530655 -0.15746965 -0.0022445559 0.16575012 -0.011694177 0.061717775 0.11407803
0.028586164 -0.02990924 -0.07877727 0.15867567 -0.005853466 0.25261068 0.23633513 0.3129127
0.13933046 0.12387442 0.2842916 0.054819893 0.16127798 0.18981834 0.32134494 0.28509486
0.07392611 0.14728214 -0.011045817 0.17877527 0.26088262 0.17042004 0.33881313 0.20646317
0.1888914 0.15548973 0.11738917 0.19262457 0.3095491 0.13130441 -0.05799755 -0.033068497
0.10032181 -0.117780246 -0.14427285 0.16912107 -0.07227051 -0.13623281 0.19183293 0.2552856
0.083654284 0.18662845 0.035284124 0.014889976 0.12575306 0.004961356 -0.10432438 -0.096253455
0.3322498 0.096287444 0.031491037 0.14099394 0.29285756 0.028199961 0.14011875 0.023534926
-0.012570879 -0.0586685 0.0035251344 -0.023118367 0.17789541 0.22289978 0.2030249 -0.027309366
0.092074335 0.046107017 0.08344033 0.11333389 0.2684599 0.20341752 0.15156792 0.22360234
0.1771099 0.14287874 0.2751259 0.19771706 0.12094973 0.2652755 0.19375792 0.3748519
0.10952289 0.26440525 0.5130477 0.27516624 0.45232564 0.40942264 0.51852894 0.4254758
0.49110413 0.30490193 0.5504312 0.28627008 0.28375933 0.42273244 0.430466 0.18911605
0.2749792 0.42011687 0.2650799 0.20937097 0.07512579 0.31150043 0.36535758 0.17484385
0.28630286 0.23673442 0.25114495 0.27756292 0.08501707 0.37682706 0.269809 0.10801564
0.35064268 0.021685055 0.130277 0.12159236 -0.02006722 0.07230926 0.09340536 0.11870309
0.020622376 0.14958243 0.27570045 0.053286154 0.264011 0.19835672 0.09767996 0.3226378
0.19193256 0.15544972 0.2809965 0.15591805 0.06569213 0.24651581 0.14385365 0.014338168
0.12600227 0.2558833 0.3509018 0.115456425 0.09033696 0.18082899 0.39577347 0.36543512
00000000: 4172 9ebd 2842 8b3c e9ee d93c c725 0b3e
00000010: 69f7 95bb c6a0 a9bc 9321 d9bd a0d0 a93d
00000020: e182 383e dc6d c53d 7920 023e eee6 0b3e
00000030: dad9 cc3d 6943 783d e3ab 4ebe e40b c5bd
00000040: 6d0b cb3d c01d b53d fe22 68be 50e4 f7bd
00000050: 5d42 2dbe c166 343d a32e d1bd b2b9 20be
00000060: f2b4 5bbe 02f7 d2bd bc28 1b3c 1f4c 0e3d
00000070: 9bb3 033e 5658 45be ec43 13be 66de 0f3e
00000080: e752 363d 7d56 81be 660f d6bd 0537 4abe
00000090: e832 67bd c605 b83d 91fd 763d f02e e8bd
000000a0: bc2e b9bd de22 fdbd 6595 68be d684 85be
000000b0: 8b18 76be 11b7 c5be 9ad8 d5be 2aab 12bd
000000c0: 5549 62be ece9 26be ee12 3fbe c4b1 50be
000000d0: d5f0 a7be 6bd7 44be 5066 2ebe 002c b9be
000000e0: 9738 34be 7846 d5be b342 f1be 436a 18bf
000000f0: 2282 d5be ea9c 07bf 9ace f8be a6a1 e8be
00000100: 7def 12bf b800 ddbe 31ac 46bf 127d 23bf
00000110: f47a 67be 4d55 26bf 7af3 d4be 7b62 7fbe
00000120: 6a85 cabe afe8 0cbf 0fca 39be 23c1 7cbe
00000130: e22b 17bf 53cc eabe 99a1 9bbe 05e0 a8be
00000140: 8be2 a0be 6323 03be bfec f2be 2a18 d2be
00000150: a336 72bd d9a5 94be 367b 81be cae7 bbbd
00000160: a18f ecbd f471 1cbe 3527 6cbe 0995 a8be
00000170: 201e 4bbc 24d8 a6bd f819 e0bd 94d9 e0bd
00000180: 6ce8 84be e801 a4be 29e8 05be f3e1 05be
00000190: 9b8f 98be e8fa c63d 9f9f 9b3c 6fe6 59be
000001a0: f25c c33d cd8d 0a3e b93f 21be 6619 13bb
000001b0: 66ba 293e ef98 3fbc c7cb 7c3d bea1 e93d
000001c0: 882d ea3c 3904 f5bc fa55 a1bd e07b 223e
000001d0: 6fce bfbb 3056 813e d601 723e 1836 a03e
000001e0: a5ac 0e3e dfb1 fd3d ab8e 913e d38a 603d
000001f0: 0e26 253e bd5f 423e 5387 a43e f4f7 913e
00000200: 9366 973d 21d1 163e 84f9 34bc dd10 373e
00000210: 6892 853e 9782 2e3e ea78 ad3e 156b 533e
00000220: bf6c 413e b338 1f3e bc69 f03d 603f 453e
00000230: 387d 9e3e aa74 063e d78e 6dbd d572 07bd
00000240: 8575 cd3d c536 f1bd 43bc 13be 132e 2d3e
00000250: 9002 94bd 9d80 0bbe da6f 443e cbb4 823e
00000260: f052 ab3d 871b 3f3e 1686 103d 16f5 733c
00000270: 69c5 003e df92 a23b 05a8 d5bd 8820 c5bd
00000280: a51c aa3e 5a32 c53d bffc 003d b760 103e
00000290: 6df1 953e 9b03 e73c 4a7b 0f3e 51cc c03c
000002a0: 17f6 4dbc 624e 70bd f105 673b bb62 bdbc
000002b0: 372a 363e d73f 643e c2e5 4f3e e4b7 dfbc
000002c0: 7891 bc3d b6da 3c3d c4e2 aa3d 991b e83d
000002d0: 9373 893e af4c 503e 9f34 1b3e 03f8 643e
000002e0: 4c5c 353e ce4e 123e 4ddd 8c3e 5776 4a3e
000002f0: 7eb4 f73d 31d2 873e 7a68 463e 97ec bf3e
00000300: 894d e03d 2060 873e 1857 033f 97e2 8c3e
00000310: 3a97 e73e d89f d13e 50be 043f f7d7 d93e
00000320: 0072 fb3e 1b1c 9c3e 0fe9 0c3f fe91 923e
00000330: e748 913e 6370 d83e 0a66 dc3e a3a7 413e
00000340: 13ca 8c3e 8f19 d73e 8db8 873e 5865 563e
00000350: 8ddb 993d fc7c 9f3e 2610 bb3e 440a 333e
00000360: 4a96 923e 826a 723e 1296 803e ba1c 8e3e
00000370: 6e1d ae3d 7aef c03e 6824 8a3e 4e37 dd3d
00000380: 7087 b33e dba4 b13c 5567 053e 6a05 f93d
00000390: 0364 a4bc e116 943d 4f4b bf3d 9b1a f33d
000003a0: 42f0 a83c 232c 193e 9c28 8d3e 9542 5a3d
000003b0: 732c 873e 061e 4b3e 6e0c c83d c830 a53e
000003c0: f889 443e 362e 1f3e c6de 8f3e fba8 1f3e
000003d0: 9889 863d a46e 7c3e 5f4e 133e a3ea 6a3c
000003e0: bd06 013e 2303 833e 67a9 b33e 6b74 ec3d
000003f0: 9602 b93d 3c2b 393e d2a2 ca3e 501a bb3e

gru.weight_hh_l0 f4 [96, 32]
0.24770397 -0.33467194 -0.18156552 -0.60319287 0.46171397 0.17732725 0.31000108 -0.23881996
-0.08564567 -0.44657975 -0.03199124 0.3913551 -0.18105195 -0.21785475 0.1398127 0.46956074
0.017867604 0.040777143 0.34384188 0.08639937 -0.11052266 0.32191873 -0.31207493 0.6002725
-0.024512425 -0.03401051 0.3052273 0.27386236 0.53504664 -0.13700171 -0.180003 0.3290399
0.37492734 -0.06971059 0.0010100345 0.29732707 0.058317207 0.030227555 -0.28968132 -0.28987154
0.111324735 -0.5065831 -0.08553568 -0.08510398 0.4151543 0.057615746 0.009264036 0.13979867
0.3892568 0.10490671 0.11379779 -0.025467036 0.0046041445 0.20809211 0.0925571 0.32172713
0.10915701 -0.11277947 0.4022631 -0.062440243 0.03747024 -0.54319763 -0.20524195 0.028326098
-0.14637843 -0.052564714 0.048413225 0.1216744 0.32275805 -0.21503623 0.29515302 -0.121893086
0.18810914 -0.09838986 0.2005279 0.23524867 0.19560897 0.4392116 0.18622231 -0.24033646
0.06552053 0.10796764 -0.055967916 -0.50982904 -0.0892358 0.013622395 -0.12894636 0.22195503
-0.29288262 0.09919952 -0.08506466 -0.10144515 -0.19600251 0.17567763 0.11795744 0.23754269
0.23744947 -0.25716892 0.093073346 0.08883673 0.088976815 -0.13710716 0.073222056 -0.3107686
0.22872452 -0.51057017 -0.22229923 0.084725186 0.44261685 0.051780608 -0.21935454 -0.42587608
-0.34593222 0.0058239736 -0.28319922 0.09379688 0.16893296 0.22622016 0.03756336 -0.27655452
0.26364198 -0.1590596 -0.040083945 -0.13727836 -0.2745921 -0.058146972 -0.05073464 0.07807306
-0.016164493 0.2914073 0.17403959 0.1715474 0.037720315 -0.32269666 0.098720804 -0.4397251
-0.43243808 0.029062454 -0.014844364 -0.07707622 0.20241311 0.61232686 0.31032732 0.83475757
0.2938312 0.32109115 0.26166162 -0.6036121 -0.19969477 0.22881506 -0.041893892 0.543222
-0.03366793 0.002502508 -0.017590355 -0.015506543 0.37607333 -0.24351065 0.08873428 0.28595856
0.10565588 -0.15621759 -0.29995865 -0.0015533094 0.1640951 0.42131177 -0.082961045 0.09125098
-0.09182535 -0.2568147 -0.060695905 0.28810635 -0.26355138 -0.44964197 -0.1281636 0.21694987
0.30160812 -0.0479732 0.11332187 0.073614724 0.02032873 0.24118377 -0.2495896 0.28295517
-0.058879185 0.1313663 0.14198402 -0.07858846 0.37294054 -0.80630815 0.059115205 0.2158408
0.34115183 0.20924453 0.31218874 -0.27379435 0.30151236 -0.16776915 -0.18000278 -0.07800171
0.12264501 0.14907561 0.2945037 0.074991494 0.18192907 0.5374791 0.16176015 0.26732063
0.26695198 0.129429 0.21433285 0.038361035 -0.28794003 0.08720472 -0.2538065 0.38516837
-0.112867154 0.22932582 -0.011420616 0.39976877 0.35090598 0.11224781 -0.048625678 0.25786537
0.0023106132 0.24519077 0.35032818 0.4322584 -0.047546793 0.39609134 0.25953063 -0.059532598
0.11152731 0.50697684 0.033390075 -0.12779133 -0.043505613 0.4584085 0.047299642 -0.23896481
0.16182043 0.2984879 -0.03434272 -0.09695239 0.112643294 -0.33680525 0.14410284 -0.37942606
-0.09710148 0.08563693 0.040834967 0.04788311 -0.18788329 0.21426597 0.30321193 -0.13518853
00000000: 1ca6 7d3e 1f5a abbe 50ec 39be d96a 1abf
00000010: c665 ec3e 4695 353e 76b8 9e3e 388d 74be
00000020: ff66 afbd 1aa6 e4be 3f09 03bd b25f c83e
00000030: af65 39be 5115 5fbe 0f2b 0f3e 446a f03e
00000040: 155f 923c ef05 273d 0b0c b03e 27f2 b03d
00000050: b459 e2bd 88d2 a43e 49c8 9fbe 75ab 193f
00000060: 48ce c8bc 9b4e 0bbd c146 9c3e b037 8c3e
00000070: d1f8 083f 2d4a 0cbe b552 38be eb77 a83e
00000080: 7af6 bf3e 6dc4 8ebd 2263 843a 413b 983e
00000090: 06de 6e3d c79f f73c 1c51 94be 0b6a 94be
000000a0: 39fe e33d 6eaf 01bf 552d afbd ff4a aebd
000000b0: 1b8f d43e 7dfe 6b3d 2fc8 173c 6227 0f3e
000000c0: ab4c c73e 54d9 d63d d10e e93d 3fa0 d0bc
000000d0: 5dde 963b 1916 553e 948e bd3d 6bb9 a43e
000000e0: b68d df3d ecf8 e6bd 6ef5 cd3e 57c1 7fbd
000000f0: 657a 193d 000f 0bbf f22a 52be 220c e83c
00000100: 3ae4 15be 194e 57bd f24c 463d 6e30 f93d
00000110: 8b40 a53e 7532 5cbe 4c1e 973e 15a3 f9bd
00000120: af9f 403e 9f80 c9bd 3057 4d3e 07e5 703e
00000130: b84d 483e 58e0 e03e 10b1 3e3e c31a 76be
00000140: a12f 863d 231e dd3d 9d3e 65bd 2884 02bf
00000150: 42c1 b6bd 7730 5f3c 840a 04be 2e48 633e
00000160: b6f4 95be 1e29 cb3d 6136 aebd 7ac2 cfbd
00000170: e2b4 48be d6e4 333e ac93 f13d 643e 733e
00000180: f425 733e a5ab 83be 3d9d be3d 08f0 b53d
00000190: 7a39 b63d d265 0cbe 72f5 953d 101d 9fbe
000001a0: c336 6a3e bab4 02bf 69a2 63be 6684 ad3d
000001b0: ad9e e23e e717 543d 7a9e 60be 6e0c dabe
000001c0: 071e b1be 08d7 be3b 7dff 90be 9418 c03d
000001d0: c3fc 2c3e 42a6 673e 0adc 193d 8e98 8dbe
000001e0: 15fc 863e 85e0 22be 102f 24bd b392 0cbe
000001f0: 5697 8cbe 852b 6ebd 20cf 4fbd c5e4 9f3d
00000200: 666b 84bc 5633 953e 6f37 323e 1faa 2f3e
00000210: 9e80 1a3d 7f38 a5be 222e ca3d a623 e1be
00000220: 8668 ddbe 6214 ee3c c635 73bc 23da 9dbd
00000230: 6245 4f3e 74c1 1c3f 39e3 9e3e acb2 553f
00000240: 0b71 963e 0f66 a43e 83f8 853e 5386 1abf
00000250: c97c 4cbe 7f4e 6a3e ee98 2bbd 9910 0b3f
00000260: 62e7 09bd 1e01 243b a619 90bc 280f 7ebc
00000270: af8c c03e db5a 79be 51ba b53d 2969 923e
00000280: 1c62 d83d 81f7 1fbe 2e94 99be 6a98 cbba
00000290: 8c08 283e 2db6 d73e 7be7 a9bd cbe1 ba3d
000002a0: ee0e bcbd 377d 83be 459c 78bd ad82 933e
000002b0: 35f0 86be 7937 e6be 523d 03be 1b28 5e3e
000002c0: 616c 9a3e 8c7f 44bd 4c15 e83d 51c3 963d
000002d0: 7088 a63c e1f8 763e 6b94 7fbe 80df 903e
000002e0: 4d2b 71bd e384 063e 4264 113e fdf2 a0bd
000002f0: 10f2 be3e 366a 4ebf c922 723d 5f05 5d3e
00000300: 74ab ae3e 3344 563e 34d7 9f3e c62e 8cbe
00000310: d45f 9a3e adcb 2bbe a652 38be 5cbf 9fbd
00000320: 4f2d fb3d 47a7 183e 30c9 963e 2495 993d
00000330: 9d4b 3a3e 3b98 093f 74a4 253e 40de 883e
00000340: eead 883e 0989 043e 127a 5b3e 7620 1d3d
00000350: e06c 93be 6398 b23d edf2 81be ca34 c53e
00000360: e526 e7bd 63d4 6a3e 891d 3bbc 7eae cc3e
00000370: f3a9 b33e 2ee2 e53d b82b 47bd ee06 843e
00000380: a86d 173b 4a13 7b3e 375e b33e f950 dd3e
00000390: 6dc0 42bd 7ccc ca3e 33e1 843e 74d8 73bd
000003a0: 6e68 e43d 3cc9 013f 08c4 083d bbdb 02be
000003b0: f132 32bd 85b4 ea3e 45bd 413d 31b3 74be
000003c0: 41b4 253e 68d3 983e f4aa 0cbd fa8e c6bd
000003d0: 87b1 e63d bd71 acbe b28f 133e 2244 c2be
000003e0: 24dd c6bd 6a62 af3d 9142 273d 1421 443d
000003f0: 7a64 40be 8a68 5b3e 983e 9b3e dd6e 0abe

gru.bias_ih_l0 f4 [96]
0.2729204 0.24700367 -0.020345122 0.078727424 0.17958052 -0.04527769 0.09656191 -0.06397297
0.012383172 0.02411895 -0.018587124 -0.2940976 0.20977153 -0.16881496 -0.11570883 0.036510993
0.41284466 0.008360076 0.14096847 -0.03842233 0.18802829 0.1485074 0.12779658 0.13346592
-0.12793757 -0.0026871753 0.23860103 -0.05302439 0.19742583 0.09594947 0.19740358 0.25575143
-0.05366388 -0.046758413 -0.13686198 0.13672146 -0.17661266 0.13121054 0.018223006 -0.3457326
0.18083511 0.40143543 -0.076715685 0.07488763 -0.14542052 -0.09959312 -0.11943591 0.29954803
-0.1996168 -0.10117947 0.026441598 0.1442138 -0.10549453 0.10149364 -0.23637243 0.31618184
0.09768323 0.07102976 0.3316209 -0.033947513 -0.19105639 0.09789337 -0.05985801 0.13917962
-0.047242094 -0.105144754 0.024074683 -0.07094698 -0.086971365 -0.08743974 0.035387482 0.2202726
0.07812307 -0.07257162 -0.15682222 -0.08303088 -0.039801173 -0.112537436 -0.023444075 -0.14873987
-0.11514374 0.12851638 0.012270006 0.035048183 -0.02030986 -0.107918926 0.088126376 -0.06976257
0.0053423177 -0.09294342 0.04475432 -0.08775765 -0.0031390137 0.06529112 0.08022083 -0.0337355
00000000: 39bc 8b3e 88ee 7c3e d0aa a6bc d83b a13d
00000010: f5e3 373e 1975 39bd 40c2 c53d 4304 83bd
00000020: cae2 4a3c 1b95 c53c 0644 98bc f693 96be
00000030: 59ce 563e d4dd 2cbe c0f8 ecbd 8d8c 153d
00000040: 6060 d33e b3f8 083c 0a5a 103e bc60 1dbd
00000050: 7d8a 403e 5312 183e 1bdd 023e 4aab 083e
00000060: 1102 03be 521b 30bb d453 743e 1a30 59bd
00000070: ff29 4a3e 2881 c43d 2a24 4a3e daf1 823e
00000080: a8ce 5bbd c085 3fbd 8c25 0cbe b600 0c3e
00000090: f3d9 34be 0e5c 063e 6a48 953c dd03 b1be
000000a0: d72c 393e f288 cd3e 1d1d 9dbd b05e 993d
000000b0: 1ee9 14be 7af7 cbbd d09a f4bd 5c5e 993e
000000c0: 5968 4cbe 2f37 cfbd 0d9c d83c c8ac 133e
000000d0: 840d d8bd e6db cf3d 9d0b 72be 96e2 a13e
000000e0: 250e c83d 0d78 913d 37ca a93e 8c0c 0bbd
000000f0: 49a4 43be 527c c83d ac2d 75bd 1a85 0e3e
00000100: ed80 41bd 2256 d7bd 4538 c53c a64c 91bd
00000110: 0b1e b2bd 9b13 b3bd 77f2 103d 248f 613e
00000120: fdfe 9f3d 6ea0 94bd 0196 20be 180c aabd
00000130: 8e06 23bd 077a e6bd ca0d c0bc 444f 18be
00000140: 7bd0 ebbd cc99 033e 2308 493c af8e 0f3d
00000150: dd60 a6bc 9904 ddbd 9a7b b43d aedf 8ebd
00000160: 9c0e af3b 1f59 bebd 4e50 373d 48ba b3bd
00000170: e9b7 4dbb 5ab7 853d d24a a43d 3c2e 0abd

gru.bias_hh_l0 f4 [96]
-0.011163551 0.092743695 0.016595125 -0.15296659 0.2751855 -0.056879625 0.06834243 -0.16737852
0.21925402 0.10356767 0.08936032 -0.17869623 -0.05339123 0.13761324 -0.026259338 0.017452199
0.21273033 -0.0721627 0.16454986 -0.045071457 -0.048629608 0.34538043 0.12482966 -0.083325356
-0.03280488 0.023085555 -0.00046008607 -0.21631175 -0.007914027 0.09276102 0.23469278 0.24490675
-0.029948493 -0.38115662 0.038294002 0.001601446 -0.067360915 -0.18466628 -0.038307387 -0.1071149
0.23018892 0.31287795 -0.014492612 0.038036942 -0.01632596 -0.030214528 -0.035582762 0.0881279
-0.07312103 0.13619639 0.11781206 0.17540462 0.022801599 -0.03843952 -0.09293774 0.17279369
-0.1218095 -0.2046886 0.05461395 0.06944189 0.10262716 0.07061429 0.033890225 0.15080729
-0.05515979 0.064851835 -0.008753126 0.18283144 0.103806354 -0.048813842 0.005147614 -0.035333622
-0.12964939 -0.13009438 0.048914447 -0.16649342 -0.18505472 0.18966302 -0.26344433 -0.10585258
-0.13250138 -0.12615463 0.023448832 0.22963382 0.16363658 -0.11614766 0.07076847 0.0087980535
0.04436504 0.03836498 0.046871513 0.110053174 -0.02895292 -0.00487329 -0.13672546 -0.07673443
00000000: 54e7 36bc 68f0 bd3d 80f2 873c 46a3 1cbe
00000010: 1de5 8c3e 9cfa 68bd 1ef7 8b3d 4665 2bbe
00000020: 2084 603e 491b d43d 8b02 b73d 25fc 36be
00000030: c3b0 5abd 7cea 0c3e d31d d7bc eaf7 8e3c
00000040: fbd5 593e 0aca 93bd c27f 283e d99c 38bd
00000050: d72f 47bd b4d5 b03e b1a6 ff3d 7ca6 aabd
00000060: 695e 06bd eb1d bd3c b537 f1b9 d480 5dbe
00000070: d6a9 01bc 7df9 bd3d 4e53 703e d6c8 7a3e
00000080: 8b56 f5bc f626 c3be 2cda 1c3d 9ce7 d13a
00000090: 85f4 89bd 2819 3dbe 35e8 1cbd 0f5f dbbd
000000a0: a5b6 6b3e 8a31 a03e 6c72 6dbc a0cc 1b3d
000000b0: 05be 85bc 7584 f7bc 3bbf 11bd 677c b43d
000000c0: 7bc0 95bd 1177 0b3e 7347 f13d 459d 333e
000000d0: 6bca ba3c c272 1dbd 2456 bebd d4f0 303e
000000e0: 4277 f9bd e399 51be e1b2 5f3d 8d37 8e3d
000000f0: 302e d23d 3a9e 903d 7ad0 0a3d 3a6d 1a3e
00000100: 3bef 61bd 0ad1 843d 4569 0fbc 2a38 3b3e
00000110: 6d98 d43d 06f1 47bd 51ad a83b fdb9 10bd
00000120: cfc2 04be 7637 05be 845a 483d 407d 2abe
00000130: fc7e 3dbe 0637 423e 2de2 86be 3dc9 d8bd
00000140: 71ae 07be ae2e 01be c417 c03c 2125 6b3e
00000150: 5990 273e d3de edbd 0fef 903d b625 103c
00000160: 1eb8 353d 9924 1d3d 58fc 3f3d 8f63 e13d
00000170: ad2e edbc 1fb0 9fbb c201 0cbe f126 9dbd

gru.weight_ih_l1 f4 [96, 32]
-0.027953522 -0.26438662 -0.10013846 0.16294627 0.33225253 -0.1328637 0.39943352 0.41946197
-0.2866874 0.23024893 0.018555103 0.51177657 -0.12767853 0.020379374 -0.07004411 -0.14886722
0.10837603 0.4280711 -0.23561135 0.019551484 -0.055396743 0.1966752 0.23221627 -0.17663306
-0.312888 0.39479625 0.33260876 0.5817407 -0.10226341 0.068332426 -0.053677797 -0.11590214
0.16370973 0.25703028 -0.19075754 0.26810843 -0.054023318 0.221437 -0.019789761 -0.31988585
-0.26661238 0.17681082 0.08320458 0.1756105 -0.084609754 0.22433011 0.35961235 -0.48549464
0.36703977 0.10109211 0.03716211 -0.37163204 -0.312668 -0.33951077 0.012284534 -0.42095053
-0.15322632 0.25401214 0.12157053 0.4642281 0.018748457 0.17005819 -0.00047536235 0.05299315
-0.1329534 0.03638483 -0.065684065 0.01613567 -0.007587133 -0.13014151 -0.076591566 0.027539896
0.14560618 0.27975065 -0.50156254 -0.15258805 0.043625083 0.23807874 0.3475102 -0.51487833
-0.52541596 -0.38775426 -0.4954696 -0.06270957 0.5143514 -0.32013884 -0.11860828 -0.41854644
0.2930155 0.11085933 0.046977006 0.061765987 0.053245403 0.12917015 0.10824002 -0.59577537
0.050147757 -0.12167707 0.068689324 -0.35171038 -0.452809 0.07445133 -0.57498974 0.4233924
-0.11933064 -0.21750645 0.21750195 -0.19378848 -0.0026186584 -0.0032809172 0.14398879 0.457005
0.20556791 -0.22947617 0.09248301 -0.2668455 -0.011817677 0.28400004 0.16466948 0.0062703863
0.19991238 -0.21004108 -0.033071753 -0.2886917 0.13289106 -0.35990202 -0.013150035 0.30325636
-0.19689472 -0.048025224 -0.008626215 -0.4628865 -0.0118961055 -0.10904513 0.38792783 -0.28004894
-0.29908848 0.586273 0.29529753 -0.16368511 0.034738608 0.29608425 -0.3395477 -0.23118766
-0.013528319 -0.15276186 0.19551462 0.31299216 -0.16642672 -0.34838048 0.093228005 -0.38528842
0.122652695 -0.05737302 -0.34565145 -0.2622435 -0.23315473 -0.0053171916 -0.27352723 0.3379807
-0.0109562185 0.6041789 -0.39604777 0.17816165 0.059658233 -0.13916202 -0.32573634 0.7421264
-0.3820976 0.0066531096 0.041944742 0.028596288 -0.43007523 -0.47423017 0.0025480958 0.063649915
-0.09863728 0.18979287 -0.09241854 -0.6632858 -0.22873127 0.22009417 -0.14964864 -0.011439066
0.19679382 -0.08963455 -0.2730622 0.058756787 -0.15375333 0.072416745 0.2705935 -0.079561055
-0.065393224 0.045168933 0.083467126 -0.29736635 -0.3061209 -0.050557792 -0.015706941 0.113646336
-0.2567704 0.04877349 0.3736798 0.008132147 0.0457094 0.071799114 -0.14275613 0.1496659
0.24541432 -0.04242493 0.6095585 -0.07029125 -0.18821225 0.1720997 -0.0011037721 0.30191
-0.06377092 -0.099648744 -0.38403818 -0.12819336 -0.30384335 -0.33835626 -0.065377936 0.4128181
-0.14598627 0.11574143 -0.21818127 0.047451686 -0.170234 -0.08714143 0.3644715 0.28172463
-0.1592069 -0.6313327 0.12824284 -0.24704036 -0.2079187 -0.042114552 0.02880709 0.047399
-0.10479264 0.12903672 0.10042949 -0.5088776 -0.028592762 0.114498876 -0.1666659 -0.26976508
-0.03470547 0.038106948 -0.44068974 -0.20784327 -0.16318253 -0.21621293 0.27890727 0.14025065
00000000: c9fe e4bc af5d 87be 6515 cdbd 63db 263e
00000010: 011d aa3e 6c0d 08be 8d82 cc3e b8c3 d63e
00000020: b1c8 92be 60c6 6b3e df00 983c ca03 033f
00000030: 29be 02be a5f2 a63c 4973 8fbd a670 18be
00000040: 41f4 dd3d 232c db3e 1a44 71be 6f2a a03c
00000050: b2e7 62bd 3965 493e 1aca 6d3e 4cdf 34be
00000060: db32 a0be bc22 ca3e b24b aa3e f5ec 143f
00000070: 7b6f d1bd dff1 8b3d 40dd 5bbd 1a5e edbd
00000080: 86a3 273e 7999 833e f255 43be 8245 893e
00000090: 8e47 5dbd 62c0 623e 231e a2bc 14c8 a3be
000000a0: 6b81 88be e50d 353e 2a67 aa3d 3dd3 333e
000000b0: e147 adbd cbb6 653e 1c1f b83e c192 f8be
000000c0: a3ec bb3e 6109 cf3d 4c37 183d 8e46 bebe
000000d0: 0516 a0be 5bd4 adbe 1245 493c d486 d7be
000000e0: 5ce7 1cbe e10d 823e f8f9 f83d 4eaf ed3e
000000f0: 5d96 993c bc23 2e3e 0e3a f9b9 580f 593d
00000100: f024 08be 4208 153d 5e85 86bd f42e 843c
00000110: 7c9d f8bb d143 05be 0adc 9cbd 599b e13c
00000120: c919 153e 7a3b 8f3e 6766 00bf 0b40 1cbe
00000130: 37b0 323d eaca 733e dbec b13e 11cf 03bf
00000140: a981 06bf ba87 c6be 31ae fdbe e06d 80bd
00000150: 89ac 033f 3de9 a3be e6e8 f2bd b84b d6be
00000160: 2106 963e 370a e33d f66a 403d 55fe 7c3d
00000170: da17 5a3d 2e45 043e f2ac dd3d bc84 18bf
00000180: bc67 4d3d d431 f9bd fdac 8c3d 6213 b4be
00000190: 95d6 e7be f079 983d 8732 13bf e3c6 d83e
000001a0: 9f63 f4bd 03ba 5ebe d5b8 5e3e 7d70 46be
000001b0: cc9d 2bbb a804 57bb cc71 133e 8ffc e93e
000001c0: 6580 523e cdfb 6abe bb67 bd3d f99f 88be
000001d0: ee9e 41bc 7468 913e 1e9f 283e d077 cd3b
000001e0: d5b5 4c3e 0215 57be 3f76 07bd 66cf 93be
000001f0: 9814 083e 1445 b8be 3f73 57bc 6b44 9b3e
00000200: c59e 49be 19b6 44bd f854 0dbc 76ff ecbe
00000210: e2e7 42bc 0e53 dfbd 7a9e c63e 9362 8fbe
00000220: 2022 99be fd15 163f 3d31 973e 129d 27be
00000230: 124a 0e3d 5b98 973e 32d9 adbe 75bc 6cbe
00000240: e2a5 5dbc 9b6d 1cbe fc34 483e 8240 a03e
00000250: c46b 2abe ed5e b2be 53ee be3d 8644 c5be
00000260: 5631 fb3d f9ff 6abd 3af9 b0be c844 86be
00000270: 1dc0 6ebe d63b aebb c30b 8cbe ce0b ad3e
00000280: b681 33bc 78ab 1a3f c6c6 cabe 0270 363e
00000290: 315c 743d 7d80 0ebe eac6 a6be fffb 3d3f
000002a0: 4ca2 c3be 5402 da3b 40ce 2b3d c342 ea3c
000002b0: d232 dcbe 4cce f2be f4fd 263b e35a 823d
000002c0: 5802 cabd 1059 423e ee45 bdbd 19cd 29bf
000002d0: 8838 6abe 5e60 613e 7e3d 19be ec6a 3bbc
000002e0: 5284 493e 5292 b7bd cfce 8bbe f5aa 703d
000002f0: 8371 1dbe 3b4f 943d 3b8b 8a3e e8f0 a2bd
00000300: e2ec 85bd 0f03 393d d0f0 aa3d 6740 98be
00000310: e1bb 9cbe b015 4fbd d8ab 80bc 69bf e83d
00000320: 6977 83be b6c6 473d f552 bf3e b23c 053c
00000330: c839 3b3d 6a0b 933d aa2e 12be 0542 193e
00000340: e44d 7b3e c3c5 2dbd 070c 1c3f dcf4 8fbd
00000350: b6ba 40be e73a 303e 72ac 90ba f393 9a3e
00000360: 549a 82bd a414 ccbd a7a0 c4be 1f45 03be
00000370: 5b91 9bbe 083d adbe dee4 85bd e55c d33e
00000380: 6d7d 15be d809 ed3d e96a 5fbe b35c 423d
00000390: d251 2ebe 3577 b2bd 029c ba3e 363e 903e
000003a0: 2207 23be 059f 21bf 1752 033e 26f8 7cbe
000003b0: a4e8 54be 4f80 2cbd d9fc eb3c 7425 423d
000003c0: 869d d6bd 3422 043e faad cd3d cd45 02bf
000003d0: 5e3b eabc 637e ea3d 77aa 2abe a61e 8abe
000003e0: 5327 0ebd 0816 1c3d 16a2 e1be ded4 54be
000003f0: 5219 27be ec66 5dbe efcc 8e3e de9d 0f3e

gru.weight_hh_l1 f4 [96, 32]
0.21579951 0.0641366 0.04381638 -0.08484464 0.081080064 0.0742464 -0.04718563 -0.08231555
-0.27399737 0.14183295 -0.15143387 0.07728841 -0.0076134005 0.23522526 0.11183504 -0.16010077
-0.08320119 0.28657582 -0.23636703 -0.06598244 -0.044670664 -0.019996446 -0.19645521 -0.064124234
-0.10007745 0.124179654 0.19527921 -0.1633264 -0.26768965 -0.16757245 -0.08055181 0.062063493
0.111333616 -0.1363151 0.03880514 0.12285123 0.024803026 -0.14377968 -0.13561882 0.21880448
-0.2592257 -0.053456277 -0.015158597 -0.29507768 0.0022064978 -0.1187919 -0.13194771 0.040140472
0.05611677 -0.031721514 0.19487928 -0.2511197 0.22071727 -0.303841 -0.19381075 0.20411336
0.018446248 -0.09749802 -0.25610515 -0.07584383 0.19129014 -0.006209686 0.24622108 0.05626272
-0.11098847 -0.051406838 0.15707392 -0.076507226 0.08297991 -0.16225822 0.1994031 0.32925054
0.19854876 -0.16079414 -0.011401115 -0.08467002 -0.37035945 0.23701143 -0.14267336 -0.21113233
0.06447793 0.20678687 0.17412147 0.07354128 -0.008102894 -0.15167734 0.030213278 -0.093264624
0.19644162 0.007956949 0.15782583 -0.19523147 -0.049664788 -0.0138282 0.24840802 -0.26226485
-0.2523177 -0.42619252 -0.10721404 -0.073381655 -0.2328064 -0.020258822 -0.015238216 -0.09233047
-0.28449908 -0.2766934 -0.025065277 -0.16860968 -0.3759794 0.21205306 0.07661503 -0.012162282
0.06003695 0.1679886 0.02657662 0.021957668 -0.033935085 -0.42095718 -0.3619653 -0.1915157
-0.17582893 0.24459146 0.06658401 -0.08435281 -0.21025743 -0.31286123 -0.089619674 0.011587317
-0.019844886 -0.06659584 -0.04811939 -0.12146335 0.21939234 -0.1580034 -0.20788704 -0.3297318
-0.07560001 -0.23136282 -0.07023537 -0.21784876 -0.026761424 0.07391517 0.1883501 0.008244837
0.023645233 0.23307969 -0.34503132 0.20988889 -0.068618335 0.1913112 -0.63745 0.15173973
0.13457772 -0.25427818 0.010701168 -0.005839833 0.13291445 0.105716266 -0.17403848 0.063066155
-0.08233179 0.40472704 0.110655345 -0.13189942 -0.05421954 -0.097632214 -0.19578695 0.22294553
0.051408634 -0.04706145 -0.064968966 0.60233015 0.04378719 -0.1919015 -0.09453804 -0.22518979
-0.12691535 -0.1941344 0.26723072 -0.011476321 0.061334487 -0.17348726 0.19745684 0.09962305
0.09190763 0.10776683 0.00927695 0.121961534 0.14346673 0.17011277 -0.12716079 0.2308954
-0.08565657 0.09394661 -0.04812501 -0.089409925 0.14572592 0.083375774 0.14927694 -0.49677968
0.078149475 0.1067597 -0.25203162 -0.1338292 0.12858152 0.03691529 0.08731507 0.4730224
-0.114115104 -0.043140635 0.1272441 0.03380304 0.06819973 0.033221457 -0.17038144 -0.13607907
0.14983597 -0.023782656 -0.1563571 0.15954813 -0.17476296 0.09505701 -0.45906454 -0.078322716
-0.12767825 0.4433308 0.08750284 0.05140674 0.092058 -0.10551744 -0.16269918 -0.27583763
0.26290268 0.10020844 -0.24453484 -0.09610114 0.056636885 -0.03863133 -0.2311002 0.2306323
0.20289111 0.08660618 -0.012120999 -0.1235258 0.043760434 0.34235287 0.2691302 -0.019678572
-0.059054974 -0.07958664 -0.20073144 0.058522664 -0.0106904805 0.50169575 -0.28202638 0.15637712
00000000: 8cfa 5c3e 0d5a 833d ce78 333d 07c3 adbd
00000010: 4e0d a63d 7f0e 983d b845 41bd 0e95 a8bd
00000020: 6249 8cbe a83c 113e 7b11 1bbe 6349 9e3d
00000030: d579 f9bb e4de 703e c509 e53d 75f1 23be
00000040: 6365 aabd 11ba 923e 330a 72be cd21 87bd
00000050: 96f8 36bd 96cf a3bc 8e2b 49be 9153 83bd
00000060: 68f5 ccbd e751 fe3d 46f7 473e 093f 27be
00000070: 9e0e 89be 1d98 2bbe 59f8 a4bd 4a36 7e3d
00000080: e102 e43d 3096 0bbe 23f2 1e3d 6d99 fb3d
00000090: b72f cb3c fb3a 13be a9df 0abe 480e 603e
000000a0: 3bb9 84be f8f4 5abd c45b 78bc 6c14 97be
000000b0: e49a 103b 2b49 f3bd 4d1d 07be 566a 243d
000000c0: b3da 653d 6bee 01bd 6f8e 473e c392 80be
000000d0: b503 623e 0c91 9bbe 5376 46be 1803 513e
000000e0: 961c 973c 0bad c7bd 3720 83be 0354 9bbd
000000f0: 90e1 433e 9f7a cbbb 6121 7c3e bd73 663d
00000100: ec4d e3bd fa8f 52bd fcd7 203e d2af 9cbd
00000110: 5ff1 a93d 0527 26be 5430 4c3e 8793 a83e
00000120: 5e50 4b3e 38a7 24be becb 3abc 7a67 adbd
00000130: c19f bdbe 20b3 723e f718 12be 1333 58be
00000140: 010d 843d f0bf 533e e64c 323e d09c 963d
00000150: 00c2 04bc 4e51 1bbe d681 f73c 8601 bfbd
00000160: fe27 493e dd5d 023c 189d 213e c2ea 47be
00000170: 4e6d 4bbd ad8f 62bc ac5e 7e3e 9447 86be
00000180: c92f 81be e835 dabe 0993 dbbd 1f49 96bd
00000190: cd64 6ebe d4f5 a5bc b6a9 79bc c217 bdbd
000001a0: dda9 91be c2aa 8dbe b255 cdbc 04a8 2cbe
000001b0: 5f80 c0be 7024 593e 57e8 9c3d 4f44 47bc
000001c0: 4ee9 753d 3405 2c3e 36b7 d93c 91e0 b33c
000001d0: 84ff 0abd b387 d7be 8453 b9be b11c 44be
000001e0: 800c 34be 2f76 7a3e 335d 883d 2bc1 acbd
000001f0: b94d 57be 592f a0be 858a b7bd bbd8 3d3c
00000200: be91 a2bc 6663 88bd d618 45bd c7c1 f8bd
00000210: 63a8 603e a5cb 21be 57e0 54be 9bd2 a8be
00000220: 2ed4 9abd 60ea 6cbe 90d7 8fbd bf13 5fbe
00000230: c63a dbbc d660 973d d9de 403e 5a15 073c
00000240: a6b3 c13c 71ac 6e3e f2a7 b0be 1ded 563e
00000250: c587 8cbd 15e7 433e ec2f 23bf a961 1b3e
00000260: bece 093e c030 82be f453 2f3c 125c bfbb
00000270: ba1a 083e c581 d83d 2537 32be d428 813d
00000280: 929d a8bd 6238 cf3e 459f e23d a410 07be
00000290: 4f15 5ebd 66f3 c7bd 607c 48be d54b 643e
000002a0: dc91 523d 82c3 40bd 730e 85bd 4f32 1a3f
000002b0: 325a 333d d481 44be 299d c1bd 2798 66be
000002c0: 19f6 01be 2bcb 46be 77d2 883e 2e07 3cbc
000002d0: df39 7b3d a5a6 31be 2032 4a3e 2b07 cc3d
000002e0: 113a bc3d dbb4 dc3d 59fe 173c f8c6 f93d
000002f0: f1e8 123e 0b32 2e3e 7036 02be d86f 6c3e
00000300: b66c afbd 1567 c03d bb1e 45bd 8d1c b7bd
00000310: 2d39 153e ebc0 aa3d 0edc 183e e859 febe
00000320: d50c a03d d4a4 da3d 4a0a 81be 860a 09be
00000330: e0aa 033e 7d34 173d 3ed2 b23d fe2f f23e
00000340: 2eb5 e9bd 3cb4 30bd 474c 023e 0e75 0a3d
00000350: 4dac 8b3d 3913 083d 7978 2ebe 5058 0bbe
00000360: 9a6e 193e d8d3 c2bc 131c 20be 9660 233e
00000370: 10f5 32be 40ad c23d 820a ebbe a967 a0bd
00000380: 16be 02be 41fc e23e b034 b33d e08f 523d
00000390: e888 bc3d 8719 d8bd 9d9a 26be 973a 8dbe
000003a0: 2e9b 863e 153a cd3d 5767 7abe add0 c4bd
000003b0: 14fc 673d e33b 1ebd 88a5 6cbe e02a 6c3e
000003c0: b0c2 4f3e 955e b13d 2897 46bc 18fb fcbd
000003d0: 243e 333d e048 af3e 6fcb 893e f534 a1bc
000003e0: a1e3 71bd 52fe a2bd 8b8c 4dbe 76b5 6f3d
000003f0: 2027 2fbc 226f 003f c365 90be 5321 203e

gru.bias_ih_l1 f4 [96]
-0.05556307 -0.13752124 -0.082303524 0.0735651 0.13273013 -0.105362125 0.06400358 -0.14422692
-0.026059575 -0.4788498 -0.2012676 0.057294358 0.082669325 0.10223541 -0.09040422 0.16396904
0.1635599 -0.070716 0.03065603 0.07505059 -0.14722131 -0.19607872 -0.29191443 -0.2542147
-0.18409696 -0.16407368 0.008624685 -0.45386466 0.12634942 -0.11163515 0.0034471082 -0.11415803
-0.4032409 0.21377966 -0.23644133 -0.28413385 -0.06912459 -0.17963529 -0.3518882 -0.054159988
0.05088104 -0.2963345 -0.2637819 -0.17284985 0.15125854 -0.13290355 -0.123068094 -0.16063266
-0.20024614 0.16364746 -0.5971315 -0.24313836 -0.08414246 -0.16093221 0.04861812 0.1259793
-0.1535393 -0.12934689 -0.104589045 -0.1158059 -0.20766029 -0.40988088 -0.023385443 -0.15177841
-0.08792538 0.01250234 -0.11196217 -0.049614392 -0.042326845 0.023680368 -0.048180833 -0.016286982
0.08903026 0.009878743 0.051872592 0.05250676 0.112822175 0.09560994 0.036638126 -0.03809858
-0.091888204 0.015641313 -0.061518613 -0.07244688 -0.07780978 -0.08201651 0.071659975 -0.10707456
0.113751955 0.15216136 0.0003322988 0.053975694 -0.08178763 -0.14119262 0.109856285 -0.004062296
00000000: 1a96 63bd 5ed2 0cbe c08e a8bd 4da9 963d
00000010: 68ea 073e 19c8 d7bd 4f14 833d 39b0 13be
00000020: e47a d5bc cd2b f5be 1819 4ebe 7dad 6a3d
00000030: 894e a93d cc60 d13d d925 b9bd 80e7 273e
00000040: 3f7c 273e 8dd3 90bd 5b22 fb3c 20b4 993d
00000050: 2fc1 16be dcc8 48be cf75 95be 6e28 82be
00000060: ea83 3cbe ee02 28be 8d4e 0d3c f360 e8be
00000070: be61 013e f8a0 e4bd e1e8 613b afcb e9bd
00000080: 9775 cebe 0ee9 5a3e ad1d 72be fe79 91be
00000090: 3191 8dbd 50f2 37be b12a b4be ddd6 5dbd
000000a0: a368 503d 28b9 97be 6c0e 87be 8dff 30be
000000b0: 85e3 1a3e de17 08be 200b fcbd e37c 24be
000000c0: 530d 4dbe 3393 273e 9cdd 18bf 43f9 78be
000000d0: e252 acbd 6acb 24be cb23 473d b800 013e
000000e0: 6839 1dbe 8373 04be c832 d6bd a52b edbd
000000f0: e6a4 54be e8db d1be d492 bfbc cd6b 1bbe
00000100: 3912 b4bd 9dd6 4c3c 6c4c e5bd 7638 4bbd
00000110: ea5e 2dbd 55fd c13c 4459 45bd 476c 85bc
00000120: 7f55 b63d 74da 213c 5b78 543d 5411 573d
00000130: 500f e73d 25cf c33d dc11 163d 420d 1cbd
00000140: e22f bcbd 3622 803c f1fa 7bbd 085f 94bd
00000150: bc5a 9fbd 46f8 a7bd 77c2 923d e849 dbbd
00000160: c9f6 e83d 30d0 1b3e 6438 ae39 9e15 5d3d
00000170: 4680 a7bd cc94 10be 55fc e03d 021d 85bb

gru.bias_hh_l1 f4 [96]
-0.13010041 0.115307234 0.10450121 0.078176215 -0.022995474 -0.11091458 0.08103054 -0.0682472
-0.13193521 -0.15160881 0.105696484 0.12481803 -0.13362993 0.0787999 -0.08445489 0.19277574
-0.042313933 -0.2763453 0.23117796 0.078499936 -0.0085920645 -0.264501 -0.39483187 -0.27675724
-0.1601526 -0.2314343 -0.04249552 -0.18151018 -0.17658441 -0.054294102 -0.18750522 -0.14088243
-0.2073259 0.12681065 -0.4158209 -0.55613506 -0.23333207 0.09104227 -0.1046262 0.12704244
-0.04524633 -0.38152456 -0.2139113 -0.38982865 0.102207154 -0.06195438 -0.16669077 -0.1694359
-0.12908871 0.024953688 -0.54599655 -0.2630948 0.02180966 -0.41971862 0.106298015 -0.0037238428
-0.10163046 -0.34963256 -0.15168266 -0.14188597 -0.18171884 -0.4605434 0.090135135 -0.27355132
0.06646464 0.067748666 0.087572165 0.14861135 0.005572645 -0.1329314 -0.031732317 0.015573214
0.012445914 -0.052774146 -0.006269704 -0.035626385 -0.2416889 -0.20361947 -0.102930956 0.004127729
0.23073988 -0.037528854 -0.11272974 0.012277186 0.009061095 0.021341214 -0.06892587 -0.024376111
0.05781353 -0.015374879 -0.08651126 -0.08715379 0.102234356 0.18381713 0.100504 0.022984752
00000000: 0b39 05be 3326 ec3d bb04 d63d da1a a03d
00000010: 0161 bcbc 2f27 e3bd 57f3 a53d 30c5 8bbd
00000020: 061a 07be 573f 1bbe 6677 d83d 98a0 ff3d
00000030: 49d6 08be d861 a13d aff6 acbd 0167 453e
00000040: 6051 2dbd 227d 8dbe eab9 6c3e 93c4 a03d
00000050: bbc5 0cbc ad6c 87be 6727 cabe 20b3 8dbe
00000060: 0bff 23be 1dfd 6cbe c80f 2ebd cedd 39be
00000070: 8bd2 34be 7e63 5ebd 5e01 40be 7c43 10be
00000080: 3e4d 54be a7da 013e 7ae6 d4be de5e 0ebf
00000090: 9aee 6ebe 5f74 ba3d 4346 d6bd 6a17 023e
000000a0: 3754 39bd 3057 c3be 900b 5bbe 9f97 c7be
000000b0: fc51 d13d e0c3 7dbd fcb0 2abe 9b80 2dbe
000000c0: d52f 04be ad6b cc3c 6ec6 0bbf 5db4 86be
000000d0: 2caa b23c 5ce5 d6be c6b2 d93d b70b 74bb
000000e0: a123 d0bd 0a03 b3be b352 1bbe 8e4a 11be
000000f0: 8114 3abe 58cc ebbe c598 b83d eb0e 8cbe
00000100: 9d1e 883d d0bf 8a3d 0959 b33d 932d 183e
00000110: bc9a b63b 2b1f 08be bff9 01bd cb26 7f3c
00000120: f2e9 4b3c b429 58bd 1772 cdbb f9ec 11bd
00000130: 4c7d 77be 9f81 50be 77cd d2bd e741 873b
00000140: 1347 6c3e dbb7 19bd dade e6bd 4026 493c
00000150: fd74 143c c5d3 ae3c 0229 8dbd 69b0 c7bc
00000160: e1cd 6c3d ebe6 7bbc d12c b1bd b07d b2bd
00000170: 3f60 d13d 8f3a 3c3e 0bd5 cd3d 854a bc3c

gru.weight_ih_l2 f4 [96, 32]
0.031500626 0.36444595 -0.20708632 -0.004152446 -0.114277825 0.026800426 0.26113403 0.33344468
0.3999432 0.39769942 0.4944067 -0.14543663 0.35001293 -0.088596635 -0.027242385 -0.13163804
0.42898437 0.0060816966 0.01684423 -0.21891335 0.1949379 0.4686711 -0.15212412 -0.1606983
0.23717059 -0.21038945 -0.29373163 0.15260153 0.27902094 0.18221235 -0.17396073 0.24802297
-0.45524934 -0.07622415 0.015649084 -0.16546893 0.1067629 0.30203924 0.06528643 0.007602069
-0.048023343 -0.21141244 0.04415368 0.11771149 -0.2586342 0.27523568 0.45946613 -0.18621199
-0.47199637 0.080425024 -0.11611536 0.41182575 -0.085834466 -0.2113577 -0.011200789 0.06848387
-0.13535011 0.21971005 0.4039819 -0.12506764 0.15180992 -0.3201108 0.25678745 0.027310368
0.32133278 0.11859364 -0.14528449 -0.2581791 0.06572926 -0.26641235 -0.071549684 0.16037099
0.094634905 0.19269583 0.3049367 -0.51850766 0.27834284 -0.14033456 -0.43384266 0.101228334
0.18198179 -0.10170835 0.052162398 0.14981146 0.36599663 -0.029532967 -0.2885056 -0.12904465
-0.09688408 -0.3016804 0.20196316 0.08790475 0.20707506 -0.081073895 -0.21437787 0.044716824
0.337211 0.08940069 -0.14868183 -0.035121612 -0.0778286 0.32577193 -0.009676092 0.08615453
0.5372192 0.18594491 -0.22655462 -0.33340365 0.15206043 -0.08429374 -0.38774285 -0.031421933
0.13559683 0.12252563 -0.059775848 -0.013875688 0.11192264 0.14831483 -0.084774785 0.24784829
-0.10690541 0.05960172 0.14219467 0.19978599 -0.005663657 0.12595737 -0.056186534 -0.038514793
-0.27380982 -0.24658787 0.18577668 -0.04420824 -0.53117394 -0.26868057 0.061381098 0.21399443
-0.46597698 -0.09371504 0.36241516 -0.28332832 -0.14042294 -0.14363869 0.25006342 -0.2262362
0.032718357 0.247394 -0.039701078 -0.09840838 -0.09430784 -0.22550751 0.083929755 -0.41296685
-0.40379998 0.19963029 0.21984684 -0.3440839 -0.14348057 -0.3270964 0.12483942 0.04871192
-0.38730875 -0.09861733 -0.008407928 -0.16299549 -0.1950068 -0.06795732 0.40917435 -0.12681888
-0.04384457 -0.38342267 0.23843579 -0.23386954 -0.100068726 0.22444595 0.24612387 -0.1381021
-0.32891777 0.25045082 0.1278401 0.39712986 0.1509225 0.013728604 -0.012266497 0.11543553
0.13139796 -0.098052 0.5297189 -0.058300205 0.1545161 -0.15892813 0.101454236 0.0049467706
-0.09380911 0.11714246 -0.15902701 0.100945726 -0.15576991 -0.026486373 -0.1936184 -0.086231254
0.049618028 -0.07958007 -0.15737015 0.24408539 0.02129301 0.105627164 -0.09842308 -0.26104233
-0.16552773 0.07892126 -0.12606625 0.20734242 -0.44272575 -0.23885779 -0.30533051 -0.19977942
0.42825493 -0.27416316 0.0066478103 -0.009238785 -0.3629219 -0.004789569 -0.14073242 0.6917944
0.09889972 0.14042957 0.38125014 -0.1760505 -0.022733111 -0.032125946 0.12686723 -0.033036396
0.24599737 -0.21607868 -0.01959866 0.07602056 -0.38666713 0.17684653 0.088215746 0.14372139
-0.25796166 0.2233595 0.21437952 0.2165347 0.12126458 0.083403684 0.042701673 0.4210933
-0.185642 0.23008092 0.010076538 -0.16278636 0.03927973 0.15880789 0.2143976 -0.11654366
00000000: cd06 013d a998 ba3e 700e 54be 3e11 88bb
00000010: 7e0a eabd 918c db3c 5cb3 853e 43b9 aa3e
00000020: 5bc5 cc3e 429f cb3e e022 fd3e 57ed 14be
00000030: e534 b33e 2772 b5bd 6c2b dfbc 1fcc 06be
00000040: d7a3 db3e f848 c73b e9fc 893c d22a 60be
00000050: cd9d 473e a9f5 ef3e 6dc6 1bbe 188e 24be
00000060: d9dc 723e 5570 57be fe63 96be 9343 1c3e
00000070: d5db 8e3e e095 3a3e c322 32be bcf9 7d3e
00000080: 7116 e9be 681b 9cbd 8232 803c b070 29be
00000090: 82a6 da3d e3a4 9a3e e4b4 853d c71a f93b
000000a0: 20b4 44bd 817c 58be 7dda 343d b912 f13d
000000b0: b46b 84be b1eb 8c3e 253f eb3e 5bae 3ebe
000000c0: 82a9 f1be e0b5 a43d e4cd edbd d3da d23e
000000d0: fbc9 afbd 276e 58be 8483 37bc 4541 8c3d
000000e0: 3899 0abe acfb 603e b7d6 ce3e bb11 00be
000000f0: 0f74 1b3e 90e5 a3be a579 833e feb9 df3c
00000100: bb85 a43e 39e1 f23d 75c5 14be 0d30 84be
00000110: 109d 863d 3367 88be a488 92bd 4b38 243e
00000120: f2cf c13d 0e52 453e aa20 9c3e ebbc 04bf
00000130: f482 8e3e ddb3 0fbe a020 debe cd50 cf3d
00000140: 6f59 3a3e 784c d0bd 3da8 553d 2d68 193e
00000150: e963 bb3e 1fef f1bc 02b7 93be 4824 04be
00000160: 296b c6bd da75 9abe 6ecf 4e3e 6807 b43d
00000170: 7c0b 543e 120a a6bd df85 5bbe fd28 373d
00000180: eca6 ac3e b517 b73d 0d40 18be aedb 0fbd
00000190: 9a64 9fbd 94cb a63e 7988 1ebc c971 b03d
000001a0: 3387 093f 5868 3e3e effd 67be e2b3 aabe
000001b0: bbb5 1b3e 32a2 acbd 3b86 c6be 49b4 00bd
000001c0: e5d9 0a3e b8ee fa3d 85d7 74bd db56 63bc
000001d0: b237 e53d d8df 173e 679e adbd f1cb 7d3e
000001e0: 39f1 dabd ef20 743d 7b9b 113e b394 4c3e
000001f0: 3396 b9bb f8fa 003e da23 66bd b0c1 1dbd
00000200: cd30 8cbe 8881 7cbe 3e3c 3e3e b313 35bd
00000210: 04fb 07bf 8090 89be bf6a 7b3d 5b21 5b3e
00000220: 8994 eebe aced bfbd 7b8e b93e 6910 91be
00000230: 08cb 0fbe 0516 13be 5008 803e 76aa 67be
00000240: af03 063d da54 7d3e 999d 22bd 558a c9bd
00000250: 7824 c1bd 71eb 66be 5de3 ab3d 6470 d3be
00000260: dfbe cebe e26b 4c3e 881f 613e c42b b0be
00000270: 92ec 12be 2e79 a7be cfab ff3d 2686 473d
00000280: 554d c6be e2f7 c9bd 68c1 09bc 4ae8 26be
00000290: ddaf 47be 352d 8bbd 4d7f d13e cfdc 01be
000002a0: 5d96 33bd fa4f c4be 8328 743e 7f7b 6fbe
000002b0: d5f0 ccbd 29d5 653e e507 7c3e a36a 0dbe
000002c0: e967 a8be 173b 803e 84e8 023e 9b54 cb3e
000002d0: 6e8b 1a3e f0ed 603c 6bf9 48bc 7769 ec3d
000002e0: 308d 063e 7dcf c8bd a89b 073f 32cc 6ebd
000002f0: 7839 1e3e 0ebe 22be 3dc7 cf3d 8518 a23b
00000300: fe1e c0bd 63e8 ef3d fad7 22be a2bc ce3d
00000310: 2682 1fbe f3f9 d8bc e743 46be 039a b0bd
00000320: 463c 4b3d e0fa a2bd a425 21be 85f1 793e
00000330: ae6e ae3c 0e53 d83d 0a92 c9bd 57a7 85be
00000340: 1a80 29be 78a1 a13d 8317 01be 9251 543e
00000350: f3ac e2be 2397 74be 4854 9cbe fa92 4cbe
00000360: 3b44 db3e 1d5f 8cbe e0d5 d93b 465e 17bc
00000370: e6d0 b9be d1f1 9cbb 291c 10be 7019 313f
00000380: f08b ca3d c5cc 0f3e 3833 c33e 9546 34be
00000390: ca3a babc 7f96 03bd 7ce9 013e 2c51 07bd
000003a0: bce6 7b3e bb43 5dbe 5e8d a0bc abb0 9b3d
000003b0: 3cf9 c5be 4217 353e 75aa b43d b32b 133e
000003c0: 8d13 84be 5ab8 643e 4e86 5b3e 46bb 5d3e
000003d0: 9059 f83d 8dcf aa3d f3e7 2e3d 8b99 d73e
000003e0: f018 3ebe 559a 6b3e 1018 253c 78b1 26be
000003f0: c8e3 203d 899e 223e 0b8b 5b3e 71ae eebd

gru.weight_hh_l2 f4 [96, 32]
-0.3252991 0.25173604 0.0018313315 -0.16064127 0.032613236 0.050395567 0.09445651 0.15537
-0.034698386 0.058055297 0.037921853 0.17796908 -0.17330156 -0.01403499 0.1565349 -0.49704817
0.083483815 -0.18586828 -0.27213842 0.123834394 0.1755523 -0.058673598 0.050385147 -0.0060502836
-0.07466957 0.31688112 0.3213185 -0.26402342 0.2585836 -0.031129086 -0.23715818 0.091404
-0.13668129 0.14734954 -0.31115273 -0.38671017 -0.23747551 0.2014807 0.20068571 0.10008281
0.16257948 -0.040593736 0.19776003 0.24463983 0.030548532 0.13693151 -0.16069764 -0.07242233
-0.09518284 0.17957021 -0.13437204 0.39714453 0.13979453 -0.19453806 -0.0018145175 -0.07239179
-0.046107847 -0.164314 0.19667949 -0.11754271 0.017777877 0.37295318 -0.20706716 0.14855084
-0.35075438 0.17653029 -0.15717353 -0.005826096 -0.15288323 0.03279238 0.05147446 0.05796841
0.2214208 -0.10726067 0.32427597 0.22028108 -0.18598971 0.36330804 -0.0711614 -0.09725008
-0.024927063 -0.13815622 -0.2668461 0.062845 0.30965006 -0.16047077 -0.31838992 0.29641217
-0.01066255 0.09936854 -0.037484992 0.07423751 -0.0823059 -0.04634554 0.15661776 0.0442653
-0.14230528 -0.004150626 0.09269093 -0.0063828453 -0.031844735 0.14467898 0.03217828 -0.10487622
-0.10132454 -0.40143046 0.43795198 0.18052249 -0.0651262 0.122210406 -0.18970475 -0.032523736
0.23840022 0.10598606 0.07231899 -0.10902032 0.3320356 0.24055727 -0.2649918 -0.058047507
-0.32050884 -0.17699602 0.10944831 -0.16814566 0.24514101 0.18052763 0.5051695 -0.18019952
-0.072256066 -0.06956856 -0.11078554 0.09866588 0.1487256 0.06051738 -0.050046906 0.08210918
-0.097823165 0.022534858 0.049384177 -0.027261993 0.2645734 -0.12185562 0.17342922 -0.21532659
0.03562039 -0.015746443 -0.06473751 -0.20994939 0.16513282 0.0014610635 -0.02931692 -0.09470846
0.12714748 -0.063558236 0.06533202 0.042096145 0.17726229 0.12788495 0.04729824 0.098928764
-0.15620288 0.1982356 -0.28112945 -0.13377151 0.03902609 0.12111646 0.2232592 0.29049876
-0.01338006 -0.35100973 0.46070033 0.30948326 -0.20793872 0.11688833 -0.2291732 -0.25851732
0.13134137 0.0853986 -0.2777389 0.18965855 0.03135517 0.012054097 -0.34004208 0.16731565
-0.10381937 -0.15472974 0.15296105 -0.1677441 0.18823923 0.37619445 0.08106256 0.2038352
0.12570992 0.001727476 0.11027604 0.1274054 0.19209498 0.10326314 -0.051015463 -0.17804405
-0.099034734 0.18538322 0.008370656 0.118509926 -0.2495435 -0.0937549 -0.14976056 0.21271586
-0.099717826 0.30997753 -0.30015662 -0.0958786 0.16200384 -0.09716102 -0.038564377 -0.17357914
-0.15205418 -0.16922396 -0.096229985 0.08604065 0.00536291 0.121378735 0.09538915 0.047386676
0.015216118 0.13668278 -0.034595426 0.031008882 -0.21181723 0.11937193 0.37973446 0.1057432
-0.12599854 0.04061166 0.06699182 -0.10471968 -0.26552764 0.057012673 -0.27090836 0.049909323
-0.025216758 0.4177993 -0.11306394 0.118743084 0.49399605 -0.11339568 0.03270961 0.39753667
-0.023858815 0.15910518 0.27486846 -0.17539333 0.21922804 -0.048030224 -0.005780364 0.030587088
00000000: 9b8d a6be 8ce3 803e 4a09 f03a 257f 24be
00000010: 7595 053d 956b 4e3d 6a72 c13d 5019 1f3e
00000020: e51f 0ebd 64cb 6d3d f253 1b3d 873d 363e
00000030: f775 31be 04f3 65bc af4a 203e 197d febe
00000040: 90f9 aa3d 4154 3ebe ba55 8bbe e39c fd3d
00000050: fbc3 333e ba53 70bd a860 4e3d 7541 c6bb
00000060: 5cec 98bd 3e3e a23e dc83 a43e 142e 87be
00000070: 1265 843e 6d02 ffbc 98d9 72be 0532 bb3d
00000080: 2ef6 0bbe cce2 163e 694f 9fbe e0fe c5be
00000090: c82c 73be f550 4e3e 8e80 4d3e 37f8 cc3d
000000a0: 3c7b 263e 9e45 26bd 9b81 4a3e dd82 7a3e
000000b0: ea40 fa3c c637 0c3e ec8d 24be 2952 94bd
000000c0: 39ef c2bd 41e1 373e d398 09be 8756 cb3e
000000d0: 4c26 0f3e fc34 47be 1bd5 edba 2642 94bd
000000e0: 95db 3cbd ee41 28be 5966 493e 3bba f0bd
000000f0: e9a2 913c b8f3 be3e 6a09 54be b61d 183e
00000100: 1496 b3be 5bc4 343e 19f2 20be d6e8 bebb
00000110: 6c8d 1cbe 4d51 063d e2d6 523d 4970 6d3d
00000120: 22bc 623e 7bab dbbd 8007 a63e 5d91 613e
00000130: 1674 3ebe 8303 ba3e 11bd 91bd 0d2b c7bd
00000140: d733 ccbc d378 0dbe 0da0 88be e1b4 803d
00000150: 748a 9e3e 7352 24be 0104 a3be 56c3 973e
00000160: fab1 2ebc bc81 cb3d dd89 19bd d609 983d
00000170: ff8f a8bd d2d4 3dbd 6860 203e 884f 353d
00000180: 7ab8 11be f901 88bb bed4 bd3d 3027 d1bb
00000190: a06f 02bd ba26 143e 5fcd 033d 58c9 d6bd
000001a0: 3e83 cfbd 4b88 cdbe 3e3b e03e e3da 383e
000001b0: e360 85bd 7349 fa3d f641 42be 9c37 05bd
000001c0: 301f 743e 380f d93d fb1b 943d 0c46 dfbd
000001d0: 9200 aa3e a554 763e 01ad 87be 39c3 6dbd
000001e0: bc19 a4be 723e 35be 7026 e03d 602e 2cbe
000001f0: 3f06 7b3e 3cdc 383e ca52 013f 3986 38be
00000200: fdfa 93bd f679 8ebd 87e3 e2bd 5611 ca3d
00000210: 864b 183e 12e1 773d fcfd 4cbd dc28 a83d
00000220: 8357 c8bd 069b b83c 1047 4a3d 8b54 dfbc
00000230: 2a76 873e 708f f9bd 6e97 313e 937e 5cbe
00000240: b0e6 113d affe 80bc 1a95 84bd f9fc 56be
00000250: 9418 293e 2881 bf3a 0a2a f0bc 82f6 c1bd
00000260: f332 023e d22a 82bd cbcc 853d 026d 2c3d
00000270: 3f84 353e 46f4 023e cdbb 413d 2a9b ca3d
00000280: a6f3 1fbe 46fe 4a3e 33f0 8fbe 66fb 08be
00000290: d2d9 1f3d e80b f83d 0f9e 643e 41bc 943e
000002a0: 0a38 5bbc 8cb7 b3be eae0 eb3e 9774 9e3e
000002b0: e3ed 54be 2663 ef3d 61ac 6abe 625c 84be
000002c0: 5a7e 063e 76e5 ae3d cb33 8ebe da35 423e
000002d0: 476e 003d 8c7e 453c ff19 aebe cb54 2b3e
000002e0: 409f d4bd 7971 1ebe d2a1 1c3e 1cc5 2bbe
000002f0: c9c1 403e 8f9c c03e 2104 a63d 2dba 503e
00000300: 1aba 003e 7a6c e23a 68d8 e13d 9076 023e
00000310: 8cb4 443e a07b d33d 97f5 50bd 2e51 36be
00000320: b9d2 cabd 19d5 3d3e 1325 093c 55b5 f23d
00000330: 5588 7fbe 9202 c0bd d55a 19be 30d2 593e
00000340: dc38 ccbd 60b5 9e3e 21ae 99be 005c c4bd
00000350: 56e4 253e 5bfc c6bd aef5 1dbd bbbe 31be
00000360: 17b4 1bbe 0c49 2dbe 3a14 c5bd 1536 b03d
00000370: 5abb af3b 6a95 f83d 635b c33d 8818 423d
00000380: 064d 793c 92f6 0b3e efb3 0dbd 5706 fe3c
00000390: 9ee6 58be 4579 f43d 8e6c c23e e48f d83d
000003a0: c305 01be 6958 263d 0233 893d 4677 d6bd
000003b0: 3df3 87be 1f86 693d 80b4 8abe b86d 4c3d
000003c0: 6093 cebc cae9 d53e 118e e7bd 932f f33d
000003d0: 0ded fc3e ff3b e8bd 83fa 053d ed89 cb3e
000003e0: 9073 c3bc 78ec 223e 8fbb 8c3e 4f9a 33be
000003f0: 517d 603e 57bb 44bd 3569 bdbb c691 fa3c

gru.bias_ih_l2 f4 [96]
-0.16019012 -0.38699338 -0.21127568 -0.16347454 -0.1337822 -0.039640736 -0.08762584 0.05528429
-0.2911412 -0.004567016 0.16200869 -0.23063943 -0.38558033 -0.12471488 -0.058577098 0.036201563
-0.024514882 0.007686492 -0.26180694 -0.05184971 0.011557437 -0.046523444 -0.2109318 -0.045768
0.08377205 0.03633446 -0.012088923 -0.18223375 0.022432553 -0.2740039 -0.22084735 -0.17656507
-0.0168214 -0.028714295 -0.4095256 -0.23519154 -0.23370926 -0.48650065 -0.20791093 -0.12482485
-0.19578075 0.02211311 0.04056494 -0.08706442 -0.21397464 -0.1277705 -0.38494486 -0.022836268
-0.20875202 -0.1739117 -0.047640756 -0.0830252 -0.09822511 -0.017155763 -0.29620838 -0.16762638
0.0012542385 0.06222647 -0.19535883 -0.12923242 -0.10100761 0.21453519 -0.3498615 0.04451126
0.08178249 0.07870918 0.12767065 0.106366575 0.16920242 -0.10389511 0.015570591 -0.08957986
-0.058729857 0.0019718464 -0.026445065 -0.06388798 0.04867125 0.062850334 0.07362711 0.023560949
0.15847296 -0.11059901 0.07990754 -0.09794216 0.028080236 0.047864962 0.009805419 0.09766872
-0.0074388576 -0.04510662 -0.18866572 0.15184075 -0.06392218 0.0006348216 0.13790734 -0.067356676
00000000: e108 24be ff23 c6be a758 58be df65 27be
00000010: 33fe 08be 535e 22bd 2d75 b3bd c871 623d
00000020: 7610 95be e8a6 95bb 9be5 253e be2c 6cbe
00000030: c96a c5be 846a ffbd 8aee 6fbd 1748 143d
00000040: 6fd3 c8bc f8de fb3b 8f0b 86be 5d60 54bd
00000050: 675b 3d3c 5e8f 3ebd 81fe 57be 3a77 3bbd
00000060: ae90 ab3d 71d3 143d 9e10 46bc 7c9b 3abe
00000070: 79c4 b73c 3d4a 8cbe cf25 62be 79cd 34be
00000080: 08cd 89bc 3e3a ebbc 57ad d1be 0dd6 70be
00000090: 7b51 6fbe 9d16 f9be 9ae6 54be 2ca4 ffbd
000000a0: c07a 48be 8e26 b53c 6c27 263d d54e b2bd
000000b0: 2b1c 5bbe 45d6 02be 7e17 c5be 2013 bbbc
000000c0: 17c3 55be e915 32be f422 43bd 1e09 aabd
000000d0: 3f2a c9bd 3e8a 8cbc a0a8 97be 40a6 2bbe
000000e0: 4365 a43a 2fe1 7e3d 250c 48be 8155 04be
000000f0: 14dd cebd 1daf 5b3e 0c21 b3be 7051 363d
00000100: 947d a73d 4732 a13d 18bc 023e b8d6 d93d
00000110: 6643 2d3e f6c6 d4bd cb1b 7f3c a575 b7bd
00000120: b88e 70bd 183a 013b 52a3 d8bc b4d7 82bd
00000130: 815b 473d adb7 803d cfc9 963d e402 c13c
00000140: bc46 223e bc81 e2bd 90a6 a33d e695 c8bd
00000150: 8608 e63c 0d0e 443d e8a6 203c 8a06 c83d
00000160: a9c1 f3bb b8c1 38bd 9631 41be 247c 1b3e
00000170: a2e9 82bd 286a 263a 9537 0d3e 4cf2 89bd
