machine_learning/models/model.pth (torch, 222835 bytes, 22 tensors)

weight_ih_l0 f4 [64, 128]
00000000: 63ed 09be 247e b5bd b9e6 0f3e 772f 043e
00000010: aa54 823e af9e 933e f0be 223e ba83 113e
00000020: d1a3 9a3d 93cf 4b3d ce23 a63e 258c e6bd
00000030: c55f 3b3e 63ca e83d f962 2dbe 1dc2 8b3d
00000040: 7097 cc3c bef6 953c 8aba bd3d c81b 3e3d
00000050: 9f9a bdbc ccbc d5bd 4897 393e c04b 783d
00000060: 3eec 3a3d 16eb 0b3e 8ff6 a5bb 91d3 51be
00000070: ccad 253e 1490 363e a0bd 4b3e 1a9e ee3b
00000080: 5f7d 68be d330 70bd d76b 1a3b dca2 99be
00000090: 4094 a3bc a6f8 7abd db6e ab3d b922 243e
000000a0: 4837 afbc 192c f3bd 80f5 a33d 521a d0bd
000000b0: 0623 aa3d 319a 723e 9e8c e9bd 9572 f0bd
000000c0: 6caf 57be a38f 5abe 2a11 043d 9cae 6dbe
000000d0: fe70 2bbe 961a ecbd 8ab8 0cbe 9b24 04be
000000e0: d585 a3be 90d9 9bbe 34db 0cbd 664c 603e
000000f0: 4054 383d c58a 613c 4da3 5a3e 9831 0c3e
00000100: 82e6 1dbd d5ad 043e f86b 193e a789 2ab9
00000110: 5ce5 0cbd 463e f8bd 0902 87be f8a6 5abe
00000120: a3cd f8bc ea15 ae3d 87da e4bd aede fabc
00000130: 91df f03d 522c bcbd f1d2 4fbd 5fde 5bbe
00000140: 5c21 65be ca79 20be cc82 80be 35dc a7bd
00000150: 35b6 38bd 12c8 6cbe 1a0b 56be daba 57bd
00000160: c97f 32be 8088 68bc b98e fbbc 1748 09be
00000170: 2ea7 f6bd 578b 0ebe 4912 cf3d e344 4a3d
00000180: 38d8 22be cd3b 033c 13fc 9c3d 7623 2ebd
00000190: 8f12 f7bb d01c b23d 3deb 8abc afb0 50be
000001a0: 2f7c a3be 6b2c 9ebc cf7d 7abd 15d5 f43c
000001b0: c86d 2dbe a2c7 063e 30bf 3a3b 3a38 83bb
000001c0: 43e4 313d a982 d43d da90 a73d 95e7 7abc
000001d0: 50e8 243e e180 2b3e c3b0 b73d 4d57 b73c
000001e0: 9fcf a7bd 6fbe 793d 9523 893c f861 0e3d
000001f0: 31ca 6b3e 24cc 2c3e 5e73 fd3d 9055 50bd
00000200: d451 88bc 2930 0fbe e4a0 80bd aeaf a63c
00000210: ab8c 2dbe 4451 eb3d 8ae5 76bd 1072 3f3b
00000220: c2e0 fa3c de98 08be 4bda d8bd 3ab6 033e
00000230: dc0a 303d f6ff 2bbc f6b5 4abd 76f0 66bd
00000240: f25b cbbd cc1a 823d 6236 25be 53a7 bfbd
00000250: 3654 9e3d 1047 30be 23dc 553d 80d9 3c3c
00000260: c44b 8f3d ec4f bc3d a0ee ea3d 359a 34bd
00000270: 8283 b1bd ef10 f3bc 7b74 d53c 7238 adbd
00000280: cfd1 0c3e 3b27 efbd 7487 fa3d 46a3 193c
00000290: 64ae 65bb 9aa5 373e 7361 90b9 68a5 b13c
000002a0: 61a4 b13d 6ed4 dc3d caca 4c3c 2ca8 fcbd
000002b0: e98b dfbd 6dba 45be 6dbe 58be d39b abbd
000002c0: 97b6 b2bc ae73 0bbb 7648 303e 7b90 4a3d
000002d0: 8785 df3d 66fc ed3c a98b 883e 8491 8b3d
000002e0: f562 543d 07fb 763e db35 413e d7a5 a63d
000002f0: 66c5 a33e 9cbd 8a3d 7321 313e 4e95 263e
00000300: 1b9d 8a3d 23cc 803c a372 c43d 91db 25bd
00000310: 4cef 643d 1549 8c3d 8569 473e d3d3 873d
00000320: 0dd6 2f3e 7625 063e 827d 9d3e 7a7d 9f3e
00000330: 4bb7 1d3e c49b 813e 621e 613e 7f02 913e
00000340: 0b01 943e 13dc d93d 040d 823e 8393 903e
00000350: 8cd3 1a3e 67c6 b03d 317c 8a3d 4d36 a33d
00000360: 0760 f0bd 1411 f93d f93c 08be 46a6 09be
00000370: a046 7ebc f5b7 ab3d a91e 64bd 3bda 2abe
00000380: f877 4dbe 04df 87be 5b2c ffbd a8fd 1b3d
00000390: ce6f 953d db62 e2bd 1652 283d d6a0 963d
000003a0: ac7a 9ebd fca9 ffbc 16a2 373c d64a 2cbe
000003b0: b1c9 4bbe f093 bc3d 0994 20be 8b34 6dbe
000003c0: 61ae 19be 36a4 81be 933e 2a3d 7f45 f63c
000003d0: af00 3ebc 9ccc 4cbe d553 e3bd 45a1 cebb
000003e0: addb ab3d 9073 adbd ff62 2cbe ef41 f8bd
000003f0: 3106 fe3d f3d8 b2bd 643a cdbd 9f0a 93bd
-0.13469462 -0.0886195 0.14052857 0.12908731 0.2545522 0.28832003 0.1589315 0.14210406
0.07550777 0.049758505 0.32449192 -0.11257199 0.18298252 0.11366727 -0.16932286 0.068241335
0.024974555 0.018306132 0.09264095 0.046413213 -0.023145018 -0.10436401 0.18124115 0.060619116
0.045635454 0.13663897 -0.0050647925 -0.20490862 0.1617958 0.17828399 0.19896555 0.007282031
-0.22704075 -0.058640312 0.0023562813 -0.30007064 -0.019968152 -0.061272286 0.083707534 0.1602887
-0.021388665 -0.11873645 0.0800581 -0.1016127 0.083074614 0.23691632 -0.11403774 -0.11740605
-0.21063012 -0.21343856 0.03224293 -0.2321114 -0.16742322 -0.11528508 -0.13742271 -0.12904589
-0.31938043 -0.30439425 -0.034388736 0.21904144 0.045002222 0.013765995 0.21351357 0.13690794
-0.038549908 0.12956937 0.14982593 -0.00016263743 -0.03439842 -0.12121253 -0.2636874 -0.21352756
-0.030371493 0.085002735 -0.11174493 -0.03062376 0.11761392 -0.09188141 -0.05073828 -0.21471547
-0.22376007 -0.15671459 -0.2509979 -0.08196298 -0.04509564 -0.23123196 -0.20902672 -0.05266843
-0.17431559 -0.0141927 -0.030707704 -0.13406406 -0.12043606 -0.13920341 0.101109095 0.0493821
-0.15902793 0.008009863 0.07665267 -0.042514287 -0.007540054 0.08696902 -0.016957873 -0.203799
-0.31930682 -0.01930829 -0.061155137 0.029886762 -0.1693641 0.13162091 0.0028495304 -0.0040045055
0.043430578 0.10376484 0.08181925 -0.0153140025 0.16104245 0.16748382 0.089692615 0.022380495
-0.081938975 0.060972627 0.0167406 0.0347614 0.23026349 0.16874748 0.1237552 -0.05086285
-0.016640581 -0.13983215 -0.062806875 0.020347442 -0.16948192 0.114901096 -0.0602775 0.0029212274
0.030624751 -0.13339564 -0.10588511 0.12862483 0.042979106 -0.010498038 -0.049489938 -0.056381665
-0.099296466 0.06352767 -0.16134027 -0.093580864 0.07730906 -0.17214608 0.05221189 0.011526465
0.06996873 0.091949314 0.11471295 -0.044092376 -0.08667661 -0.02967116 0.026056519 -0.08458032
0.1375191 -0.116774045 0.12232867 0.009377306 -0.0035046572 0.17934266 -0.00027538426 0.021685317
0.08673931 0.10782705 0.012499521 -0.12336764 -0.109153576 -0.19309397 -0.21166392 -0.083793305
-0.021815581 -0.0021278667 0.17215142 0.049454194 0.1091414 0.029051017 0.26669052 0.06814864
0.051852185 0.24119197 0.188682 0.081371 0.3198654 0.06774446 0.17297916 0.16267893
0.06768247 0.01572234 0.09592178 -0.040492598 0.055892274 0.06849877 0.19473846 0.06632199
0.17171498 0.13100228 0.30759817 0.3115042 0.15401952 0.25314152 0.21984246 0.28322217
0.28907046 0.10637679 0.25400555 0.28237543 0.15119761 0.08631592 0.06761969 0.079693414
-0.11737066 0.121614605 -0.13304509 -0.13442335 -0.015519768 0.083846964 -0.055693302 -0.16684811
-0.20065296 -0.26537335 -0.12459632 0.038083702 0.07296716 -0.110540114 0.04109391 0.07354896
-0.077382416 -0.031208985 0.011208078 -0.16825423 -0.19901158 0.09207904 -0.15681471 -0.23164575
-0.15007927 -0.25320596 0.04156358 0.030062435 -0.011596843 -0.19999927 -0.11099974 -0.006305846
0.08391509 -0.084693074 -0.16834639 -0.12121951 0.12403525 -0.08732786 -0.10020903 -0.0717976

weight_hh_l0 f4 [64, 64]
00000000: 470b b1be 17f8 2e3e 78b0 963e 0589 93bc
00000010: 5cd4 cbbd 6a06 32bd 1552 bfbc 23d7 9b3c
00000020: e25d 39be 6067 29be 3c14 7cbd f702 403d
00000030: 9759 acbe f501 9dbd 3082 4dbc c300 9c3e
00000040: ca54 14be 2d5d c33e 86f3 05bd 936a 0bbe
00000050: fdec 253e de67 de3d 969e 043d e1a2 34bd
00000060: 79ce 6cbe 9d73 4dbd 4618 abbd 00da e6bd
00000070: d4f3 733e 1aef 053e acc7 363c 97c1 dd3d
00000080: 664b b9bd 46cb 11be 6b03 1dbe 3ac3 a7be
00000090: 8779 0bbb 95be 27bc 9b31 413e 9115 063e
000000a0: 5d7d 07bc d97e da3c ba6f 033e 50db 8abc
000000b0: 04d9 1f3e 9baa 43bd f0c5 75be b165 dbbd
000000c0: 9c44 0c3e 4d88 24be 52a6 a13d 1ad0 44be
000000d0: 7989 31be 4d07 e13c 6f2c febc 51ba 203e
000000e0: 12db d93d 5450 07be 3e2f 323d 5bd8 15be
000000f0: 040e cebd 00d3 9dbd a5e4 063e 5621 28be
00000100: b4b1 943e 923d 58be b85f b8b9 7cfc f23c
00000110: 08cf e2bd addd 3abe 5d12 aabd 5be1 1abe
00000120: 8bf5 fc3d 8968 263d b3d7 bebd 54aa 7bbe
00000130: 4093 463e 1008 c93d 61d0 ae3e 3366 9bbd
00000140: 9924 28bd 9f50 233e 90a4 98bd 8c8f e83d
00000150: b77d 9cbd ad1c 043b 37a6 f93d 3ca1 47be
00000160: db97 45be 84a6 c8be 2be4 62be 4103 b4bd
00000170: dd90 0abe f668 bbbd c585 983c 5390 393e
00000180: 43b1 073e 6279 523d 9b73 0bbb 1209 41bd
00000190: b47e debc fe3d 8dbd cde3 2cbd ece5 dfbd
000001a0: 92b4 1a3e 3f8e 913b f503 123d b10f 6a3e
000001b0: d85f 233e 7cde 883e 1954 7b3e dda8 973e
000001c0: 7c60 573e 3010 8b3c d7dd 8ebd 4a08 d6bd
000001d0: 9a8d 8abc 1e03 ef3d 955e 7cbd bd0b 1e3e
000001e0: 44c4 c6bd 8206 96bd bec5 7fbc d8bb a83d
000001f0: c22a 6cbe f14b 1ebe d975 0c3e 8cca a13c
00000200: ece3 84be d752 183d 0266 723e 0edb 9fbd
00000210: 268b 443e 7cf5 76bc d2da 56be f8ba d0bd
00000220: 1e27 ed3d b5a2 32be 130a 213e 3fcd 6b3e
00000230: a83c c03c 67b3 a63b fa59 b23d ff09 06be
00000240: 4c14 09be 3e20 8ebe bf69 443e ac02 b93e
00000250: 0907 85bd 525a e2bd 50d9 503e c90d b13d
00000260: 7827 6d3e 6095 8cbd 913d 6dbd d63e 3b3e
00000270: bf8e f53c bdfa fbbd c9a0 d2bc d9de ff3d
00000280: 9f0e 12be 82b4 b23d 5f58 a7be 5b21 223e
00000290: 1e26 bc3c b4ba 2d3e 4d1a 6abd 968c 903c
000002a0: cfd1 f5bd ff14 b0bd 6fe2 8abc 5f42 383d
000002b0: 57dc 92bd e88a 8cbd e89b 993d ca55 7ebd
000002c0: 80d0 16be ed93 9a3e 2cc5 dcbd 9b01 d83d
000002d0: 133d d83d d01e 573b 98c2 363e c1bd 84bd
000002e0: 48b8 32be 7ba3 a93d 59c9 073e 8583 e9bd
000002f0: 1acb 07be 65a6 db3d 6790 93bd 9f0d 213d
00000300: 1562 bd3e 04a9 ca3d 03fb bfbd 1728 8abe
00000310: 8e08 ad3d fd08 0bbe 5405 383e e4d9 4c3e
00000320: 498b 3dbe a5c6 143e 252e e63d f3a6 8e3e
00000330: 14f3 543d 605f 93bc 1b53 2cbe e257 943d
00000340: 51d0 2dbe 22d8 bd3d 3321 22be 4e35 39be
00000350: 99ab f43c c7e8 9f3c 1676 8a3c e257 9ebd
00000360: c4fc 983d 0e59 16bc 8fef 8c3d 06ef 9b3e
00000370: 9c8f f8bd 1d1f 3fbe b98d 97be 84b4 b13d
00000380: a521 943d fbd0 47be 39cc c3bd 6258 063d
00000390: 0329 d5bc 73a8 c93e 40d5 b13d a391 3cbd
000003a0: 8e12 1fbe 1834 f5bd 0bdf 89bd 8e8e c6bd
000003b0: 9d32 57bd 78ab 963d 2e74 bc3d d86d c2bd
000003c0: 83de 3abe d949 9b3d e832 663e c805 a73e
000003d0: cb24 f23d 26c7 74be 6662 2ebe f8d1 933d
000003e0: 1026 133d 08b9 99bd 52b8 3fbe bc5f 593c
000003f0: 0813 25bd 1cb8 993d acad 823d c7a3 203d
-0.34578916 0.17086826 0.2943151 -0.018009672 -0.09952614 -0.04346315 -0.02335457 0.019023484
-0.1810222 -0.1654334 -0.061542735 0.046877827 -0.33662102 -0.07666389 -0.012543246 0.3046933
-0.1448547 0.38157025 -0.032702945 -0.13614874 0.16203685 0.10859655 0.0323778 -0.044100646
-0.23125638 -0.050159086 -0.08354239 -0.11272049 0.23823482 0.13079491 0.011156004 0.1082794
-0.09047584 -0.14237699 -0.15333335 -0.32766134 -0.0021282153 -0.010238309 0.18866579 0.13094164
-0.008269635 0.026671814 0.12835589 -0.01695028 0.15610129 -0.047770124 -0.24001288 -0.107127555
0.13698047 -0.1606762 0.07893051 -0.1922001 -0.17337598 0.027469302 -0.031027047 0.15696074
0.106374875 -0.13214236 0.043502085 -0.14633314 -0.10061267 -0.07706261 0.13173158 -0.16418967
0.29041827 -0.21117237 -0.0003516653 0.02966141 -0.11074644 -0.18248625 -0.08304284 -0.15125029
0.12351521 0.040627036 -0.09318485 -0.24576694 0.19392109 0.09815991 0.34143355 -0.07587852
-0.041050527 0.15948723 -0.07453263 0.113555044 -0.07641166 0.0020158694 0.12189906 -0.194951
-0.1929621 -0.3918954 -0.22157352 -0.08789683 -0.13531823 -0.09150879 0.018618474 0.18121462
0.13251214 0.05138529 -0.0021278623 -0.04712779 -0.027160026 -0.0689659 -0.042209435 -0.10932526
0.15107945 0.004442006 0.035648305 0.22857548 0.1595453 0.26732242 0.245438 0.2962102
0.210329 0.016975492 -0.06975906 -0.104508 -0.016913224 0.116705164 -0.061613638 0.15434165
-0.097054034 -0.0732546 -0.01561111 0.08238953 -0.23063186 -0.15458657 0.1371683 0.019749902
-0.2595514 0.037188377 0.23671725 -0.07805453 0.19193706 -0.0150731765 -0.20981911 -0.101919115
0.11579727 -0.1744488 0.157265 0.23027514 0.023466423 0.0050873044 0.08708568 -0.1308975
-0.13386649 -0.27758974 0.19180964 0.3613485 -0.064954825 -0.110523835 0.20395398 0.086452074
0.23159587 -0.068644285 -0.057920042 0.18285689 0.029975293 -0.12303684 -0.025711434 0.12493677
-0.1426339 0.087258354 -0.3268461 0.15833037 0.022967394 0.16965753 -0.05715399 0.017645162
-0.120029084 -0.08597755 -0.016953675 0.04498517 -0.07170933 -0.06862432 0.0750044 -0.062093534
-0.14727974 0.30190983 -0.10779795 0.10547181 0.10558524 0.0032824762 0.17847669 -0.06481505
-0.1745311 0.082831345 0.13260402 -0.114020385 -0.13261071 0.107250966 -0.07205277 0.03931963
0.36988893 0.098955184 -0.093740486 -0.2698371 0.08448897 -0.13577648 0.17970783 0.20004994
-0.18510164 0.14528902 0.1123927 0.27861747 0.05198963 -0.017989814 -0.16828577 0.07243325
-0.16973998 0.0926974 -0.15832977 -0.1808674 0.02986698 0.019520177 0.01690201 -0.07731606
0.07470086 -0.009176506 0.0688163 0.30455798 -0.12136766 -0.18664213 -0.29600313 0.08677009
0.0723298 -0.19513313 -0.09560437 0.032799132 -0.026020532 0.3938633 0.08683252 -0.046037327
-0.15534422 -0.11972827 -0.06731995 -0.09695159 -0.052538503 0.07356924 0.09201847 -0.09493607
-0.18248944 0.07582445 0.22480357 0.32621598 0.11823424 -0.23904094 -0.17029724 0.07217783
0.03592497 -0.07505995 -0.18722656 0.013267454 -0.040301353 0.07505819 0.063807815 0.03921869

bias_ih_l0 f4 [64]
00000000: 3133 603e c225 0abe cdf9 d73c 6d95 c53d
00000010: 5058 9cbb 755b 2fbe 0c87 143d 31dc 823e
00000020: ff98 17be 1216 2a3e c695 163e b3d1 dfbd
00000030: d4dd 343e 04fc bcbc 6f01 8c3e 14f9 203d
00000040: f526 6ebd b6dd a2bd b8df 083c 448d 88bd
00000050: 732e 11bd 9ee8 143e e43f 1fbe b0fd 3b3c
00000060: 4c4c d5bd 5257 963c 34bb 453c 642b 3c3d
00000070: e2e3 2d3e 0577 c23d e6d6 8f3d e684 44be
00000080: 88f6 5e3c 5398 27bd 942d a93d 0bc1 b3bd
00000090: 9991 17be be10 163e 5196 16be 38e3 e23d
000000a0: 7f9a 75be 2256 c8bd 3cae 413d ef3e b83c
000000b0: 115d 033d d4c5 f9bd c54f ccbd 7bd3 f23c
000000c0: ffc3 2bbb 1529 853d 093e b4bc 667e 4e3c
000000d0: 9c8f ee3d 7743 b5bd 52cd 413d 5c58 263e
000000e0: 1dee 8e3e 6361 1ebc 0e48 603d 74bf 47be
000000f0: 96c7 5abd b7cf 4c3d a936 3fbe eb4b 3fbe
0.21894528 -0.13490966 0.026364231 0.09647641 -0.00477127 -0.17124732 0.036261603 0.25558618
-0.14804457 0.16609982 0.14705572 -0.10928669 0.17662746 -0.02306939 0.27344844 0.03930004
-0.05814262 -0.07952444 0.00835412 -0.06667569 -0.035444688 0.14541861 -0.15551716 0.011474058
-0.10414943 0.018352184 0.0120685585 0.045939818 0.16981462 0.094953574 0.070234105 -0.19191322
0.013608582 -0.040916752 0.082606465 -0.087770544 -0.14801635 0.14654824 -0.14705779 0.11078495
-0.23984717 -0.097820535 0.047285303 0.022490947 0.032071177 -0.12195936 -0.09976152 0.029641857
-0.0026209352 0.065019764 -0.022002237 0.012603378 0.11648485 -0.088507585 0.04731495 0.16244644
0.2791604 -0.0096667735 0.054756217 -0.19506627 -0.053412996 0.05000278 -0.18673195 -0.18681304

bias_hh_l0 f4 [64]
00000000: 4732 2f3e 59b2 9abd d701 ff3d 56dc fc3d
00000010: 5476 f43c 0501 c9bd b425 1a3d 130a b13d
00000020: 22d5 6e3c 3926 4a3e 0031 773e 2ecb e6bd
00000030: 452c a13e 6f74 a8bd bb61 053e 7676 363d
00000040: 37a6 20be 55cb f73c 60a3 fc3d 2c4a c4bc
00000050: d281 033d 77ca 8ebc c373 8abd 3403 923c
00000060: 63e0 23be c6b3 6d3d f0cb c0bd 489a 233d
00000070: 84b4 c73d 2e9f bb3c 5261 fe3c 34f8 9abd
00000080: 4956 273e 164d 9fbd 63f4 f23d 73bf 593d
00000090: a43c 1dbe a86b f33d cf62 36bd 4d91 9d3d
000000a0: d8bf 69be 844f a23a a3b0 ccbc 3dfa a03c
000000b0: e15c f9bb 0deb a5be 0c28 3fbd 7f7c acbd
000000c0: d77a aabd c6d8 853d 0d33 9fbd 9a4e c2bc
000000d0: 9549 e13d 01b2 b13c 9d73 bdbd 078d 44bb
000000e0: c7a6 803e 7403 68bd 894c a9bd 2aa7 89bd
000000f0: a013 073d c489 b73d 48c1 c2bd fd5a fbbd
0.17109023 -0.07553548 0.12451523 0.12346713 0.02984158 -0.098146476 0.037633613 0.086445
0.014577182 0.19741143 0.24139786 -0.11269222 0.31479087 -0.08225333 0.13025562 0.044546567
-0.15688406 0.030248323 0.12335849 -0.02396115 0.03210623 -0.017430527 -0.06760361 0.017823793
-0.16003565 0.058032773 -0.09413898 0.039942056 0.097512275 0.022903051 0.031052265 -0.07566872
0.16341509 -0.07778375 0.11863019 0.053161096 -0.15355164 0.11885768 -0.044527825 0.076937295
-0.22827089 0.0012383317 -0.02498657 0.019650573 -0.007609949 -0.32405892 -0.04666905 -0.08422183
-0.08324211 0.06535487 -0.07773409 -0.02371912 0.11000363 0.021691324 -0.09250567 -0.0029991285
0.2512724 -0.05664392 -0.08266551 -0.06721337 0.0329777 0.089618236 -0.09509522 -0.12273214

weight_ih_l1 f4 [64, 64]
00000000: 3623 2b3a 8f37 d5bc e488 ca3c 28aa 35be
00000010: 89aa a2bd 063a 4c3e f5cd b1bb 3f7a aebd
00000020: 3517 b1bc 49c2 40bc 060b 2fbd b6d6 603e
00000030: 0775 2abe 4e64 48bc 42fe 36be 28ed 89bc
00000040: 42ba 7abb 66f2 493c b4b3 4d3d 58c6 97bd
00000050: 053e 92bb 2247 0a3b 00f3 8c3d c97e 01be
00000060: 45e3 cd3d d16e ad3d ae58 5b3e 9875 e23d
00000070: b42d 8dbe 975b 8ebd c8de 8abd e6d7 413d
00000080: 4139 49bd 32bd 7a3d 99b4 59bc a5dd f3bd
00000090: 8fb1 ac3c f6db 1d3c e2da 013d e7b3 33bb
000000a0: 1215 103d 11a1 acbc 8ac5 35bc 750a 023d
000000b0: 8fba 633d b525 443e 03b7 ba3d ab47 2e3d
000000c0: b693 2a3e 8bb0 19be 3923 d43d 5f7d aa3c
000000d0: 1102 3dbd 0e0f ce3c 2237 d2bc ba9d 2f3d
000000e0: ab8a c63c 37ea 09bc 6725 03bd 4209 62bd
000000f0: cfcf 3cbc 28ae 34be b8b8 9c3d a34e 0dbe
00000100: 2ba4 aabc 5ad3 823c df7e 2abd 6816 653c
00000110: 1f49 43bd d22d 503d 6f9a 31bd 9c8a 74bd
00000120: b4cd 9e3b 64d4 9abd dee6 bb3c 7e4b 07bc
00000130: 05a2 e2bc 029b 1d3d dd8f 32bd e066 33bc
00000140: efa3 463c 5c43 573c eaa9 27bc b133 e9bc
00000150: d4a6 203c 569a eebc f865 05bd 01ef df3c
00000160: 9353 35bd ea21 32bd b305 3e3c 39b6 033c
00000170: 9c30 52bd 8dc4 74bb bc70 7abd 980d 3bbc
00000180: 7551 c8bb ac89 fdba da7c 94bc 294c 413a
00000190: 1665 5dbd 37f9 373b 37e8 073c f4b3 25bc
000001a0: 3fc2 e93c d402 6ab7 43c0 bfbb dbcf 05bc
000001b0: 3821 3fbc be10 66bc 2d1f 99bd 653d c0bc
000001c0: 9a3b 5f3a 5614 643d 5950 df3c 6306 393d
000001d0: 358b f2bb eba5 773d c566 06bd 4b9e 99bc
000001e0: 7a37 583b 6a5e c4bc 0f77 333d d3ca b73b
000001f0: 6a66 e53c d72a 38bd ae44 e43c 2f0a 71bd
00000200: fb4c 33bd 878e 3c3d 168f 5bbc aca8 26bd
00000210: 3aeb 8ebd b8c6 d73c 123b d6bd 625b 85bd
00000220: 961f 873d 94bc 8dbb 4b0e 9bbe 5f12 15bd
00000230: fe5f cebd 67d8 a9bb 3591 98be 3416 163c
00000240: 1ceb 12bc 0104 d6bc aad5 01bb fe9f c5bb
00000250: 5377 ab3d f385 893b 6116 64b9 04a2 013e
00000260: 42cb 193d 04d5 31be 3351 13bc 11e9 a9bd
00000270: 599d 353d c306 4abd a3e5 923b 279b a63b
00000280: 1f39 1c3d bce3 243e 47b9 4c3d 9591 d63d
00000290: 46fd 48bd 2acd a1bd 5238 75bd 0654 2bbe
000002a0: 7c12 873e 955f 223b b57c bc3b 1589 0cbe
000002b0: 21e6 0ebb 13db 413e bdcd 4cbd c67d 813d
000002c0: ed40 0c3d a0d8 eabd 70f9 9e3d 5b74 ac3c
000002d0: 26b7 75bc 7ead 133e 4215 af3c 898d dabd
000002e0: e44e 6dbe de70 913b 4830 b23d 3cf4 1d3c
000002f0: d070 9b3c 48d3 ffbd 4c0c 6d3e 525a 8f3d
00000300: 6d5b 863e 9919 7abd 728b 8eba 4ba2 10bd
00000310: 0451 d2bc ebe6 893d 28d0 853d 393f 033d
00000320: 3f4f 97bc 5c05 d53d 96c6 bb3d cf0e e4bd
00000330: 9e9b 903d 5af4 1abe 27d4 bb3d 7e50 f8bc
00000340: 16fc 96bd 526e 8a3b e90c 4fbd 4b30 c13a
00000350: afb6 95bd 74d8 303d b987 f33d bf17 913d
00000360: 7174 babc 8db7 ac3b 342d ec3b b720 9abd
00000370: 70b3 583d 267a 15be 3cb0 213e 1172 013e
00000380: 9713 85bd b531 dc3d 6ae2 063e 57b2 d93d
00000390: 7def afbc 698e f4bd 940a 1bbd af90 2f3d
000003a0: daec 6bbd 3e8f 07be 3031 e1bc 2452 65ba
000003b0: 1c9b 3e3e fe30 3bbe b7e5 7d3c 41cd 90bd
000003c0: 0d68 b739 47d9 a93b c6ac 113d 9b26 4fbd
000003d0: ea9d d2bd 6a21 083e 83fb 813d 1a5b 8ebb
000003e0: ec27 843d 8cdc 2e3e ac6d be3e ba47 8ebe
000003f0: bb34 d2bc 3c4c 77bd 2fcf 953d e549 cb3d
0.0006528379 -0.026027469 0.024723478 -0.1774069 -0.07942683 0.19944009 -0.0054261633 -0.0851941
-0.021617511 -0.011765071 -0.042735122 0.21956906 -0.16646205 -0.012230946 -0.17870429 -0.016836718
-0.003825799 0.012325859 0.050220206 -0.07410878 -0.0044629597 0.0021099527 0.06882286 -0.12646021
0.10053114 0.08468402 0.21420547 0.110575855 -0.2757393 -0.06951063 -0.067807734 0.047325037
-0.049126867 0.061215587 -0.013287687 -0.1190751 0.02108076 0.009634962 0.031702884 -0.0027420463
0.035176344 -0.021072896 -0.01109446 0.031748254 0.055597838 0.19155009 0.09116938 0.042548817
0.1665791 -0.15008752 0.10358281 0.020811735 -0.04614455 0.025153663 -0.025661055 0.04287503
0.024236044 -0.008417658 -0.03201809 -0.05518461 -0.011524155 -0.1764456 0.0765242 -0.13799529
-0.020830235 0.01596992 -0.0416249 0.013982393 -0.047677156 0.050824948 -0.04336017 -0.0597025
0.004846299 -0.075600415 0.022937234 -0.008257745 -0.027665148 0.038477905 -0.04359423 -0.01094982
0.012124046 0.013138618 -0.010233382 -0.028467031 0.0098054 -0.029126327 -0.032567948 0.027335646
-0.044269156 -0.043489374 0.0115980385 0.008039051 -0.05131589 -0.0037348599 -0.061142668 -0.011416815
-0.006113226 -0.0019343398 -0.01812594 0.00073737145 -0.05405148 0.0028072128 0.00829511 -0.010113705
0.028535007 -1.3948145e-05 -0.005851777 -0.008167232 -0.011665635 -0.014042078 -0.074766494 -0.023466775
0.0008515656 0.055683456 0.027259992 0.045172106 -0.0074018487 0.060460966 -0.032812852 -0.018752238
0.003299205 -0.023970801 0.043814715 0.0056088953 0.028002936 -0.04496273 0.02786478 -0.058847602
-0.043774586 0.046034362 -0.013400814 -0.0406882 -0.0697846 0.026339874 -0.104604855 -0.065115705
0.065978214 -0.004325459 -0.30284342 -0.036394473 -0.10076903 -0.005183268 -0.29798284 0.009160567
-0.008967187 -0.026124956 -0.0019811192 -0.0060310354 0.08372369 0.004196876 -0.00021752111 0.1265946
0.037547357 -0.17366415 -0.008991527 -0.08296407 0.04433951 -0.049322855 0.0044829412 0.0050844136
0.038140412 0.16102499 0.04998138 0.10476986 -0.049069665 -0.0790046 -0.059868164 -0.16731271
0.2638129 0.002477621 0.005752171 -0.13724168 -0.0021804648 0.18931226 -0.050000895 0.063228175
0.034241606 -0.11467099 0.0776242 0.021051576 -0.014997279 0.14421651 0.021372441 -0.10671527
-0.23174626 0.0044385036 0.08700615 0.00964075 0.018974692 -0.124914706 0.23149222 0.06999649
0.26241627 -0.061059568 -0.0010875298 -0.035311025 -0.025673397 0.06733497 0.06533843 0.032042716
-0.018470405 0.10401413 0.09168737 -0.11135637 0.070609316 -0.15132275 0.09171324 -0.03031182
-0.073723 0.004224577 -0.05054942 0.0014739124 -0.07310235 0.043175176 0.118911214 0.07084607
-0.022760602 0.0052709044 0.007207537 -0.07525771 0.0529055 -0.14597377 0.15789884 0.12641169
-0.06497877 0.10751668 0.13172308 0.10629719 -0.021476502 -0.11941225 -0.037851885 0.04286259
-0.057598926 -0.13238236 -0.027489275 -0.00087478966 0.18613857 -0.18280408 0.015496663 -0.07070399
0.00034982004 0.005183372 0.03556516 -0.050573926 -0.10284026 0.13293996 0.063468 -0.0043443562
0.06452927 0.1707632 0.37193048 -0.27789098 -0.02565991 -0.060375437 0.07314908 0.09926204

weight_hh_l1 f4 [64, 64]
00000000: 5635 943e 0d15 943d 8f56 eebd ab55 82be
00000010: 8ec0 b8be f022 84be e316 cd3d 6c8c 69bd
00000020: 8cad 14be cddf c63d 6dc4 2cbd 031f 803e
00000030: bf0c 263e 9060 8bbd a9a2 c6be 28c5 853d
00000040: 3e4a b8bd 18bf 793e b885 00be cfb6 b0bd
00000050: d070 803e b5bf 823c efc4 b7bb 954a 123d
00000060: d90f 89bc 2bd6 93bd a46a b9bc 9f90 b83d
00000070: 7ec0 063e b82f 003d ad0b a3bc 2c03 62be
00000080: 12ac 82bd 2c30 88be 1325 11be 1025 b13d
00000090: 4c85 ee3d 92f6 19be 9189 983d 6e7a 0dbc
000000a0: 868a a6be 3eb3 8c3e 64db 1f3e 6f21 ee3d
000000b0: be4e c0be 2640 2f3e 8a19 4c3e f876 d23c
000000c0: 8618 3abe 3f17 643c 8bb2 0c3e c58d 033d
000000d0: 034f c2bd b049 023e 53cc f9bd fea2 3d3e
000000e0: 4199 523c ab34 2fbc 2ee9 05be d4ad adbd
000000f0: 25b5 85bd 88fb 13be 993c 473d c115 01bc
00000100: b86a 67bc e329 6e3e d68e 893c b175 8dbc
00000110: 842a 4bbe 6d2a e2bd 228e 56bd 993e b93e
00000120: 577a c6bc 9ced e4bd 0d86 81be ef51 4abe
00000130: c715 933e 2db7 643c 6c70 e73d 239c d3bd
00000140: f499 563e 1d86 4bbe a55b 28bd 6c7f 33be
00000150: 3acb 48bd d7f8 4c3d 2892 863d 7963 43be
00000160: 2315 e3bc 01a5 5dbe ecae 77bd ed51 7d3e
00000170: 7dc3 43bb 386b 80bd 09b7 11be 7b87 8dbe
00000180: d411 083d 9e93 af3c a901 88bd 6f4b c03c
00000190: d71b 49be e5f5 be3d 2cf0 e5bd 010d 9a3d
000001a0: e122 cabb 5c53 e8bd 5999 debd c5b8 0ebc
000001b0: 04cd e6bd 1e84 e63d 3f3d 863e 5929 473e
000001c0: 7022 adbe 4b02 723e 78de babe 9735 63be
000001d0: a707 85bc c5cd 3a3c 8d06 96be 6e65 313d
000001e0: 3b2e 713d 86c6 be3e b929 02be a158 e93d
000001f0: e419 0cbc 4063 2cbd 87c8 82be 20be 35be
00000200: 380f d43d 3a1e 913e f467 943e a244 97be
00000210: fe78 1fbe 15d6 4a3e 6c70 6c3e 8ef7 cfbe
00000220: 9ba8 a93d b0d6 5a3e 4532 a33d e1c9 42be
00000230: 017a 1fbe 74a4 0abd 1f72 3bbe f643 5a3e
00000240: a258 80be f2b4 13be c61e 3e3d b3df 993e
00000250: 8566 f0bd d3b3 063e 2c65 97bd ec6b 87be
00000260: f355 423e 3c02 963d a1b2 f63d 0384 4dbe
00000270: b626 41bc 90b2 843d cb24 9abd ee82 943d
00000280: d129 1e3e 9b98 e53d 5db6 953e c194 0e3e
00000290: 4892 b1bd 9050 dd3c 8f58 b2bd fd7c 0dbd
000002a0: f973 f2bd 6fc1 88bd d1f1 85be c147 733a
000002b0: b95c f73d bc1a 2cbe 35c0 4ebe 7893 c4bd
000002c0: fc70 de3c 27ca 3ebd 1eb9 263e ffb2 1f3e
000002d0: a4a4 b13d 649e 98be 07dc 29be 2da5 993e
000002e0: 4a98 c93c 208d 1abe bc00 403d 83ee 07be
000002f0: 2699 e4bc bc6b 75be fb96 993d 788a c8bd
00000300: 4437 a7be 1b1f 383d e4ff 16be b82c 9abd
00000310: edd0 0bbe 82de 9abd 5ea4 453e 7179 39be
00000320: 9786 683e 8599 9b3e c7d4 e83c 1e15 a13d
00000330: 3f9e c4be b6a8 9abd 74bb 0cbf c5ed a2bd
00000340: f49c 2dbd bcf8 053e d985 2ebd 3d1e 0ebe
00000350: d18a 54bb 47d4 ef3d ba95 bc3c 1495 a53e
00000360: 496d 463e 8ada a6bd 4927 0ebe 547b 2ebe
00000370: 96a6 5f3d 08e0 673c 7eed 2d3e 2254 a03e
00000380: 7368 05be d52c 10be 2044 a1bc 5c6c 8f3d
00000390: e0cb 403c d1e2 dc3d 1d4a 333d 9ce7 ab3e
000003a0: 52da 2e3d f400 febd 0ffa 3a3e 2051 bebd
000003b0: a623 453c cbc6 bfbd 65ea 52be e338 6dbd
000003c0: 7805 ae3d 9093 b83c 37dd 673e acb6 dc3d
000003d0: 9f32 07be decf 6abd 3b79 573d b3d4 11bd
000003e0: b70e 0dbd 3615 edbe 7b8c 013e bbdc 3f3e
000003f0: b5e9 683e 0929 ef3c f377 d53e 97e9 4f3e
0.28946942 0.072305776 -0.116376035 -0.25455984 -0.36084408 -0.25807905 0.10014131 -0.057018682
-0.14519328 0.09710655 -0.042179514 0.2502366 0.162158 -0.06805527 -0.38795975 0.06531745
-0.089985356 0.24389303 -0.1255101 -0.08628618 0.2508607 0.015960554 -0.005608193 0.03571566
-0.01673119 -0.07218584 -0.022633858 0.09011959 0.13159367 0.03129551 -0.019903028 -0.22071522
-0.06380476 -0.26599252 -0.14174299 0.08649647 0.11646518 -0.15035465 0.07448114 -0.008635147
-0.3252756 0.274805 0.15611035 0.11627471 -0.37560076 0.17114314 0.19931617 0.025691494
-0.18173417 0.013921558 0.13739984 0.032117624 -0.094877265 0.12723422 -0.12197175 0.18519208
0.012853921 -0.010693709 -0.13077232 -0.08480421 -0.06528691 -0.1445142 0.048641775 -0.007878722
-0.014124565 0.23258166 0.016791742 -0.017268034 -0.19840437 -0.11043248 -0.052381642 0.3618057
-0.024228258 -0.11178133 -0.25297585 -0.19757818 0.28727552 0.013959688 0.1130074 -0.10332515
0.20957166 -0.19875379 -0.041103024 -0.17529076 -0.049021937 0.050042 0.06570846 -0.19080915
-0.02772004 -0.21644975 -0.060469553 0.24738283 -0.0029871159 -0.0627045 -0.14229979 -0.27642426
0.033220127 0.021432694 -0.06640942 0.02347347 -0.19639526 0.093242444 -0.1122745 0.075220115
-0.0061687087 -0.113440245 -0.108690925 -0.008711045 -0.112695724 0.11255668 0.26218602 0.19449367
-0.33815336 0.23633687 -0.36497855 -0.22188412 -0.016239 0.011401598 -0.29301873 0.04330962
0.05888198 0.37260836 -0.12711228 0.11393858 -0.008551095 -0.04208684 -0.25543615 -0.17748308
0.10354465 0.28343374 0.2898556 -0.2954455 -0.15573499 0.19808228 0.2308976 -0.40618557
0.08284112 0.2137096 0.079685725 -0.19022323 -0.15573885 -0.03384824 -0.18305252 0.21314988
-0.2506762 -0.14424494 0.046416067 0.3005348 -0.11738304 0.13154535 -0.07392344 -0.26449525
0.189781 0.07324645 0.120457895 -0.2006989 -0.011789015 0.064793706 -0.07526549 0.07251535
0.15445639 0.11210748 0.29240695 0.13923933 -0.08670479 0.027015954 -0.087082975 -0.034543026
-0.11838526 -0.066775195 -0.26161054 0.00092804065 0.12078232 -0.16807073 -0.20190509 -0.0959844
0.027153485 -0.046579506 0.16281554 0.15595625 0.08673981 -0.29808342 -0.1658784 0.30008832
0.02460875 -0.15092897 0.0468757 -0.13274579 -0.027905058 -0.23966879 0.074995 -0.09792036
-0.32659352 0.04495154 -0.14746052 -0.07528061 -0.13653918 -0.07561971 0.19300982 -0.18112732
0.22707592 0.30390564 0.028421773 0.07865356 -0.38401982 -0.0755171 -0.5497353 -0.07955507
-0.04238601 0.13083166 -0.042608116 -0.13878722 -0.0032431374 0.117104106 0.023020614 0.323403
0.19377626 -0.08147152 -0.13882174 -0.17039233 0.054602228 0.014152534 0.16985127 0.31314188
-0.13028125 -0.14079602 -0.019685805 0.0700309 0.011767358 0.10785449 0.04377185 0.3357514
0.042688675 -0.124025255 0.18259452 -0.09292817 0.012032425 -0.093640886 -0.20597227 -0.05791558
0.08497137 0.0225313 0.2264298 0.107770294 -0.13202904 -0.057327144 0.05260585 -0.035603236
-0.03443786 -0.46305245 0.12651245 0.18736546 0.22745402 0.029194372 0.41693076 0.20303951

bias_ih_l1 f4 [64]
00000000: 575e 1a3e 03a9 48bd b53f 0d3e 0c98 533e
00000010: 3dea a13d e5f3 7639 018d fd3b cf52 ff3d
00000020: bf73 26bd f693 ba3d b0dc 27be b7cf 843c
00000030: b8ee a7bd 9270 92bd 58e5 833d c877 dcbd
00000040: da20 a8bd a3ab d23c 52a7 9d3c 93f6 b9bc
00000050: f350 67be 6490 03bd b74a 633e 270e 7c3c
00000060: c0c8 22be 310e 5bbe 913a b1bd bfd2 e9bd
00000070: 017a 49be 97fb 48bd 4baf 1c3e 8fc1 493e
00000080: 78a5 453e eedc 15be dbb3 80bd a5fc 1b3c
00000090: 2b28 c43d b7d6 053e f032 85bd a884 05bb
000000a0: 3ceb 46be a516 7dbd b141 cd3d cec3 8fbc
000000b0: a047 a93d 5821 3ebe 784b e93d 5b96 0dbe
000000c0: e221 ff3d 63b1 353c 4587 a7bd 7d51 093d
000000d0: 33d3 12bd 73b3 efbd 0008 d9bc 1ea6 f13d
000000e0: b5ec 6fbd aa71 12bd 523a 193d ec4c 8a3e
000000f0: f804 713e 6cb4 1f3e bb85 d6bd 0987 7b3d
0.1507505 -0.048989307 0.13793834 0.2066347 0.079060055 0.00023551246 0.0077377562 0.12466966
-0.040637728 0.091102526 -0.1639278 0.016212327 -0.08199829 -0.07150377 0.06440228 -0.10765034
-0.08209391 0.025716608 0.019244824 -0.022700584 -0.22589473 -0.032120124 0.2219647 0.015384234
-0.15896893 -0.21392132 -0.08653749 -0.1141715 -0.19675447 -0.04906806 0.15301244 0.19702743
0.19301403 -0.14635059 -0.06284305 0.009520684 0.09577974 0.13070188 -0.06503856 -0.0020373259
-0.19425672 -0.061789174 0.10022295 -0.017549422 0.082656145 -0.18567407 0.11391348 -0.13826887
0.124576345 0.011089656 -0.081800975 0.03352498 -0.035845947 -0.11704149 -0.026493073 0.117992625
-0.05857535 -0.03575293 0.037409134 0.27011812 0.23537052 0.15596169 -0.10474726 0.061408076

bias_hh_l1 f4 [64]
00000000: 1941 f93d 0c3c e4bd 23e6 043d 669e 2e3e
00000010: a2a6 a93c 3b92 393d d5af b5bd 6508 11bd
00000020: 9ba5 813c dbb7 e53d 425b 2abe 30e1 febd
00000030: 178c 53bc 9437 c63d 6698 853e be15 ecbd
00000040: a0ab 98be 860f e83d 411a ce3d 5cd7 85bc
00000050: fd14 fcbd 7726 5dbd acb9 653e ebd9 05be
00000060: 219e a2bd 76e9 56be 91a6 55be 077a 683d
00000070: ff0e f9bd e643 5f3c d68e 54bc 174a a1bc
00000080: f51d cc3d 9c60 11bc b60b 8bbd 8342 5fbb
00000090: 0aa3 253e 04cf e43d 3d49 e23a a0b7 4d3e
000000a0: 3d1d a7be 863b ed3d 2ea1 eb3d 37bf 39bd
000000b0: 74ff bc3d 2933 e0bd b567 70bd 5a49 563d
000000c0: 72b0 083e b78d a0bd 7910 aabd b907 513d
000000d0: efd6 3bbd 9b75 44bd 6166 983d 7e56 483e
000000e0: 656f debd e973 963a be00 8dbd 2433 893e
000000f0: c995 7f3e 8c12 2f3e daca ce3c d3da 4abd
0.121706195 -0.111442655 0.032446038 0.17052612 0.02070934 0.045305472 -0.08871428 -0.035408396
0.015826037 0.11216708 -0.16636375 -0.12445295 -0.012911818 0.096785694 0.26092833 -0.115275845
-0.2981844 0.11331086 0.10063601 -0.016338043 -0.12308691 -0.05399176 0.2243411 -0.1307141
-0.07940317 -0.20987496 -0.20864321 0.056757 -0.121610634 0.013627028 -0.012973508 -0.01968865
0.09966651 -0.008873131 -0.06789343 -0.0034066744 0.16175476 0.111722976 0.0017264258 0.20089579
-0.32639495 0.11583619 0.11505352 -0.045348372 0.09228411 -0.10947258 -0.058692653 0.052316047
0.13348559 -0.0783953 -0.08303923 0.051032756 -0.045859274 -0.04796372 0.07441402 0.19564244
-0.108610906 0.0011478636 -0.06884907 0.2679683 0.24959482 0.17096919 0.025243212 -0.049525093

weight_ih_l2 f4 [64, 64]
00000000: 4499 b73d 9c33 5d3d 1075 d73d d53c 4abc
00000010: 66db 3a3d 999f 9abd 7e0d f33c 999c 743d
00000020: bac0 433c 02b3 a3bc 7ec4 25bd f2f6 1f3c
00000030: 227d da3d 7b01 6dbc b2f5 79bd 3f5d 863d
00000040: 7111 31bd 5921 1e3a 2c73 9dbd ba12 e73b
00000050: 3011 2c3d 5f00 2f3c e1aa 023d 63bd 6d3d
00000060: f421 9bbc 0f3a 9c3c f1e5 ef3c 3933 323d
00000070: b94d 303b aded a9bc a97e 293c 79a8 91bd
00000080: d702 a43c 73cf 773a 282f bb3d 78e8 e23d
00000090: dfa2 403c d2b6 08bd f9ab 88bd 93f4 683d
000000a0: 1714 05bd d179 6ebd ace1 083d a228 e73d
000000b0: 6fb7 983c 6d41 a2bc 7bf1 933d e21f 3fbc
000000c0: 5dcb b73d 653b eb3d cf98 6d3d 102d febd
000000d0: 353b 65bb 049b 903d f605 55bd 21bc 2f3d
000000e0: ed35 14bd fbbb 813d f5da 6c3d 7c73 3ebc
000000f0: e21c 71bc ac99 4abc 95dc 81bd 83c0 dfbd
00000100: 1f94 a93a ee0c 16be 9595 4a3a 931e 343b
00000110: 9623 a3bb 5f37 813c ceea 2f3a 4c99 08bd
00000120: 79ba 8a3b 03ca 523c 982b 7b3c 88cf 5a3c
00000130: 496d 693d f2ee bd3c a14d 5abd 39d0 c43c
00000140: b807 40ba 7954 e0bc 3f12 aabb db8d 7a3c
00000150: e45e 95bc 8c30 1ebc 2cb7 e5bc ff0a 223d
00000160: 4954 6abd cdf4 443c 9bd3 17bd 8343 093c
00000170: 6656 b73c 5f00 2dbc 7d87 f33b 70ea e33c
00000180: 4398 ac3c 77df fc3c 94bf 6abc 183f 423c
00000190: 9888 bf3c c3ba 0c3d bf2e 84bc 07a6 77bd
000001a0: 0ab4 cf3a d390 64bb 2ad9 9bbc c7a3 38bb
000001b0: d1e3 903c 4b35 22bc f40b dbbb 5cf3 f03b
000001c0: 0dc9 403c cd36 c43b b592 2cbd 3a19 2c3c
000001d0: 73cc 4c3c ce45 83bd 8233 c03c 6a8b c13c
000001e0: 6668 da3b 3a3f c7bc 61d2 7ebb ee59 28bb
000001f0: 34ca 0a3c b4be aa3a 23bd 3e3c c611 043b
00000200: 2cb6 943c 2ea7 613d 4961 c7bd f983 0abd
00000210: 38eb 4abc 061e a7bd 4504 82bc fb96 9abc
00000220: 239f 773c b7f7 22be 0eac ba3d efc5 d7bd
00000230: 7033 8dbd b1cc a6bd 1cba 89b9 83d0 58be
00000240: 62fa 4c3d eb53 203d 5a8d 16bd 78e4 233c
00000250: fe0f cdbc d83e 5ebd d845 60bb ca1f b1bd
00000260: 8e4c b03d 11bb f33d 6ebb a0bd bc5c d8bd
00000270: eeb2 77bd bfea d33d 75fc 42be b653 41bd
00000280: 6194 efbd f3fc 733e e81c 0dbd ed70 62bc
00000290: 7131 23bd 3f0c 193e f584 b43c 2b27 bbbd
000002a0: 6c6a eabd a3f2 1c3b c7b8 8fbd bef2 c5bc
000002b0: 60d8 ed3c 27c0 97bc 5802 56bd c433 ebbc
000002c0: ee29 15be d993 81bb 0c8f bebd a31b b63c
000002d0: 9427 06bd cec0 cf3c ebac a8bd 4704 37be
000002e0: 87e5 d1bd 23c5 853e 54a4 f4bd e2e2 2abe
000002f0: 839c e93c 95ef 49bd 8b7c 693d e58e 2bbe
00000300: af78 f0bc 88d5 a93d f964 923d 546a 09bc
00000310: d6e0 213e cda1 533e 4e08 e13c 2708 863d
00000320: 12ed 0f3d 564b 863c fe99 ed3d 8008 173e
00000330: b2cb 96bd 7adf 08be ae55 9abc 33c0 f1bd
00000340: 3472 1f3e 3e59 913e 5f7e 39bd 2361 9e3d
00000350: 376b dabd b9f2 2a3e 8c68 23be 0c39 983d
00000360: 407c 9cbd 2e73 8c3d cb1a c0be 2890 39bd
00000370: 3823 03bd ae5f c93d dffd 2abd 803c d9bb
00000380: 0699 fdbd 0634 60bd d876 cfbd 0028 243e
00000390: 6757 babd d0b2 213e 2903 c43d bab4 233d
000003a0: 35e3 45be 8077 1b3e 7717 f1bd a98b 223d
000003b0: 497f ff3c 3164 21be 7ce0 6dbe 827c cfbd
000003c0: 8559 3abe e7df 94bd 504d aebd d9d2 01be
000003d0: 2045 6bbe 583f 093e 614e 0bbe d85e 07bc
000003e0: 8195 8abd dc1b 1a3e 4647 5e3d b1a6 d7bc
000003f0: 8f39 983d f12e 3dbe f9ea c13b fba3 30be
0.0896478 0.054004297 0.10520375 -0.012343605 0.04561939 -0.07549972 0.02966952 0.059719656
0.011947805 -0.019982819 -0.040470593 0.009763466 0.106683984 -0.014465685 -0.06102533 0.06560754
-0.043229524 0.0006032191 -0.07687983 0.007051793 0.04200858 0.010681241 0.031901244 0.05804194
-0.018937089 0.019070653 0.02928445 0.04350588 0.0026901795 -0.020743215 0.01034514 -0.07112212
0.020020885 0.00094532146 0.09139854 0.11079496 0.0117575815 -0.033377476 -0.06673426 0.05687387
-0.032489862 -0.058221642 0.033418342 0.11287047 0.018642155 -0.019806588 0.07223793 -0.011665316
0.08974335 0.11485938 0.058007058 -0.12410939 -0.0034977917 0.07060817 -0.052007638 0.042904023
-0.03618424 0.063346826 0.057826 -0.011624213 -0.014716359 -0.01236574 -0.06340901 -0.109253906
0.001293782 -0.1465337 0.0007727978 0.0027484044 -0.0049786074 0.015773473 0.0006710709 -0.03334932
0.004233655 0.012865546 0.015330218 0.013355143 0.056988988 0.023185227 -0.05329669 0.02402507
-0.0007325369 -0.02738403 -0.0051901634 0.01529261 -0.018233724 -0.009655129 -0.028041445 0.039561268
-0.057209287 0.012021256 -0.037067037 0.008377912 0.022380065 -0.0105591705 0.007431923 0.02782175
0.021068698 0.030868275 -0.014327902 0.011855863 0.023380563 0.034357797 -0.016135572 -0.06046107
0.0015846503 -0.003487636 -0.01902445 -0.002817379 0.017686756 -0.009900401 -0.0066847745 0.0073532294
0.011766684 0.005987978 -0.0421321 0.010504061 0.012499916 -0.064097986 0.02346206 0.023626048
0.0066652773 -0.024322141 -0.003888272 -0.0025688368 0.008471061 0.0013026805 0.011641773 0.0020152195
0.018153273 0.055091076 -0.097353525 -0.033817265 -0.012385182 -0.081600234 -0.015871176 -0.018870821
0.015113625 -0.15914808 0.09114848 -0.105358 -0.068945765 -0.081445105 -0.0002626934 -0.21173291
0.05004347 0.03914253 -0.036755897 0.010003202 -0.02503204 -0.05425915 -0.0034221318 -0.086486414
0.08608352 0.119009145 -0.078482494 -0.10564563 -0.060473375 0.10347509 -0.19041617 -0.047198974
-0.11698223 0.23826961 -0.034451395 -0.013820869 -0.039842073 0.14946078 0.022036055 -0.0913833
-0.114460796 0.0023948334 -0.07017665 -0.0241636 0.02903384 -0.018524243 -0.05224833 -0.028711207
-0.14566776 -0.0039543924 -0.09304628 0.022229975 -0.03275259 0.025360491 -0.082361065 -0.17872725
-0.10248857 0.26126966 -0.119454056 -0.16688111 0.028517013 -0.04930075 0.05700354 -0.16753729
-0.029354421 0.08292681 0.07148165 -0.008387167 0.15808424 0.20667191 0.02746978 0.06544524
0.035138197 0.016393345 0.11601637 0.14749336 -0.073630705 -0.133665 -0.018839683 -0.11804237
0.15570909 0.283884 -0.045286532 0.07733371 -0.10664981 0.16694154 -0.1595785 0.07432756
-0.07640886 0.06857906 -0.3752044 -0.045303494 -0.03201601 0.098327026 -0.041746017 -0.0066295266
-0.123827025 -0.054737113 -0.101300895 0.16030884 -0.09098702 0.15790868 0.09570915 0.039967276
-0.19324954 0.15182304 -0.11772054 0.03968397 0.031188624 -0.15760876 -0.23230165 -0.1013117
-0.18198211 -0.072692685 -0.0851084 -0.12678088 -0.22975588 0.1340307 -0.13604118 -0.008262359
-0.06766797 0.1504969 0.05426719 -0.026324602 0.074328534 -0.18474938 0.0059179035 -0.17250054

weight_hh_l2 f4 [64, 64]
00000000: f729 903e a835 523d b495 103d c46c fb3d
00000010: e8bf 9bbd d1a2 01bd 0431 59be 9909 5bbe
00000020: 02bf 6e3e 9199 303d 2458 bb3c 983a 1d3e
00000030: 1631 e13d 4b4a 6f3d d985 9ebd efe0 8bbd
00000040: 780b 6d3b 3c49 183e 82f7 dc3c 0ff8 39bd
00000050: 1b84 29bd 900c 37bb 349f cbbc 1da9 893c
00000060: 21a9 253e aa79 d4bc 0bb0 35bc 4c29 e53d
00000070: d2eb 4d3e 43f6 32be 89a2 9a3d c86b 8e3d
00000080: 15b7 95bd bd4d a63e 4c5a a4bb c3fe 09bd
00000090: 7e83 9e3e dcee 9a3c c3c6 7b3c 0748 c33e
000000a0: 50eb d13d d47d 2b3e 87d4 343e cd3e 70bd
000000b0: 2823 e6bc 6232 debd ba37 783d 5046 cabd
000000c0: 6cec 97be 790d 5b3e 71c3 003d 2148 853e
000000d0: fe59 183e 3225 c2be 9ad5 25be ec16 0f3d
000000e0: b5f7 61be e2c4 01be 67fd e0bd 3b43 8b3e
000000f0: af73 be3d 021e 84be 45e4 bcbe c1e9 34be
00000100: 7972 7f3e f1e8 693d fba9 3d3e f89f 7cbd
00000110: b049 49be b2d5 7bbe d221 9bbe d1c6 fe3c
00000120: d491 36bd 9418 3c3e f30c 713e b526 d33c
00000130: c4f5 973e ce5f 69be 2a38 d53d fb17 b3bd
00000140: 6c79 1bbe e2e6 963e a4e8 403e acab 7abe
00000150: b5ea 9bbd ddc3 bbbd 1045 413c 2359 0d3c
00000160: c235 c2bc 2e00 1f3e 51e7 fcbd 824b 5bbe
00000170: 0102 273e 0c91 31bd e3f2 8b3e 4eae 6ebd
00000180: 0ae9 b0bc d9d3 223e 12e6 863e c487 aabe
00000190: 2bae 843e 6f3b 063e 8882 bd3c b93e 8b3d
000001a0: b98e 983d e741 2d3e b7aa 513e 1aa3 63be
000001b0: 71af b3bd bbae 04be a1f3 47be bdcc 26be
000001c0: 508f 1f3c 7fac 7f3e 135c c6bc 5b9e 253e
000001d0: 0b78 2dbe 5dd2 87bd 4bf9 41be 7b75 a93e
000001e0: b7b9 dbbd 7175 233e dbe6 f43d f3b9 e3bd
000001f0: e6cd 513d 4176 62be b363 1abe 71a6 303d
00000200: 46f7 97bd dff5 90be 1e8a d43e 690d 033e
00000210: 52d6 d8bb af1b 5bbd f630 f7bd 70fc 87be
00000220: 8940 7c3e 0ac4 acbd 09fc 91bd 0d5b 723b
00000230: fb07 62bc 4c0d 2b3e 7495 2e3d b7d7 73be
00000240: a61f bcbe 2c5d 333e 5e0c dbbe b048 c73d
00000250: cced 57be 7a00 0ebc 3a0f 303e 1bb3 2d3d
00000260: 36a5 353d f570 963e 0bf6 bf3e e0d0 4ebd
00000270: e9ef 403e 9774 a13b 4b66 a1bd 31de a63d
00000280: 514f f7bc ad5e 663e dece c33d c85c 413e
00000290: b9e7 653e 12ca e53c ec9f c73e 9366 34bd
000002a0: 03c9 8a3e e523 33bd f345 7cbe f4c9 8c3d
000002b0: 6782 723e dfb9 00bd b2e7 873d 2c37 ee3d
000002c0: 0fa2 ce3d 0f57 afbc 736c 8dbe 21e3 3dbe
000002d0: 9b29 4b3e 7bfd dabd 2dd4 d73d f994 8fbd
000002e0: 5de7 90bd 0d4e cbbd 571d 113d a338 8ebe
000002f0: c515 523e ec0f c5bd d10f 8cbd 2157 eebd
00000300: 7826 3dbe 2a2d 873e a170 cebe e62e 983e
00000310: 2e94 e4bc f2da 3bbe 1393 9cbd a01a ccbd
00000320: 2325 bcbd 1d26 193e e7a8 6d3d 2d83 dfbc
00000330: 3ca9 a23e 8053 1abe a33f 8abe 3e05 0f3b
00000340: 75e6 1a3e 3b92 e9bd 97a1 283e a513 c13d
00000350: 516d 0dbe 256b e83d c42d 78bc 6375 643e
00000360: 94ba 33be 8877 343e 39ac 46be 7b8f 353d
00000370: b685 6ebe 50af 57be 6380 7f3e c830 c4be
00000380: a384 04be df79 23be 70ef bd3d 5cd6 3b3d
00000390: 620e e5be f466 4dbc 921d ba3e 7494 123d
000003a0: e933 8a3d 005a 3d3e 3cdd 923e f026 89be
000003b0: 91e7 8b3c e1b4 4a3e 5fc3 203e 4b22 763e
000003c0: 7385 d8bc 942e b1bd f924 b23d 3cc0 edbc
000003d0: 9fbd 49be cb58 2ebd 448e 7f3d 6eed 1e3e
000003e0: 5bdc e63d bfb3 283e 2bf6 0e3e 520b bf3e
000003f0: c779 f7bd f358 503e 4b07 c13e 77d3 d7be
0.28157017 0.0513207 0.035299018 0.12276605 -0.076049626 -0.031649414 -0.21210104 -0.2139038
0.23315051 0.043115202 0.022869177 0.15354383 0.109956905 0.05842046 -0.07740373 -0.06830012
0.0036170166 0.14871687 0.02697349 -0.045402583 -0.04138575 -0.0027931072 -0.024856187 0.016804272
0.16177799 -0.02593692 -0.011089335 0.111895174 0.2010949 -0.17476754 0.07550532 0.069541514
-0.07310311 0.32481185 -0.005015647 -0.033690225 0.30959696 0.018912725 0.015367213 0.3814089
0.102499604 0.16747218 0.17659198 -0.05865364 -0.028092936 -0.108494535 0.06060002 -0.09876692
-0.29672563 0.21391858 0.031436387 0.26031592 0.1487808 -0.37919003 -0.16194764 0.03493397
-0.22067149 -0.12672761 -0.10985833 0.2719973 0.09299409 -0.25804144 -0.36892906 -0.17667295
0.24946012 0.057106916 0.18521874 -0.061675996 -0.19657016 -0.24593237 -0.3029924 0.031100662
-0.044572666 0.18368751 0.23540096 0.025775293 0.29679692 -0.22790453 0.10411103 -0.08744808
-0.15183038 0.29473025 0.18838745 -0.2447955 -0.07613126 -0.09168217 0.011796251 0.008627209
-0.023707274 0.15527412 -0.123488076 -0.21415523 0.16309358 -0.043351218 0.27333745 -0.0582717
-0.021595497 0.15901126 0.26347405 -0.33306706 0.2591413 0.1310861 0.023133531 0.06799073
0.07449097 0.16919671 0.20475279 -0.22230187 -0.08773697 -0.1295728 -0.19526531 -0.16289039
0.009738758 0.24968146 -0.024213826 0.16173689 -0.16940324 -0.066319205 -0.18942754 0.33097443
-0.10728782 0.15962769 0.11958095 -0.111194514 0.05122175 -0.22115423 -0.15077095 0.04312748
-0.074202105 -0.28312585 0.41511625 0.12798084 -0.006617346 -0.053493198 -0.120698854 -0.26559782
0.24633993 -0.08435829 -0.0712815 0.003698054 -0.013795848 0.16704291 0.042623 -0.23812757
-0.36742896 0.17516011 -0.42782873 0.09730661 -0.21086806 -0.008667106 0.17193308 0.042407136
0.04434701 0.29383054 0.37492403 -0.050492167 0.18841518 0.0049272287 -0.07880839 0.081478484
-0.030189188 0.22497053 0.09560941 0.1888305 0.22451676 0.028050456 0.38989198 -0.044043135
0.27106485 -0.043735404 -0.24636059 0.06874457 0.23682557 -0.03142726 0.06635989 0.11631617
0.10089504 -0.021403817 -0.27621803 -0.18543674 0.1984009 -0.10692879 0.10538516 -0.07010836
-0.07075379 -0.099269964 0.03542837 -0.27777585 0.20516117 -0.096221775 -0.06838954 -0.11637712
-0.18471706 0.26401645 -0.40320304 0.2972328 -0.027902689 -0.1834524 -0.0764524 -0.09966016
-0.09186771 0.14955945 0.058022406 -0.02728423 0.3176974 -0.15070915 -0.27001676 0.0021823193
0.15126975 -0.114048444 0.16467892 0.09427575 -0.13811232 0.11348561 -0.01514763 0.22310404
-0.17551643 0.17623723 -0.19401635 0.044326287 -0.23293194 -0.2106297 0.2495132 -0.38318467
-0.12941222 -0.15964459 0.09274185 0.045858726 -0.44737536 -0.012536753 0.36350685 0.035786107
0.06748182 0.18491364 0.28684413 -0.2678752 0.017078193 0.19795562 0.15699528 0.24036519
-0.026430821 -0.08651462 0.08698458 -0.029022329 -0.19701241 -0.04256515 0.062391534 0.1552026
0.11272498 0.16474818 0.13961093 0.37313324 -0.12083774 0.20346431 0.37700877 -0.42153522

bias_ih_l2 f4 [64]
00000000: 8037 0abd 45b9 1d3d 1b02 09be a686 c03e
00000010: 00de d3bc b29f 913e 7b5e d73d 1348 853d
00000020: d758 4f3d fee4 b23d 7b65 983e 8454 4dbc
00000030: da53 c2bd a047 87be 2286 083b f864 8f3d
00000040: 77a1 30bc b031 903d 7b43 9abb cd57 ae3d
00000050: d870 983e 379a b03d c0b7 09be 167a 63bd
00000060: c4c1 ac3d d664 9e3e c4f0 983d 5945 ec3d
00000070: 81ae b5bd 88fc 44be 1c63 0abd 3a54 91be
00000080: b9bf 0ebe cf5e 1b3c 9615 abbd b70e 09be
00000090: 5b84 88be 099e c93d 69c5 183d 0201 0bbd
000000a0: 6d59 713e a402 1d3d ca6f 3c3e ed2f 523c
000000b0: aad9 ffba d260 003d b46c c1be 114d 343e
000000c0: 4959 123e 61a3 233e e052 893e 6079 413d
000000d0: 1c96 5abe 860d 8c3e 6b63 053d d606 a0bd
000000e0: 5047 b03d 021a 8cbd 10cc cf3d edcb a03c
000000f0: 3349 dbbc d4ac 85be cac6 823d e35d 32be
-0.033744335 0.038506765 -0.1337971 0.3760273 -0.025862694 0.2844215 0.105160676 0.06507888
0.050621834 0.08735083 0.29764923 -0.012532357 -0.0948865 -0.26421833 0.0020831903 0.0700168
-0.010780684 0.07040727 -0.0047077513 0.085128404 0.29773593 0.08623164 -0.13449001 -0.055536352
0.08435395 0.30936307 0.074677974 0.115366645 -0.088711746 -0.19236958 -0.033785924 -0.28384572
-0.13940324 0.009483053 -0.083537266 -0.1338452 -0.2666348 0.09844596 0.03729764 -0.033936508
0.2356927 0.038332596 0.18402019 0.012828809 -0.0019519825 0.031342335 -0.37778246 0.17607524
0.14291872 0.15980293 0.2682104 0.047234893 -0.21346325 0.27354068 0.032565515 -0.07813804
0.08607352 -0.06840898 0.10146344 0.01962849 -0.026768303 -0.2610842 0.06385572 -0.17418627

bias_hh_l2 f4 [64]
00000000: ae07 b6bc bd5a a23c c31a 44be 0e38 c83e
00000010: a1b8 88bd 7467 b83e 4d63 ac3d 2964 0abe
00000020: 4e26 613d a3a4 68bd 1b0c e23e e124 513d
00000030: 7080 1b3c 283d 1cbe 0b40 e7bb 0e7f c13c
00000040: 4bb4 1dbd a56b d8bd 73aa 5bbc ffef 673d
00000050: 8c98 063e 11e5 6a3e dfec e5bd dfda 0c3e
00000060: 7dcc ecbc 5374 443e 563b f13d 99b1 b63d
00000070: 4e94 0c3e b494 26bd 1eca 1bbe 75f9 58be
00000080: 6a8d a03d 5155 313d f5a3 51bd 94f2 e9bd
00000090: 591c 50be 98bd dbbd df5c a93c d965 8e3d
000000a0: 9fe8 af3c da58 25bd fd8b 443d 4c59 66bd
000000b0: 91b2 babc 3786 a6bd 15a3 6ebe d20f 853e
000000c0: cd21 dd3d 5107 533e 407c 643e 30c9 e13d
000000d0: 0be6 28be b77a ee3d b6a9 653e c9a9 07be
000000e0: 5dce fbbd 294f 48bd 8041 87bd 6d53 a4bd
000000f0: 6553 943c d49b 77be 9bde 033e ed9e 06be
-0.022220459 0.019818658 -0.19150834 0.39105266 -0.0667584 0.36016428 0.084173776 -0.1351477
0.05496817 -0.056797635 0.4414986 0.05106056 0.009491071 -0.15257704 -0.007057195 0.023620155
-0.03850202 -0.105674066 -0.0134073375 0.056625362 0.1314413 0.22938944 -0.1122682 0.13755368
-0.028906101 0.19184999 0.117788956 0.08920593 0.13728449 -0.040669158 -0.1521382 -0.2118891
0.078394726 0.043294255 -0.051181752 -0.11423221 -0.20323314 -0.107295215 0.020674167 0.0695302
0.021473227 -0.04036794 0.047985066 -0.056237504 -0.022790225 -0.08131068 -0.23304398 0.25988632
0.107974626 0.2060826 0.22313023 0.110247016 -0.16494004 0.116445 0.22428021 -0.13248362
-0.1229522 -0.048903618 -0.0660429 -0.08023725 0.018106172 -0.24180537 0.12877886 -0.13146563
