machine_learning/models/model.pth (torch, 222835 bytes, 22 tensors)

weight_ih_l0 f4 [64, 128]
000000 4e dd 96 3d 42 e6 a4 bd 2b 37 ce bd 34 00 7a bb
       0.07366429 -0.08051731 -0.10069116 -0.0038147094
000010 cd b7 f6 3c 36 68 3b 3c ed be 4a 3c 61 72 5b 3d
       0.03011694 0.01143842 0.012374622 0.053575877
000020 0a a7 d8 3c a7 14 ea 3d ed 69 e1 bd 96 82 d0 3d
       0.026446838 0.1142972 -0.11006532 0.10181157
000030 2c f6 bc 3d ea 18 38 bd 64 7b 6d bd df d8 e7 3d
       0.09226641 -0.044945635 -0.057979003 0.11320662
000040 80 a2 d1 bb f3 74 a0 bd 25 d6 fb bd d4 11 95 bd
       -0.0063975453 -0.07834806 -0.12296704 -0.07278791
000050 7f 07 f5 bd 64 98 ef 3d 09 6c e9 3c 78 80 58 bd
       -0.119643204 0.11698988 0.028493898 -0.052856892
000060 c7 3a 77 3d 4a 4e e3 3d f5 9d c6 bd 46 9c e7 bb
       0.06035879 0.11098917 -0.09698097 -0.00706819
000070 0e 31 60 bd e5 d7 c9 3d 13 de a9 3d 9e 8a 94 3d
       -0.054734282 0.09855632 0.082943104 0.07253002
000080 c8 aa 51 bd 85 07 7f bc d8 61 9d bd 10 2c 27 bd
       -0.05118826 -0.015565758 -0.07684678 -0.040813506
000090 1d 69 ae 3c 53 65 ff 3d 6f c8 79 bd a7 54 82 bd
       0.021290356 0.12470498 -0.060982164 -0.063638024
0000a0 c4 51 57 3d 24 a4 13 3d 44 27 cc 3d 0f 34 c2 3d
       0.052568212 0.03604521 0.09968427 0.09482586
0000b0 68 06 3f 3d ba 0c 09 3d 33 8e 24 bc 0d cd 4d bd
       0.04663697 0.033459403 -0.010043669 -0.05024438
0000c0 74 c9 88 3d ad 69 00 3d bc ad 54 3d 31 2d c9 3d
       0.06679049 0.03135078 0.0519235 0.09823073
0000d0 85 e1 5a bd 82 04 0c 3c 6d c5 e1 3d 45 70 62 bd
       -0.05343773 0.008545997 0.11023984 -0.05528285
0000e0 87 57 8f 3c f1 d6 b0 3d 3f 4a 02 bd c1 e4 d8 bd
       0.017497791 0.08634747 -0.031809088 -0.10590506
0000f0 12 bb e0 bd 28 37 a2 bd eb 24 4c bc e7 c0 af bd
       -0.10973181 -0.079206765 -0.012459974 -0.08581715
000100 aa f8 63 3d 5f 32 74 3d 4b 20 6a bd 17 19 75 3d
       0.055657066 0.05961835 -0.057159703 0.05983838
000110 26 fb 44 bc a6 10 c2 bd e7 d0 bd bc 67 68 c8 3d
       -0.012022769 -0.09475832 -0.023170901 0.09785538
000120 67 d9 fb bc 82 c8 91 bd 25 7b a1 3d 65 06 de bd
       -0.030743314 -0.07118322 0.07884816 -0.108410634
000130 83 d1 27 bd 07 df e8 bd 2b d5 ce 3d 92 20 32 3d
       -0.04097129 -0.11370664 0.10099252 0.043488093
000140 66 87 86 bc 11 0b 29 3d 27 03 f8 3d e6 c2 f6 bd
       -0.016421985 0.04127032 0.12109976 -0.12048893
000150 87 59 a5 bd 79 8f 7f bd cf 5a dd 3c 42 ef 7e bd
       -0.080737166 -0.062392686 0.02702084 -0.062239893
000160 2f 7a 3d bd aa 88 d0 3d 71 ce 16 bd 00 e1 ce 39
       -0.0462591 0.101823166 -0.03681797 0.0003945902
000170 ec 66 51 bc 43 2a cf bd b8 22 07 bd 03 ea 46 bb
       -0.012780886 -0.10115483 -0.032992095 -0.0030351884
000180 8d 88 22 bd ee b3 65 3d 18 c2 9d 3d 20 9d 4b 3d
       -0.039681006 0.056079797 0.07703036 0.049710393
000190 b1 a4 06 3d da c7 e1 3d d7 50 9f bd 91 a8 9b 3d
       0.032871906 0.11024447 -0.07779091 0.07600511
0001a0 a2 16 5f bd c3 ee 9e 3c c7 6b 0e bd 9e 65 cb bd
       -0.054464944 0.01940096 -0.034770753 -0.09931491
0001b0 a9 45 e2 3c ea 0f 66 bd f1 7b 1e bb 85 49 fd bb
       0.027621107 -0.05616752 -0.0024182762 -0.0077297115
0001c0 9b 31 ec bc 4e e8 bf bd 77 32 ae bd 21 0d da 3d
       -0.028832247 -0.093704805 -0.08505719 0.106470354
0001d0 77 71 cd bb 57 05 60 3d 5e c2 1a bd 6c d7 18 3d
       -0.0062696296 0.054692592 -0.03778302 0.037314817
0001e0 54 b3 d7 3c 23 c4 29 bb 31 ae e5 bd b1 03 d0 39
       0.026330628 -0.002590426 -0.11214865 0.00039675602
0001f0 a6 ff f9 3d 6d 2b 7a bd 23 ee 86 3d d9 3d 90 bd
       0.12206964 -0.06107657 0.0658839 -0.070430465
000200 39 41 2b bd 54 c9 17 bd 43 f5 3d bc 2f 45 7a bd
       -0.041810248 -0.037057236 -0.0115941195 -0.061101135
000210 64 c4 ae bd 4c 8f c2 3d 70 d6 6a bc 80 e7 8d 3d
       -0.08533552 0.09499988 -0.014333352 0.06928921
000220 25 e6 82 bd 04 e8 aa bd fc a7 f3 3d ea 8c 12 3d
       -0.06391553 -0.08345035 0.11897275 0.035778917
000230 c6 43 c8 bd c3 8a e4 bd 19 37 e9 3d a6 62 0f 3d
       -0.09778552 -0.11159279 0.11387462 0.035006188
000240 1b cb 47 3b a6 36 be bd db 54 a3 bd c4 0f f1 bc
       0.003048605 -0.09287767 -0.07975169 -0.029426463
000250 10 d7 f2 bd 2e bf da 3d 92 bd 84 bd 72 7b af bd
       -0.11857426 0.10680996 -0.0648147 -0.08568467
000260 44 1b 6f bd 95 0f 79 3d c9 f1 d6 bd d1 60 12 bc
       -0.058375612 0.060805876 -0.104953356 -0.008934216
000270 9b 86 a9 bd 57 8d 05 bd 1a f6 74 bd 32 d9 cd 3d
       -0.08277627 -0.032605495 -0.059805013 0.10051192
000280 dc 13 59 bd 1c e8 dd 3d 9c 16 44 3d 45 88 f4 bc
       -0.052997455 0.10835287 0.047873124 -0.029850135
000290 41 ac 91 bd 50 51 ab bd 1b 7b aa bd c5 27 60 bd
       -0.07112933 -0.083651185 -0.08324262 -0.054725427
0002a0 99 26 1a bd 8a 18 e5 bd f5 aa 7f 3d da aa 22 3d
       -0.037634466 -0.11186321 0.062418897 0.039713718
0002b0 34 06 b3 3d 0b 58 9f 3d 05 19 f4 bd 0f f2 fd 3d
       0.087414175 0.07780465 -0.119188346 0.12399685
0002c0 fd c6 d5 3d 8f dc f6 3d 09 1c 55 bc f7 ba 4b bd
       0.10438345 0.12053787 -0.013007172 -0.04973885
0002d0 4a d7 a1 3d 4e f5 63 3d a8 43 85 3c da 72 07 bd
       0.07902391 0.055653863 0.016267613 -0.033068515
0002e0 ef cb 53 bc ea cb be 3d 44 f2 80 bd 94 d4 d3 bd
       -0.0129270395 0.09316237 -0.062962085 -0.103432804
0002f0 c1 54 d5 bb e5 89 c5 3d 80 20 14 bd a1 c5 9a 3c
       -0.0065103476 0.09645442 -0.036163807 0.018893065
000300 9a da 80 3d 7e 8d 9a bd 38 02 87 bd 38 94 54 bd
       0.06291695 -0.07546519 -0.0659222 -0.051899165
000310 05 c0 88 3d 52 f1 c7 bd cc c6 a8 bd 51 62 d0 bd
       0.0667725 -0.09762825 -0.082410425 -0.10175002
000320 bc a7 7f bb 83 c7 dd 3d ad 18 f3 bc b5 71 d5 3d
       -0.003900989 0.108290695 -0.029674852 0.104220785
000330 5d 42 c8 bd 77 6d 75 bc 0e 02 db bd 65 f3 dd 3d
       -0.09778283 -0.014979712 -0.10693751 0.108374394
000340 50 91 a1 3d e7 4e cc 3d 47 f3 11 3b 23 d0 d2 3d
       0.07889044 0.09975987 0.0022270249 0.10293605
000350 43 25 b7 3d 1f 03 1c bd df a9 94 bd 47 26 66 bd
       0.08942654 -0.038088914 -0.07258963 -0.056188848
000360 68 ad a9 3d 99 13 bf 3d a9 3e f3 3d 09 42 18 bd
       0.08285028 0.0932991 0.11877186 -0.03717235
000370 57 f9 4f bd 48 0b c9 3d 34 94 8d bb 4b 14 40 3d
       -0.0507749 0.09816605 -0.0043206457 0.046894353
000380 7d 0f 59 3d 4f 03 00 bd 20 4b e9 bc 49 55 9d 3c
       0.052993286 -0.031253155 -0.028478205 0.019205706
000390 14 dd cf 3d a2 83 ec 3b 9f ca 6b 3d 6a c5 f7 bd
       0.10149589 0.0072178403 0.05756628 -0.120982006
0003a0 c3 81 8c bd 4a 79 7b 3c 77 8a 82 bd 7f fd 3b 3d
       -0.068606876 0.015348742 -0.06374066 0.04589605
0003b0 af 32 84 bd e4 91 3a 3d e8 0a 8c 3d 00 61 e2 3d
       -0.0645498 0.04554929 0.06838018 0.110536575
0003c0 05 ed c7 bd 36 fe 69 38 cc 21 89 3d 85 45 07 3b
       -0.09762005 5.578828e-05 0.06695899 0.0020640802
0003d0 c0 b1 dd ba 13 05 dc bd ae ec 59 bd 62 24 ff bd
       -0.0016913936 -0.10743155 -0.05320423 -0.12458111
0003e0 bb ec c2 3d b7 8a 0f bd f4 ac b0 3d ac b4 a5 3d
       0.09517809 -0.0350444 0.08626738 0.08091101
0003f0 85 26 e6 bd 4f 19 b7 bd c2 a6 9e bd 44 88 44 3d
       -0.11237816 -0.08940374 -0.0774665 0.047981516

weight_hh_l0 f4 [64, 64]
000000 82 2c 81 3d 34 ef b0 3d 34 1e ee 3b 0c ec 21 3c
       0.06307317 0.086393744 0.007266784 0.009882938
000010 34 ab 75 3c b1 ba b3 3d 11 d7 da 3d fc ac f9 3c
       0.014994431 0.08775843 0.10685552 0.030477993
000020 93 0b 98 bd 5a 23 43 b9 8b 2b e7 bd c2 86 a9 3d
       -0.074240826 -0.00018609819 -0.11287602 0.08277656
000030 b9 1b a8 3d d7 33 d7 3c 66 d7 50 3d 34 f3 67 3c
       0.08208413 0.026269836 0.05098667 0.014157105
000040 7b 1e c9 3d d8 6e 95 bd 4b 91 b5 3d 87 d9 2f bd
       0.09820267 -0.072965324 0.08865603 -0.04293206
000050 31 e8 a1 bd 0d 23 e5 3d 9d bb 67 3d 3b 3c c4 bd
       -0.07905615 0.11188326 0.056575406 -0.095818006
000060 47 cb f4 3c 2a 0c 53 3d 31 eb d9 bd d9 c2 e1 3c
       0.029882086 0.051525272 -0.10640562 0.02755873
000070 e6 6f d5 bd 6a ac 1b 3d e9 9c 4d bd 56 6f a0 3c
       -0.104217336 0.038006224 -0.05019847 0.01958434
000080 85 00 a5 3c 30 3e 02 3c 55 10 9d bd e5 21 4e 3d
       0.02014185 0.007949397 -0.07669131 0.050325293
000090 e0 2c c6 3d 95 1f 2a bd 5a 19 d3 3c 2b a4 92 3d
       0.09676528 -0.041534025 0.025768925 0.07160219
0000a0 9e fe db 3b e9 62 89 bd 64 09 3a bd e3 9c 00 bd
       0.0067137023 -0.06708319 -0.04541911 -0.03139962
0000b0 f5 44 a7 bd 2e bc c8 3d 2e f7 fe 3d 88 3d 44 3d
       -0.081674494 0.098015174 0.124494895 0.047910243
0000c0 7f 17 70 3d 3c f8 b1 3c 44 d2 eb 3d 1b 1a 71 3d
       0.058616158 0.021724813 0.11514714 0.058862787
0000d0 1b b4 a9 3d 1e 47 9c bd 1d 5a af 3d 40 f8 8c bd
       0.082863055 -0.07630752 0.085621096 -0.068832874
0000e0 22 f4 54 bd cd d0 49 bd a1 dc b1 3c 29 e3 3d bd
       -0.051990636 -0.049271394 0.02171165 -0.046359215
0000f0 2e 2b 8c bd dc 92 5c 3b 79 7f 0e 3d 7d 87 90 bd
       -0.06844173 0.003365687 0.034789536 -0.07057092
000100 5f 33 80 ba b0 db 83 bd 44 83 77 3c bd e8 be bd
       -0.0009780935 -0.064383864 0.01510698 -0.09321735
000110 77 d3 ea 3d 49 48 e3 3d a4 86 da 3d db c1 ec 3d
       0.11466115 0.11097772 0.10670212 0.115604125
000120 c1 62 f6 bc 0a 90 c5 bd d9 45 3a bd ac fc a9 bd
       -0.030076386 -0.09646614 -0.04547677 -0.083001465
000130 4c 48 df bd 16 34 bc 3d aa 5a 67 bd 34 f2 61 3d
       -0.109024614 0.09189622 -0.05648295 0.055162624
000140 46 f2 be 3d 46 7b 2f 3d bc 45 dc 3c bc 80 a3 3c
       0.09323554 0.042842172 0.02688872 0.019958846
000150 4f b8 a8 bb 46 e7 6f bd 35 ce f5 bd 15 8d 7d bd
       -0.0051489244 -0.05857017 -0.120022215 -0.061902124
000160 05 fe 91 3d fe df bb bd 3c 75 9d bc 4c 35 ae bd
       0.071285285 -0.091735825 -0.01922094 -0.08506259
000170 d6 49 ca bd 83 a3 79 3d ab 93 b2 bd 2f 27 46 bc
       -0.09877364 0.060946953 -0.08719572 -0.012094303
000180 99 46 60 bc d1 2a 85 3d 74 f2 80 bd 50 ec 7e 3d
       -0.013688707 0.06502307 -0.06296244 0.062237084
000190 d7 a1 5a 3d 79 50 a5 bd 98 ae a8 bd 74 74 eb bd
       0.053377 -0.080719896 -0.08236426 -0.11496821
0001a0 21 56 95 bc 8d e9 8f 3c da a2 f0 bb 34 8c c5 bd
       -0.018229546 0.01756742 -0.007343632 -0.09645882
0001b0 15 fd d1 3d 1a 89 7b 3d ce a4 1f bd d8 77 99 3d
       0.1025335 0.061410047 -0.03897553 0.074935615
0001c0 32 24 d0 3a c9 0a df 3d 4f b6 99 bd 34 62 78 bd
       0.0015879928 0.10890729 -0.07505476 -0.06064053
0001d0 37 65 2f 3d cb ae de bd 78 e1 6f 3c 11 2a 82 bd
       0.042821135 -0.10873183 0.014641158 -0.0635568
0001e0 53 e5 d3 3d 1a 6b e7 bd e8 6a 64 bb 07 89 31 bd
       0.103464745 -0.11299725 -0.003485376 -0.04334357
0001f0 43 fd eb 3c d6 9e 36 bc ee 44 80 bd 94 c5 7d 3d
       0.028807288 -0.011146268 -0.06263147 0.061956003
000200 fb 25 f8 3d c3 06 b6 3c db ac 3c 3d c6 72 aa bd
       0.12116619 0.022220021 0.046063285 -0.083226725
000210 03 b2 06 3c 45 dc cd bd 8d f9 82 3c 29 c0 c3 bd
       0.008221152 -0.10051779 0.015988136 -0.09558136
000220 b5 f9 65 3d 04 36 9b 3d 26 e5 44 bd d6 69 f4 bd
       0.056146342 0.07578662 -0.048070095 -0.11934249
000230 84 f1 42 ba a1 a1 b5 3d 26 8b a3 bd 72 79 94 3d
       -0.00074365013 0.08868719 -0.07985525 0.07249726
000240 53 9a c7 3d 98 19 c0 bd bc 26 f8 3d cf 01 ab bb
       0.09746232 -0.093798816 0.12116763 -0.0052187215
000250 32 7f 94 3c 8e 1a f6 3c 6c 8c 80 3d 65 d1 b2 bd
       0.018127058 0.03004196 0.06276783 -0.08731345
000260 62 60 cf 3d 6f b1 c3 3d f3 a1 83 bd c7 32 dc bd
       0.101258054 0.09555327 -0.06427374 -0.107518725
000270 ef 5a ee bd 8d 00 16 3a 61 0d e6 bd 96 dd f7 3d
       -0.11638438 0.0005722128 -0.112330206 0.12102811
000280 4c 0f 18 bd 11 10 12 bd bd 42 ad bc 7c 6d b6 bd
       -0.037123963 -0.035659853 -0.021149987 -0.08907601
000290 40 8c 4d bd 9d cb 56 bd b8 36 b9 3c 3b ca 0b 3d
       -0.05018258 -0.052440275 0.0226091 0.03412841
0002a0 a9 d3 d3 b9 d7 2b bf bd 69 18 ba bd 8d 62 69 bd
       -0.00040402755 -0.09334534 -0.09086687 -0.05697875
0002b0 77 27 06 bc ad 9b c7 3a 3b 74 ab bc d2 07 c8 3d
       -0.00818812 0.001522889 -0.020929446 0.097671166
0002c0 3f d4 18 3d 06 f0 29 3c c0 ca c6 3d f2 a3 ec bd
       0.03731179 0.010372167 0.0970664 -0.115547076
0002d0 2f 79 21 3d b7 c5 1b 3d d0 89 87 bd 7e c6 e1 bd
       0.03942221 0.038030352 -0.066180825 -0.110241875
0002e0 af 85 b6 bd eb 57 97 3d 3d e8 cf 3c 9c 97 27 bc
       -0.08912217 0.07389816 0.025379295 -0.010229018
0002f0 83 91 a6 bd 12 0e 8d 3d 15 68 7c 3d 51 e5 84 bd
       -0.08133223 0.06887449 0.061622698 -0.06489051
000300 b6 95 ab 3b 02 f9 53 3c 47 ce ed 3a 8d 62 e2 bd
       0.005236353 0.012937786 0.001814314 -0.11053953
000310 02 09 b1 bc 88 31 ef 3c f5 eb 83 bc 81 f8 35 bb
       -0.02161074 0.029198423 -0.016103724 -0.0027766528
000320 2b 2c c0 bd 72 97 ad bd 66 6a 89 bd b0 ab f5 bd
       -0.09383424 -0.084761515 -0.06709747 -0.119956374
000330 12 33 02 bd d4 bd 4b bd 17 0b 36 bd 79 50 3d 3d
       -0.031786986 -0.04974158 -0.04444417 0.046219323
000340 aa e4 ff 3d 29 8f 9c 3d df b8 cb 3d d9 7e 6a bd
       0.12494786 0.07644493 0.09947371 -0.057249878
000350 a0 3f 97 3d 2b 9a b0 3c b2 01 99 3a 25 e7 83 3d
       0.073851824 0.021557888 0.0011673479 0.06440572
000360 75 26 8e bd d2 37 65 3d 11 31 d1 bd a6 c9 e1 39
       -0.06940929 0.055961438 -0.10214437 0.00043065584
000370 06 16 ee bd be ef fd 3d 21 ba ae 3c b3 f1 a9 3d
       -0.116252944 0.12399243 0.021328988 0.082980536
000380 4c 75 69 3d 0d d6 aa bc 54 b0 a4 3d f2 b8 db 3d
       0.05699663 -0.02085402 0.080414444 0.10728635
000390 70 e7 25 3d 1b ba 39 3d 8f d6 8c 3d 05 6e b4 bd
       0.04050392 0.0453435 0.06876861 -0.08810047
0003a0 1b eb dd 3d 7b b4 ec 3d ea fe 28 bd 9c 86 6c 3d
       0.108358584 0.115578614 -0.04125873 0.05774556
0003b0 b8 23 d6 bc db d9 d3 bd 3b 87 ac bb 2e 03 ae bd
       -0.026140079 -0.10344287 -0.005265144 -0.084967
0003c0 93 40 4e bc eb c5 a4 bd 58 13 d8 3c 91 f0 85 bd
       -0.012588638 -0.08045562 0.026376411 -0.06540025
0003d0 b3 f7 a7 bc e5 9f 8c 39 f2 8d 04 3d 0a 32 54 3b
       -0.020503854 0.00026822012 0.032361932 0.0032378458
0003e0 83 19 d9 3d 8b 28 a6 3d 58 43 4e 3d 5a 7d 75 3d
       0.10600569 0.08113202 0.050357193 0.059933998
0003f0 ee 7d bb 3d 38 b7 7e 3d 37 a1 b8 bd 47 1c d0 3d
       0.091548786 0.06218645 -0.09015124 0.101616435

bias_ih_l0 f4 [64]
000000 a8 63 bf bd c2 7a d7 3d 0b 51 a1 3d 00 58 cb 3d
       -0.0934518 0.10521461 0.07876786 0.09928894
000010 0c 18 26 bc 5d 8b cf 3d 30 2c 5b bd 78 58 a6 3d
       -0.010137569 0.10134003 -0.053508937 0.08122343
000020 fd de cd 3d 2a 3c f3 bd 2e c2 c4 3d 9c 7a a1 bd
       0.10052297 -0.1187671 0.09607349 -0.07884714
000030 32 fd 10 3b 49 3a 38 bd f6 b5 2c 3d c2 a0 75 3c
       0.0022123572 -0.04497746 0.04216572 0.014991941
000040 17 49 df 3c b2 55 f4 3d 40 50 07 bd 5c 94 2e 3d
       0.027256532 0.119304076 -0.033035517 0.042621955
000050 18 85 1e bb 66 2d f5 3b aa 3a e5 3d 70 fb d4 3b
       -0.0024188217 0.0074822186 0.1119283 0.0064997002
000060 64 50 6d bd f1 da ca bd 81 0e f3 3c e2 c8 bb 3d
       -0.057937995 -0.09905041 0.029670002 0.09169175
000070 83 8e f5 bd 5d c4 9d bd 06 85 ff 3d ab 03 d7 3d
       -0.119900726 -0.07703469 0.12476544 0.104987465
000080 13 03 57 3d b2 d9 27 bd 2d 37 44 3d 09 76 97 bc
       0.052493166 -0.040979095 0.047904182 -0.0184889
000090 38 ec 34 bd 93 b8 ad bb 9d 10 54 bd 8c ba b2 3c
       -0.04417059 -0.005301544 -0.051773656 0.021817468
0000a0 0f 3f f3 3d c8 e6 12 bd c8 17 f2 bd bd 94 43 3c
       0.11877262 -0.03586462 -0.11820942 0.011937317
0000b0 32 03 9b 3d af ff aa bd 90 5b 9e bc 75 63 a8 bd
       0.07568969 -0.08349549 -0.01933077 -0.08222095
0000c0 e7 de 22 bc 5f d2 8f 3d 20 58 c3 3d 46 d0 95 3d
       -0.009940839 0.07022547 0.09538293 0.07315116
0000d0 41 93 da 3d 16 ec a9 3c 99 08 da bc 0e 58 e9 bd
       0.10672618 0.020742457 -0.026615428 -0.11393748
0000e0 0c 4e ba bd f8 c3 a1 bd a8 73 a6 3c b0 79 95 3d
       -0.090969175 -0.07898706 0.020318821 0.07298601
0000f0 c6 c8 cf 3c 71 d7 d7 3b 22 a3 52 3d c7 7a 74 3d
       0.02536429 0.006586962 0.051425107 0.059687402

bias_hh_l0 f4 [64]
000000 c2 5e 78 bd fe 8e 1a 3d 5b dd b6 bd 12 33 c1 bd
       -0.060637243 0.037734024 -0.08928939 -0.09433569
000010 d6 12 e8 bd 59 84 ea bd 4c 01 0a 3d cc 7e 83 bd
       -0.11331718 -0.114510246 0.033692643 -0.06420669
000020 c9 62 d4 bd 35 f8 ce bc cd 66 54 3c 0b 5c 55 bc
       -0.10370404 -0.025264839 0.012963963 -0.013022433
000030 58 32 eb bd f2 47 e8 bd 7c 90 b0 bc 79 ff f7 3c
       -0.11484212 -0.113418475 -0.02155327 0.030273186
000040 df e6 d1 3c 1c 93 c1 3d d6 97 ee bd bf 22 f5 bc
       0.025622783 0.09451887 -0.11650054 -0.029923795
000050 56 f2 ae 3d 14 d9 da 3d 26 4b b4 bc 0f b2 b0 3d
       0.08542316 0.106859356 -0.02200849 0.08627712
000060 b2 96 a2 bc 34 ba fe bc 31 86 e7 3d dd d7 15 3d
       -0.019847248 -0.031094648 0.11304892 0.036582816
000070 b6 5e 8a bc db db 80 bd 90 00 5b bd 85 29 97 3d
       -0.016890865 -0.06291934 -0.053467333 0.07380966
000080 d2 08 ec 3d 69 1f de bd 71 c3 ef bd 69 f5 f2 3d
       0.1152512 -0.10845835 -0.11707199 0.118632145
000090 4f 51 b4 3c c6 06 51 3c eb 80 61 3d 4d d3 8a bd
       0.022011427 0.012757963 0.055054586 -0.06778584
0000a0 39 0c f3 bc dc 4f 04 bd de fb 1a 3d f4 ad 76 bd
       -0.029668914 -0.032302722 0.037837856 -0.06022449
0000b0 6c db 2e bd 73 02 34 3c 18 19 c0 3d c9 05 ac bd
       -0.042689726 0.010986912 0.09379786 -0.08399541
0000c0 83 31 9a 3d cf a5 b5 3d d6 9b 36 bd fe 34 1f 3d
       0.07528975 0.08869516 -0.04458221 0.038868897
0000d0 26 ed 1b bd c5 e3 b9 bd 87 d1 a1 bd e6 14 83 3c
       -0.03806796 -0.09076647 -0.07901292 0.016001176
0000e0 da b1 c0 3d f0 38 be bd 1c a8 69 bd 16 95 ff 3d
       0.094089225 -0.09288204 -0.057045087 0.12479608
0000f0 fc 9e b1 3d eb 12 ac 3d 9a a6 dc 3d 95 07 c9 bd
       0.08672902 0.08402046 0.10773964 -0.09815899

weight_ih_l1 f4 [64, 64]
000000 42 49 fd bd 6b 86 29 bd dc 81 20 bd 91 db f0 bd
       -0.123674884 -0.041387957 -0.039186344 -0.11760629
000010 dd a1 0b bd a7 0b f6 3d 15 b4 8d 3d 23 ad e8 bd
       -0.03408991 0.12013941 0.069191135 -0.11361148
000020 57 3f f2 ba 8d c6 81 bc a2 78 ea 3d 26 5c 56 3d
       -0.0018482012 -0.015841747 0.1144879 0.052333973
000030 97 b8 df ba 1d 94 dd bd 52 f4 7b 3d 2f e9 1e bd
       -0.0017068562 -0.10819266 0.0615123 -0.0387966
000040 5e 42 2c 3d 3a c2 8f bd a5 ab cb 3d 08 14 a1 3c
       0.04205548 -0.07019468 0.09944848 0.019662872
000050 07 d7 c9 bd 34 fd a4 3d d2 41 e1 3c cc 76 47 3d
       -0.09855466 0.08056107 0.027497206 0.048697278
000060 fc 25 b3 3d 9c b5 c3 3d 85 c3 c8 3d 5a 4e e3 3c
       0.08747479 0.095561236 0.098029174 0.027747322
000070 42 cc 4a 3c 3b b5 49 3d 44 bc a6 3d 37 4d e7 bc
       0.0123778 0.0492451 0.081413776 -0.028235061
000080 72 ac 78 bd 86 54 f9 3d 88 2b ae bd 7a 44 8b bc
       -0.06071133 0.12174325 -0.08504397 -0.017000426
000090 1f 1b 76 bd 12 4e e4 3d 92 77 a9 3d ac 1f f0 3b
       -0.06008446 0.11147703 0.08274759 0.0073279943
0000a0 94 6b cd 3d 7c 1d a1 bd 42 db 80 bd 21 68 40 3d
       0.100302845 -0.07866952 -0.0629182 0.046974305
0000b0 f5 25 dc 3d cc 0c fd bd 5d 2a 83 bd b7 92 ec 3d
       0.10749427 -0.123559564 -0.064045645 0.11551421
0000c0 ba 6d 1b bc fb 4b 67 3d 3f 8b c3 3d 85 d4 e1 bd
       -0.00948661 0.056468945 0.095480435 -0.11026863
0000d0 df 70 98 bd 89 d6 91 3d 20 9a b8 bd d0 73 9b 3d
       -0.074434035 0.071209975 -0.09013772 0.07590449
0000e0 2e 56 f3 bd 28 c9 f5 3d ee 22 d7 3d 66 2d 9c bc
       -0.11881672 0.12001258 0.10504709 -0.019064616
0000f0 e0 22 fa bd e0 d2 53 3d be 65 eb bd 13 29 0a 3d
       -0.12213683 0.051714778 -0.11494015 0.033730578
000100 de 49 df bd 88 ae ad bd 81 3a d0 3d 77 af df bd
       -0.10902761 -0.08480555 0.10167409 -0.10922139
000110 2b c8 3a 3d bb 9f 0c bd cb 81 b8 bd 33 aa 5e bd
       0.04560105 -0.03433202 -0.09009131 -0.054361533
000120 2c 5d 2c bb 9f 9e 84 3c f4 92 8a bd 2c c5 e5 3d
       -0.0026300652 0.016188918 -0.0676631 0.11219248
000130 64 06 f4 bb 6a 61 1f 3d fb f1 28 3d c8 eb 38 bd
       -0.007447051 0.03891126 0.041246396 -0.045146734
000140 91 9a 8f 3d 8c a8 64 bd a7 f3 9d bd b4 65 b4 3d
       0.07011903 -0.0558248 -0.077124886 0.08808461
000150 fc 0a 81 bd b2 42 88 3d a5 01 c3 3d 27 e1 16 bd
       -0.06300923 0.06653346 0.09521798 -0.036835816
000160 ec 40 b0 bd 2c 8c 9c 3d c9 82 32 bd 3e 27 4c 3d
       -0.08606133 0.07643923 -0.043581758 0.04984211
000170 b1 c4 01 3d 40 a9 0d 3d ea 95 a1 bd f1 01 87 3d
       0.03168172 0.034585238 -0.07889922 0.06592167
000180 ee 13 7f 3c a2 5d 95 bc 25 a5 a0 3d 33 24 dd 3d
       0.015568716 -0.018233124 0.07843999 0.1079792
000190 89 e2 e3 3d e1 1a f9 bd 33 47 9c 3d 8d b5 13 3d
       0.111271925 -0.1216333 0.07630768 0.036061812
0001a0 67 f1 d5 3d b2 d3 31 3c 4d c4 42 bd 09 c8 d5 bd
       0.104464345 0.010853695 -0.04755049 -0.10438544
0001b0 ed a8 ea bd 3a 8d fe bd 0c 95 c3 bd ba d6 3c 3d
       -0.11458001 -0.124292806 -0.09549913 0.046103217
0001c0 df 78 79 3c 43 1f c3 bd 56 35 4a 3d 5d f6 8a bd
       0.015226572 -0.09527447 0.04936727 -0.06785271
0001d0 7a e8 01 3d 4a 6c ba bd 4b 32 ac 3d 94 3c ad 3c
       0.031715848 -0.09102686 0.0840803 0.02114705
0001e0 53 b9 5e 3c 5c 7d 3c 3d 99 4e b1 bd bc 81 da 3c
       0.013593989 0.04601799 -0.086575694 0.02667319
0001f0 86 c7 f7 bd 19 23 59 3c bd ba 36 bd fb d7 45 3d
       -0.12098603 0.013252997 -0.04461168 0.04830168
000200 f0 5a 30 3d 35 0d 32 3d 5e 6c 2f 3d 53 1a 4a 3d
       0.043055475 0.043469626 0.042827956 0.04934151
000210 db ec 86 bd fc 2b 7d bd 2e 2d 04 bd d5 1d 12 bd
       -0.06588145 -0.061809525 -0.03226965 -0.03567298
000220 df c5 7d 3d da 64 93 bd cf 3c f3 bd 12 c5 bf 3d
       0.061956283 -0.0719697 -0.11876833 0.0936376
000230 2a 74 a1 3c 0f 67 f0 3b ac e7 36 3b 3d cb cf 3b
       0.019708712 0.0073365043 0.0027909083 0.0063413666
000240 25 ba c8 3d 02 3a b0 3c 08 59 e0 bd 78 58 e0 bd
       0.09801129 0.021512035 -0.10954481 -0.10954374
000250 70 3e a5 3c 63 27 ff 3d 84 03 8f 3c 89 d0 5a bd
       0.020171374 0.12458684 0.017457731 -0.05342153
000260 e4 74 0e bd e4 b8 de bd 3f 2d 36 3d 5c 3c 9e 3c
       -0.034779444 -0.10875109 0.044476744 0.019315891
000270 42 a1 f1 bc 48 68 04 bd 72 2b 4d bd 42 aa df 3d
       -0.029495839 -0.032326013 -0.05009026 0.10921146
000280 1e c2 a5 bc fb 5f a0 bd 7a 94 21 3d a3 f2 c5 bc
       -0.020234164 -0.07830807 0.03944824 -0.02416355
000290 78 5f a7 3d eb 3d 7b 3d c0 09 72 3d 3c eb 2c bc
       0.08172506 0.061338346 0.05909133 -0.010554131
0002a0 38 24 f2 3c 29 3b 85 3d 14 ad f2 3b 13 de 84 3d
       0.029558286 0.065054245 0.0074058864 0.0648767
0002b0 a5 58 92 3d 3d e2 0c bd c9 18 5a 3d 71 2d bc 3d
       0.07145814 -0.034395445 0.053246293 0.09188355
0002c0 99 34 85 bd b1 9a cb 3c 18 bd 5e 3a 77 0e 99 bb
       -0.06504173 0.024854036 0.0008496805 -0.004670914
0002d0 31 96 e7 bd fc 28 ee 3c 30 29 ad bc 98 41 c2 bd
       -0.113079436 0.029072277 -0.021137804 -0.09485167
0002e0 8a 9c a6 3d 01 e9 c4 3d 4e cf ea bd ef fc 92 3d
       0.08135326 0.096147545 -0.114653215 0.071771495
0002f0 b2 d3 31 bd 47 37 33 bc 41 94 fa bd f0 f0 b5 3d
       -0.04341478 -0.010938472 -0.122353084 0.08883846
000300 ab 37 d6 3c 97 42 16 bd 30 e4 81 bd 70 f8 38 bd
       0.026149591 -0.0366846 -0.063423514 -0.045158803
000310 cd 07 bd bd 76 ce 09 bd 26 3c 96 3d 5d 43 a9 3d
       -0.092300035 -0.033644162 0.07335691 0.08264802
000320 36 5d 44 bd 73 17 d3 3d d8 d3 4a 3d 48 68 17 3d
       -0.047940455 0.10307207 0.049518436 0.036964685
000330 c5 4e a5 bc d2 56 e0 bd 7c f5 b1 3c a3 73 92 bd
       -0.020179162 -0.1095406 0.021723501 -0.07150962
000340 69 72 39 bd fc 2c fc bd 46 41 3a 3d 1e b8 71 bd
       -0.045275126 -0.123132676 0.045472406 -0.05901348
000350 d4 e0 53 3d 9a ab 93 3d bd 52 67 bd 9c 9e f4 bc
       0.051728085 0.07210465 -0.05647539 -0.029860787
000360 c2 6c 25 bd 6a 00 b3 bc d3 0e fc bd 70 51 a3 bc
       -0.040386923 -0.021850783 -0.12307515 -0.019936293
000370 c3 2d 38 bc dc 02 43 3d 0c 6e 8c bc de 5c ec 3d
       -0.011241379 0.04761015 -0.017142318 0.115411505
000380 c8 09 a8 bd 86 18 6c 3d 3b 85 77 3c 8b 7c f5 3c
       -0.082049906 0.057640575 0.015107448 0.029966613
000390 c1 97 9f 3c 98 86 c0 bd 70 6c 5c bd 9c f4 81 bc
       0.019481542 -0.09400672 -0.05381435 -0.01586371
0003a0 65 f0 c4 3d e5 f1 a8 bc fe ec 0e bd c2 13 c2 bd
       0.09616164 -0.020623157 -0.034893982 -0.09476425
0003b0 7a 20 50 3d eb 49 c6 3c 2b 20 e6 bd 14 cf 8e bd
       0.050812222 0.024205169 -0.11236604 -0.06973091
0003c0 92 49 76 3d 90 aa 8e 3d e9 a0 a8 bd ef 92 a0 bc
       0.060128756 0.06966126 -0.08233816 -0.019601313
0003d0 be fa c4 bc 67 9f 84 3a 26 49 dd 3d 9c cd 14 3d
       -0.024045344 0.0010118306 0.108049676 0.036328897
0003e0 89 09 a7 bd 56 2c c4 bd 02 75 0a bc bc 7b 2d bd
       -0.081561156 -0.09578769 -0.008450748 -0.04235433
0003f0 fc fe bc bd 12 a1 68 bd 10 8c 92 3d 12 8d 65 3d
       -0.09228322 -0.056794234 0.07155621 0.05604274

weight_hh_l1 f4 [64, 64]
000000 cf 07 f4 bd 71 ef b4 bd 6d d9 08 3d 61 99 7e 39
       -0.11915552 -0.08834732 0.03341048 0.00024280466
000010 6b 15 16 3d fc ff 2f 3d 3a 4d fa 3c e3 06 b3 bc
       0.03664152 0.042968735 0.030554403 -0.02185387
000020 a4 00 e6 bd 4b d1 ed 3c 92 1d b0 bd 8d 65 8e bc
       -0.11230591 0.029030463 -0.0859939 -0.017382408
000030 db 1f 72 3d db 04 fc bc ff 82 da 3c 1b ca 95 bc
       0.05911241 -0.030764034 0.026673792 -0.018284848
000040 54 59 ce bd fe db 86 bd aa 8e 83 bb 8e d9 88 bd
       -0.10075632 -0.06584929 -0.0040148096 -0.0668212
000050 22 05 a7 3d 97 d5 b4 bd f4 8d d7 3d cb b3 1e bc
       0.08155276 -0.088298015 0.10525122 -0.009686421
000060 4a 3e f5 3d 17 03 62 3d 20 56 72 bd 7f 92 45 3d
       0.11974771 0.055178728 -0.059164166 0.048235413
000070 ce a8 ab bd 9b 37 9e 3d 50 5d 51 bd 9e 63 1e bd
       -0.08381806 0.0772545 -0.05111438 -0.03866922
000080 2c 01 87 bd 0c e9 45 bd 43 b0 9c 3d 9f 6b b9 3d
       -0.065920204 -0.048317954 0.07650807 0.0905373
000090 14 a7 c3 3b c7 0b d2 3d 0f c6 98 3d ac c1 bd bd
       0.005970845 0.102561526 0.07459652 -0.092654556
0000a0 9d 84 80 3c 8e a7 83 3c 48 39 19 3c db e9 36 3a
       0.015688235 0.016071107 0.009352036 0.0006977596
0000b0 dc 62 21 3d f0 ff e9 3d 9c 21 6d 3d e7 d5 87 bd
       0.03940092 0.11425769 0.05789338 -0.066325955
0000c0 38 44 9a 3b a6 03 b9 bd 6e 45 72 3d 6d c3 f8 3c
       0.0047078393 -0.09033899 0.059148245 0.030366624
0000d0 6a f6 fd bd 6c 09 d9 3d 87 20 28 bd c5 52 2d 3d
       -0.124005154 0.105975 -0.041046645 0.042315263
0000e0 cf de d6 bd 9c 94 ab 3d dc 82 c3 3c a4 7d ef 3d
       -0.10491716 0.08377954 0.02386611 0.11693886
0000f0 42 d5 52 3d c7 4f f5 bd cc d2 bb 3d 63 e4 c6 3c
       0.05147291 -0.11978107 0.09171066 0.024278825
000100 f3 62 f3 bd f3 59 2c 3d d2 49 53 bd 66 aa e9 3c
       -0.118841074 0.04207797 -0.051584072 0.028523635
000110 33 88 e0 bd b6 dd 4a bd 6f 43 bb bc f9 e5 e8 3d
       -0.10963478 -0.049527846 -0.022859303 0.11371989
000120 c3 95 15 3d ff 43 eb 3d b2 fd 88 bb ad 5e 44 bd
       0.036519777 0.114875786 -0.0041806335 -0.047941852
000130 9f 59 d9 3d 37 86 84 3d d1 03 30 3d eb 42 a4 bd
       0.10612797 0.06470912 0.04297239 -0.08020576
000140 3a 0b a2 bc 39 49 39 3d 47 9f 0d bd dd ca f4 3d
       -0.019780744 0.045235846 -0.034575727 0.119527556
000150 5f 3d d6 3d 2d d9 e7 3d c8 25 ad bd 3e fe d1 ba
       0.10460924 0.1132072 -0.08454472 -0.0016021205
000160 70 24 80 3d 3c f0 96 3c 3a 19 2e 3d e8 c5 8e 3d
       0.0625695 0.0184251 0.042504527 0.06971341
000170 f0 85 45 3c 2e c6 c8 3d 9e c1 1b bd c9 66 82 bd
       0.012055859 0.09803425 -0.038026445 -0.06367261
000180 15 3a ee 3d c2 84 e3 3c b4 47 fb 3c cd 7d f5 3d
       0.11632172 0.027773265 0.03067384 0.11986885
000190 04 78 e8 3d 01 a3 c2 bd 29 da a3 bd c8 89 ba 3d
       0.11351016 -0.09503747 -0.08000595 0.09108311
0001a0 e3 5a 4c 3c 6a ff 75 bd 4f e4 ab bc 65 aa 92 bd
       0.012472841 -0.060058035 -0.02098289 -0.071614064
0001b0 52 a8 ae bd a0 c6 55 3c 3b c0 ee bc 3f f5 c6 bd
       -0.08528198 0.013047844 -0.029144397 -0.09714746
0001c0 2c 87 bb bd 79 d4 4a 3d 13 ad 8d 3d b7 da cf bd
       -0.09156641 0.049519036 0.06917777 -0.101491384
0001d0 f1 28 a5 3d ba 4b fc bc 19 ce 0a bd 29 ea 84 3d
       0.080644496 -0.030797828 -0.033887956 0.06489975
0001e0 6a bf 5c bd 8c 95 de 3d ed 10 26 bd 61 32 87 bd
       -0.053893484 0.108683676 -0.040543485 -0.06601406
0001f0 24 6a 39 3d 5b 89 ad 3d 6c bf d4 bd de 49 d8 bd
       0.04526724 0.08473464 -0.10388073 -0.10560964
000200 a3 ae b1 bd c2 e8 d1 39 35 64 44 3c 08 b8 17 bc
       -0.086758874 0.00040037005 0.011986782 -0.009260185
000210 b3 0d a1 bd 01 21 2e bd aa b8 ac 3d b3 3c 7c 3d
       -0.07863941 -0.042511944 0.084336594 0.061581325
000220 e3 58 de 3d 41 98 ff 3d 34 7c b1 bd db 19 71 3d
       0.108567975 0.12480212 -0.08666268 0.05886255
000230 bb 9e ab bd 10 36 23 3d d0 fc f6 3d 6b ed 81 3d
       -0.08379885 0.03984648 0.12059939 0.06344112
000240 8a 51 66 bd 6b 51 f8 3d 54 0d 8e 3d 1b ee b8 bd
       -0.056230105 0.12124904 0.06936136 -0.0902979
000250 4d 4b 91 3d a6 1b c0 bd 40 37 d7 3d 4c fb 7d bd
       0.070944406 -0.093802735 0.10508585 -0.062007234
000260 6b 33 c7 3d 18 15 c3 3d c8 f5 2f bc 74 41 02 bd
       0.09726604 0.09525508 -0.010739751 -0.031800702
000270 b4 02 b2 3d b8 66 34 3d 66 10 11 bd b8 b8 be 3d
       0.08691922 0.044043273 -0.03541603 0.09312576
000280 92 16 79 bd 8b 32 9a 3b 85 59 e3 bd 52 f7 dc 3d
       -0.06081254 0.004705732 -0.11101059 0.1078936
000290 b0 58 0d 3d 2d 78 c7 3c 25 cb 6c bd 2e d0 cb 3d
       0.034508407 0.024349296 -0.05781092 0.099518165
0002a0 05 5a e6 bb ca da 7d bd 52 f0 a6 3d 59 a4 ed 3d
       -0.007029774 -0.06197623 0.08151306 0.116036125
0002b0 5b cf fd bd fc 8d db bc a9 75 9e 3d 50 12 bb bc
       -0.123930655 -0.026801102 0.07737286 -0.02283588
0002c0 82 20 ab 3d 98 16 20 bd bd 54 57 3b 30 e2 ef 3d
       0.0835581 -0.039084047 0.0032856904 0.11713064
0002d0 77 22 4c 3d 27 99 9d bd b1 51 b7 bd 08 2b c4 bd
       0.049837556 -0.07695227 -0.08951128 -0.0957852
0002e0 84 04 f2 3c 4e d6 b5 bd 5d cd ce bd 52 db c1 3b
       0.029543169 -0.08878766 -0.10097764 0.0059160376
0002f0 7a 41 d9 bd 06 ea 1e 3d 22 8a de 3d 8f fe 95 3d
       -0.10608192 0.0387974 0.108661905 0.07323944
000300 3c c4 d2 3d 0b f3 e3 3d 49 12 c5 3d 12 d8 84 3d
       0.10291335 0.11130341 0.09622628 0.06486525
000310 7b 1f eb 3d 5d b8 c5 bd 71 20 a3 3d 46 9b 01 bd
       0.11480614 -0.09654305 0.07965172 -0.03164222
000320 43 bc 19 3d ff 0e ff bd 20 3d b0 bd 1f 69 4e bd
       0.037533056 -0.12454032 -0.08605409 -0.05039322
000330 e6 bf 25 3d 2a e3 88 3c 6d b3 af 3d 10 8a b3 3d
       0.04046621 0.016709883 0.085791446 0.08766568
000340 af 05 27 bd 41 17 94 bd 27 d3 e9 bd b3 c0 ec 3d
       -0.040776905 -0.07230998 -0.11417227 0.11560192
000350 92 3d a2 bd 8d 63 ad 3d 6d 25 f7 3d 86 03 58 bb
       -0.079219 0.084662534 0.12067685 -0.0032961085
000360 29 9e 2d bd a3 97 c1 3d 09 59 30 3b 37 52 da 3d
       -0.04238716 0.094527505 0.0026908538 0.106602125
000370 1d b7 cf 3d c9 c8 46 3b 1b 30 e5 bc f4 a5 37 3d
       0.10142348 0.003033208 -0.02797704 0.044836
000380 db 76 e4 3c 39 fb f6 3d 98 7d 27 bd 57 0e 88 bd
       0.027888706 0.12059636 -0.04089126 -0.0664336
000390 b7 50 f2 bd 6c 9e 1b bd 9f 7f 32 3c b5 36 34 bd
       -0.118318014 -0.03799288 0.010894685 -0.043997485
0003a0 33 f6 81 3d ff fd 92 bc ab c8 86 bd 5b 2f fa b9
       0.06345787 -0.01794338 -0.06581243 -0.00047718998
0003b0 64 9e c7 3d 60 25 10 3d ed aa 93 bc 76 a5 1d 3d
       0.097470075 0.035191894 -0.01802584 0.038487874
0003c0 c4 4f 07 3d ea 4b b5 3d 1c b1 32 bd 64 61 b5 bd
       0.033035055 0.0885237 -0.043625936 -0.088564664
0003d0 8b 5d 5a 3d b5 dc 66 bd ca 9d d3 3d 4b 40 bc bd
       0.053311866 -0.056362826 0.1033283 -0.091919504
0003e0 66 42 b4 3d d0 8f cc bd 4e 6d d5 3c 6e 39 4b bd
       0.08801727 -0.099883676 0.026053097 -0.049615316
0003f0 02 3f fd bd 48 dd 7b 3d 6c ac 57 bd c9 b0 a9 3d
       -0.123655334 0.061490327 -0.05265467 0.08285672

bias_ih_l1 f4 [64]
000000 21 61 4e 3d 31 d9 9b 3d 6b b3 52 bd ba 04 b7 3d
       0.050385598 0.07609785 -0.051440638 0.089364484
000010 1e d0 4b 3d 96 d6 a7 bc 8b fb 51 3d 2d 83 7d 3d
       0.049759023 -0.020488065 0.05126528 0.061892677
000020 cc 0c 9b bd 7a bb 6c 3d a1 f4 ca bd 7d 81 02 3d
       -0.075708 0.05779598 -0.099099405 0.03186177
000030 fe 99 79 bd d6 71 38 3d 7e 74 08 bd 72 01 8e bd
       -0.060937874 0.045030437 -0.03331422 -0.069338694
000040 76 d3 db bd 8c 4b d1 3d e4 79 03 bd fa 34 b4 bd
       -0.10733692 0.102194875 -0.032098666 -0.08799167
000050 e3 03 85 3c 03 92 e0 3d 7a 8b 6c bd f9 6f da 3d
       0.016237205 0.109653495 -0.057750203 0.10665888
000060 49 61 14 bd d5 48 53 3d dd 0e 87 bd ac a3 64 bd
       -0.03622559 0.05158313 -0.06594632 -0.055820152
000070 d1 b8 16 3d 14 7e fe bc 32 83 ec bc f3 57 5d bc
       0.03679735 -0.031065978 -0.028871153 -0.013509738
000080 24 6b 7e bd b5 cf 93 3d ee 2f c6 3d e9 54 45 bc
       -0.062113896 0.07217351 0.096771106 -0.01204417
000090 ea 94 52 bd 0e 4f 9b bd 15 64 26 3d 24 ac 37 3b
       -0.051411547 -0.07583438 0.04062279 0.0028026188
0000a0 42 79 89 bb 77 04 7b bd 02 67 95 bd 5b 85 ac bd
       -0.0041953633 -0.061283555 -0.07295038 -0.08423873
0000b0 b6 e5 3b bd fb c5 85 bd 53 98 81 bd d0 4c e3 3c
       -0.045873366 -0.065319024 -0.06327882 0.027746588
0000c0 12 92 c5 3d 75 04 cb bd 71 52 6d bc d0 82 fd bc
       0.09647001 -0.099129595 -0.014484988 -0.030946165
0000d0 02 51 93 bd 66 d3 90 3d 23 22 a6 bd a4 bc eb 3d
       -0.071931854 0.07071571 -0.0811198 0.1151059
0000e0 6a 9a 83 bb 08 9b d7 3d 53 21 db bc 97 a8 67 3c
       -0.0040162103 0.10527617 -0.026749289 0.014139316
0000f0 36 e7 06 bd 96 a4 64 3c 00 5f b8 bd 43 8b 70 3d
       -0.032935344 0.013955256 -0.09002495 0.05872656

bias_hh_l1 f4 [64]
000000 37 f4 36 bd e5 c9 34 bd 68 78 de bd 4e 08 c6 3d
       -0.044666495 -0.044137854 -0.108628094 0.09669553
000010 99 0b b9 3d fa 0f fe bd 95 56 37 bd c9 7e b3 3c
       0.09035415 -0.12405391 -0.044760305 0.021911042
000020 67 59 4c 3d 4e e2 df bb 61 e5 c2 bd c5 4a 49 3d
       0.04988995 -0.0068323975 -0.09516407 0.04914357
000030 4d e5 cc bd 04 e8 ed 3d d2 c1 0f 3d 08 07 eb bd
       -0.10004673 0.11616519 0.03509695 -0.114759505
000040 f4 aa dd bc d0 27 9a 3d 74 fc 06 3d 54 99 fc bd
       -0.027059056 0.07527125 0.0329556 -0.123339325
000050 31 4f c2 bd 81 ba ae 3d 60 c5 d2 bd 55 b2 36 3d
       -0.09487761 0.085316665 -0.102915525 0.044603664
000060 c3 26 16 bc 37 e1 4c bd 4d 49 85 3d f8 2c 56 3d
       -0.009164515 -0.05001947 0.06508122 0.05228898
000070 3a 0f cc bd 1f 51 f8 bd 01 95 b0 bd 1f 39 80 bd
       -0.09963842 -0.121248476 -0.0862217 -0.06260895
000080 28 a4 10 bd 72 c9 5b bd 70 9e fb bd 89 b3 d4 bd
       -0.0353128 -0.05365891 -0.12286079 -0.10385806
000090 da 0d 85 bd 5c 9a d5 3d b1 dd 20 3d 9a 7b 90 3d
       -0.064967826 0.10429832 0.03927392 0.07054825
0000a0 78 03 51 3d e9 86 32 3d 22 c7 9f 3d a7 c8 84 bd
       0.0510287 0.04358569 0.078016534 -0.06483584
0000b0 55 70 b8 3d e3 3f 39 bd 60 2c 6c bd 80 c1 a3 3c
       0.09005801 -0.045226943 -0.057659507 0.019989729
0000c0 00 0e 84 bc 35 56 f0 bd 79 17 95 bc 90 57 de bd
       -0.016119957 -0.11735193 -0.01819967 -0.10856545
0000d0 60 6d d8 bc a3 2f 54 bd 7d 84 e7 3d 40 b4 a1 bd
       -0.026419342 -0.051803242 0.11304567 -0.07895708
0000e0 70 b9 d4 3d d8 90 e5 3d 7e 65 05 3d 5d c5 f8 3d
       0.10386932 0.112092674 0.032567494 0.12147019
0000f0 53 2b c1 bd 95 00 0f 3b 42 55 a8 bd 71 cf d4 3d
       -0.094320916 0.0021820415 -0.08219387 0.10391129

weight_ih_l2 f4 [64, 64]
000000 46 48 87 3d 2f 69 b6 bd 2c c4 10 bc 76 26 e2 bd
       0.06605582 -0.08906781 -0.0088358335 -0.11042492
000010 8f 8f 5e 3c 13 56 ac 3d b7 e1 c8 3d c0 45 94 bd
       0.013584032 0.08414855 0.09808677 -0.07239866
000020 da 67 40 3d d8 61 fa bd 90 9b 10 bd 3a 4d 63 bd
       0.04697404 -0.122256935 -0.035304606 -0.05549357
000030 2c de a7 3d c0 ec a5 3d 26 84 2b bc 7c 9e c5 3d
       0.08196673 0.08101797 -0.010468518 0.09649369
000040 ae fa ae bc 39 99 7a 3d 80 0f c9 3d 7e 8a 0a 3d
       -0.021359768 0.06118128 0.098174095 0.033823483
000050 4c 7d 17 bd fa 04 06 3d 34 b9 32 3c 36 0b 56 3c
       -0.036984727 0.03271959 0.010908414 0.013064196
000060 ac e7 9c bb 79 1e c9 bd 67 9c ed 3b 5c 98 8c bd
       -0.0047883596 -0.09820265 0.0072513106 -0.06864998
000070 13 e3 d1 bd 81 7d 87 3d 91 6d 45 3b 4f 47 27 bd
       -0.10248389 0.06615735 0.003012512 -0.04083949
000080 7e ca 9d bc df c2 b7 3d 13 24 d0 bd 96 b3 07 3d
       -0.019261595 0.089727156 -0.101631306 0.03313025
000090 89 ff 05 3d b9 f4 77 3d fa 20 43 3d 6a de d0 3c
       0.0327144 0.06053612 0.04763887 0.02549668
0000a0 01 da dd 3d cd 07 28 bd 4d 84 cf bd 99 c7 69 3c
       0.108325966 -0.041023064 -0.10132656 0.014268779
0000b0 a7 ef 22 3c 50 00 99 3d cf 9c 8f 3d 49 51 22 bc
       0.009944833 0.07470763 0.07012331 -0.009907075
0000c0 d3 52 96 bd cb 53 bb 3d aa 42 d3 bd 98 e2 dd 3d
       -0.07340016 0.091468416 -0.103154495 0.10834235
0000d0 b8 cf 9f 3d 52 1d db 3d 50 ee 75 bd 4c 52 fc 3c
       0.07803291 0.10698952 -0.060041726 0.030800961
0000e0 1e b2 d9 bd 65 a2 c1 3d 85 e8 a6 3c 11 0b ad 3d
       -0.10629676 0.094548024 0.020374546 0.084493764
0000f0 41 ff e5 bd 2e 8b d4 3d e6 36 b6 bd f1 be ab 3d
       -0.112303264 0.10378109 -0.0889719 0.083860286
000100 91 93 1e 3a 4a 02 a6 bd e0 f2 8b bd 45 8e 93 3d
       0.0006049211 -0.08105905 -0.06833434 0.0720487
000110 23 24 ad bc 36 3a 50 bd 85 b0 97 bd c6 96 cb 3c
       -0.021135395 -0.050836764 -0.07406715 0.024852168
000120 31 bd a9 bd 27 a0 aa bd 7d ad 99 3b a4 7c c7 bd
       -0.082880385 -0.08331328 0.004689871 -0.0974057
000130 af 51 62 3d 7c 86 c3 bd 03 46 ea 3c 53 54 d5 3d
       0.05525368 -0.09547135 0.028597837 0.10416474
000140 48 2b 50 bd ee 65 73 3c 70 91 86 3d c9 02 e2 bd
       -0.050822526 0.014855845 0.06570709 -0.110356875
000150 0e ac 9a 3d 9f 9f cf 3d 60 94 37 bd 37 ed 13 bb
       0.07552348 0.10137867 -0.044819236 -0.002257181
000160 70 6b 8c bd 7e a8 51 bd e9 a9 7c 3d b5 55 ee 3d
       -0.068564296 -0.051186077 0.061685476 0.11637441
000170 26 cc fa 3d ce ce dc bd 3c 1b ec bc 9b 54 c4 3d
       0.122459695 -0.10781632 -0.02882158 0.0958645
000180 08 f2 89 3c 13 df da 3d 29 e7 d3 3c 95 0f 71 3d
       0.016839042 0.10687079 0.025867062 0.05885275
000190 2e 13 1a bc 40 34 31 3c a2 35 b7 3b 21 bc f4 3d
       -0.009403987 0.01081568 0.0055911103 0.11949945
0001a0 78 67 aa bd b5 8d 11 bd 03 17 88 3d ac f3 9b 3c
       -0.08320516 -0.035535533 0.06645014 0.01903709
0001b0 34 c9 5c bd e5 e0 5d 3d 71 3b cf bd 77 98 eb 3d
       -0.05390282 0.054169554 -0.101187594 0.1150369
0001c0 6d 98 be bd 69 28 d6 bc fa 8c 3b bd 4e ef 2e bd
       -0.09306417 -0.026142316 -0.045788743 -0.042708687
0001d0 31 38 c8 3c 1e 0d e1 bc b2 5b 39 bd 44 b7 c8 3d
       0.024440857 -0.027472075 -0.045253463 0.0980058
0001e0 fe 03 3a 3d bd 8d 54 bd 8f 11 d5 3d 74 c9 f4 bd
       0.045413963 -0.051892985 0.1040374 -0.11952487
0001f0 7e f1 fa 3d cd 79 04 3d ce f4 fd bd 73 34 c8 bd
       0.12253092 0.03234272 -0.124002084 -0.09775629
000200 2e a5 49 3d 4d 00 0f bd c6 28 d0 3d 6d be 91 3c
       0.049229793 -0.034912396 0.10164027 0.017790997
000210 8f 3f fc bc a5 46 8e 3c c3 0c 30 3a d8 3c 02 bd
       -0.030792026 0.01736767 0.0006715769 -0.031796306
000220 e5 62 d9 3d 7b af e0 bd 0c 0c 43 3c 69 90 f3 3d
       0.10614566 -0.1097097 0.011904728 0.118927784
000230 d1 7a da 3c 65 dd cd 3c 6e 61 a3 bd 61 e1 c6 3b
       0.026669892 0.025129983 -0.079775676 0.0060693477
000240 65 de b9 3d 5f 25 4d bd e0 79 96 bd 3a 3a 55 b8
       0.090756215 -0.050084468 -0.073474646 -5.0837385e-05
000250 27 5b 68 bc 72 3f a3 bc 02 bb e6 bd cb 15 97 3d
       -0.014181889 -0.019927714 -0.11266138 0.073772036
000260 23 13 2c 3c 83 9b 3b bc 45 29 fe bd db fc 44 3a
       0.010502609 -0.011450651 -0.12410215 0.0007514485
000270 c9 e0 ae 3d 56 28 da bd a1 fd 81 3d 01 c7 19 bd
       0.08538968 -0.10652225 0.06347204 -0.0375433
000280 17 db 27 bd 3b 20 8f 3d 9f 41 88 bd 29 35 8d 3d
       -0.040980425 0.06988569 -0.06653141 0.06894905
000290 1b 17 12 3d f3 94 f2 3d 35 a0 23 bd 0b 80 bf bd
       0.035666566 0.11844816 -0.039947707 -0.09350594
0002a0 a0 ea f4 bd fe e5 cf bd 6b 00 bb 3c 34 7a 80 3c
       -0.11958814 -0.101512894 0.022827348 0.015683271
0002b0 99 54 6e bd 63 89 5d 3d e5 f1 a2 3c a5 36 93 bd
       -0.058186147 0.0540861 0.019890735 -0.07188157
0002c0 a7 07 87 3d 69 0e d0 bc 93 8b 02 bd 24 66 dc 3d
       0.065932564 -0.025397496 -0.03187139 0.10761669
0002d0 81 3c 8c 3d 33 cc c1 bd 02 fd a4 3d d9 a1 94 3d
       0.06847478 -0.09462776 0.0805607 0.072574325
0002e0 5c 0e af bd f7 0d d8 3d 98 1f 37 3c cb 39 92 bc
       -0.08547661 0.105495386 0.011176966 -0.017849823
0002f0 fb 22 92 3d c5 00 10 bc c3 9f 4c 3d 95 58 b8 bd
       0.07135578 -0.008789246 0.04995705 -0.09001271
000300 33 0e 44 3d d4 f6 84 bc 2b 8c 03 bd f4 b0 82 bd
       0.047865104 -0.016230978 -0.032116096 -0.063814074
000310 6e f3 b2 bc f2 4c 59 bd 50 1e db bd 45 f7 da 3c
       -0.021844592 -0.053051896 -0.10699141 0.026729235
000320 88 be fb bd cc f9 ee bd 93 65 ad 3b 34 1f da 3d
       -0.122922 -0.11668739 0.0052916496 0.10650483
000330 9f dd dc bd 38 f3 fe bd 56 d3 e5 bd 4d 0e 85 bd
       -0.10784458 -0.12448734 -0.1122195 -0.06496868
000340 dd 32 3b bc 27 2d fa 39 0f 1e ba 3a f8 be fe bd
       -0.011425701 0.00047717357 0.0014199632 -0.12438768
000350 54 a5 97 3d 75 2d d8 3c 86 25 38 3b b8 58 f5 3d
       0.07404581 0.026388863 0.0028098538 0.119798124
000360 20 c8 9a 3d 28 2d a6 bd 60 69 d0 bd 58 b3 5a bd
       0.07557702 -0.081140816 -0.10176349 -0.05339369
000370 00 b6 d0 3c 88 89 1d 3c 82 92 e0 3d 49 92 e7 3d
       0.02547741 0.00961531 0.10965444 0.113071986
000380 3b 2a 85 bd c6 12 35 bd ab a7 87 bc 66 5d fe 3d
       -0.065021954 -0.044207357 -0.016559443 0.12420158
000390 ea 47 ee 3d bf 2d f7 3d 7b d4 c4 3d ff 18 e6 bd
       0.1163481 0.12069272 0.0961084 -0.112352364
0003a0 a7 42 c7 3c 31 ac c0 bd 8c 1b b5 3d 0c 56 c5 3c
       0.024323775 -0.09407843 0.08843145 0.024088882
0003b0 21 b7 90 bd 6c 5f a2 bb 4d a7 46 bc 59 43 a2 3d
       -0.07066179 -0.004955223 -0.012124849 0.07923002
0003c0 ba ad 77 3d ef 02 be 3d e3 a8 93 bd 94 b6 b2 3d
       0.060468413 0.09277903 -0.07209947 0.0872623
0003d0 77 dd 06 3d 67 72 b9 3d b5 f8 ad bd 4f c3 8f 3d
       0.03292605 0.09055024 -0.08494703 0.07019674
0003e0 23 ea c0 bd 60 87 7e 3b 11 01 9a 3d f1 e0 72 3d
       -0.09419658 0.0038838014 0.07519735 0.059296552
0003f0 05 20 4d 3c fc df 61 3d a1 98 f2 bc 9c 5c 28 3d
       0.012519841 0.05514525 -0.029613795 0.041103944

weight_hh_l2 f4 [64, 64]
000000 55 2d da bd 1b f0 bf 3c 5b a8 1e bd 81 50 7c 3d
       -0.10653178 0.02342992 -0.038734775 0.061600212
000010 04 1e e6 bd ea 68 27 ba 7b 7f f1 3d 25 d9 8e bd
       -0.11236194 -0.0006386178 0.11791893 -0.06975011
000020 f0 4a 05 bd a1 88 be bd 9f e8 7b bc 1d 6c de 3d
       -0.03254217 -0.09303404 -0.015375285 0.10860465
000030 47 26 fc 3d 61 9e 46 3d f6 f4 30 bd e3 ed d2 3c
       0.12311988 0.048490886 -0.043202363 0.025748199
000040 d7 1a dd 3d 6a 5d cd bd 84 4a e2 3d 1d 30 c7 bd
       0.10796135 -0.10027583 0.11049369 -0.09725974
000050 72 d5 a1 3d 9a fe fa 3d 4f f0 22 bd ba 64 b8 bd
       0.079020396 0.12255593 -0.039779957 -0.09003587
000060 cb 46 e3 3d 87 07 ee bc d4 2e d4 bd 90 a1 bc bd
       0.11097487 -0.029056324 -0.10360494 -0.09210503
000070 1f 8a c2 bd 03 14 f5 3d 0e 20 cf 3c 79 8e d6 3c
       -0.09499001 0.119667076 0.02528384 0.026190983
000080 50 0b 9b bd 4a e3 13 bd d9 88 98 bd a2 6a 3c 3d
       -0.07570517 -0.03610543 -0.074479766 0.04600013
000090 39 87 46 3d f9 d0 a5 bd 40 0d a0 bd 88 a0 a0 bc
       0.048468802 -0.08096499 -0.07815027 -0.019607797
0000a0 e7 4b 18 bd 34 ee cb 3c 45 21 c9 3c 78 c3 5f 3d
       -0.03718176 0.024893858 0.024551997 0.054629773
0000b0 38 3d ab bd d4 28 67 3c 59 9c 11 3d b3 81 04 bd
       -0.08361286 0.014108855 0.035549495 -0.032350253
0000c0 a7 49 ba 3d 4a 87 27 bd 3b 4e ba 3d 42 0d d2 bd
       0.09096079 -0.040900506 0.090969525 -0.10256435
0000d0 97 0e f0 bc 29 f6 c9 3d 84 b5 05 bd e0 1f 84 bd
       -0.029303832 0.098614044 -0.03264381 -0.06451392
0000e0 ca fe 92 bd a6 27 9a bd de b6 ea bc b9 27 8a 3d
       -0.071775034 -0.075270936 -0.028651651 0.06745858
0000f0 da 35 ea bd 20 64 64 bd ce e1 32 bd e6 5c e9 bd
       -0.114360526 -0.05575955 -0.043672375 -0.11394672
000100 5a a3 a5 bd a4 4b ac 3d 58 f6 c6 3c 5b 21 08 3d
       -0.080877975 0.08412865 0.024287388 0.033234935
000110 50 d3 96 3d e7 28 b1 3d 2c 27 14 3d 39 96 cf bd
       0.073645234 0.0865038 0.03617017 -0.101360746
000120 40 a5 a4 3d 39 c1 34 3d f9 45 a3 3d bf 06 c1 bd
       0.080393314 0.044129584 0.079723306 -0.09425115
000130 fe ce 1d bd b4 1b c7 3d 92 b5 ca bd 14 f1 db bd
       -0.03852748 0.09722081 -0.09897913 -0.107393414
000140 d4 63 81 3d 43 7a b3 bd 84 e4 e3 3c 76 b8 ba bd
       0.06317869 -0.08763554 0.027818926 -0.091172144
000150 7f 42 fe bc c5 d4 09 3c 53 f4 c4 bd c6 0c 7c 3d
       -0.031037567 0.008412545 -0.09616914 0.06153562
000160 09 2f c0 bd ec 42 df 3d 0d 33 31 bb 98 c0 88 3d
       -0.09383971 0.10901436 -0.0027038485 0.06677359
000170 26 c3 8a bd 31 5d d4 3d 4c bc 3e 3d a9 4c 13 bc
       -0.06775503 0.10369337 0.046566293 -0.008990445
000180 dc bb be 3c 8a 4e a4 bc b2 e8 db 3b 87 e0 f9 bd
       0.023282938 -0.020056982 0.006711089 -0.12201028
000190 9f 58 f1 3d a6 0e b2 3d 7f 03 bd bd 06 72 ff 3d
       0.11784481 0.086942 -0.092291825 0.1247292
0001a0 3a b4 89 bd d5 16 c6 bc 89 26 88 3d 45 8a 20 bc
       -0.067238286 -0.024180809 0.06647975 -0.009798591
0001b0 1d a8 6c 3d 74 28 2d 3c b6 4e 1f bd 7a 18 ca bd
       0.057777513 0.010568727 -0.038893424 -0.0986795
0001c0 d1 e3 d4 3d ec 44 a8 3c ca 44 fb bd c6 1e 64 3d
       0.10395015 0.020540677 -0.1226898 0.05569341
0001d0 98 11 c4 3c 30 c5 72 bd 4b db e7 3c 52 2e c4 bd
       0.02393417 -0.059270084 0.02830281 -0.095791474
0001e0 a6 f5 56 bd bd 5d 89 3d 13 6b d5 3d 73 9e d8 bd
       -0.052480362 0.06707332 0.104208134 -0.10577097
0001f0 96 3b 9e bd e4 05 84 3d 13 e0 ce 3d 58 ff 7e 3d
       -0.07726209 0.06446436 0.101013325 0.062255234
000200 cf 34 df bd be b3 92 3b e6 f2 d9 3d 06 1d 91 3d
       -0.10898744 0.0044769933 0.10642032 0.07085614
000210 b0 33 9e bc 6b 07 ef 3d 75 93 5d bd fe 06 a6 bc
       -0.019311756 0.11671337 -0.054095704 -0.020267006
000220 06 58 fa bd 27 39 77 3d db 04 17 bd 0a d7 80 bd
       -0.122238204 0.06035724 -0.036869865 -0.062910154
000230 62 b0 8d 3d ae b7 6a 3c fe 6b cf bd 56 8e d1 bd
       0.06918408 0.014326019 -0.1012802 -0.102322266
000240 f5 ef c0 3c cb 6a ee 3c 77 c4 46 bd 09 fa be 3c
       0.02355192 0.029103657 -0.048527207 0.023312585
000250 da 88 bc 3d 58 e4 83 bc e6 48 c9 3d 27 27 3d 3d
       0.0920579 -0.016100094 0.098283574 0.046179917
000260 76 3f b6 3d 68 42 d6 3d ae 5d e7 3c d9 f7 d9 3d
       0.08898823 0.10461885 0.028242912 0.10642976
000270 a6 d0 d0 3d c2 b4 23 bd 79 e8 84 bd 1d 10 5f bc
       0.101960465 -0.039967306 -0.06489653 -0.013614682
000280 bf a5 49 bd f5 52 7e bd 37 0d ee 3d 98 c1 6d bd
       -0.049230333 -0.062090833 0.11623614 -0.058045954
000290 7c c3 91 3d f2 70 b0 bc d8 bf d4 bc 53 c1 08 bd
       0.07117364 -0.021538232 -0.025970384 -0.033387493
0002a0 ec 1f f2 3c 5e b0 0a 3d 1a 5b d6 bd f2 4c df bb
       0.029556237 0.033859603 -0.10466595 -0.0068145925
0002b0 50 15 e6 bc 69 9d b1 3d dc 37 9b bd 13 cb 97 bd
       -0.028086334 0.08672602 -0.07579014 -0.0741178
0002c0 69 f8 90 3c 1f 61 c9 bd 5c 7d d9 3d 8c cc 5a 3c
       0.017696576 -0.098329775 0.106196135 0.013354432
0002d0 68 e4 24 bd 99 8e 8f bd 05 f5 5c 3d a0 df b0 3a
       -0.040256888 -0.0700962 0.053944606 0.001349438
0002e0 94 57 ac 3d db 5f 9e 3d 23 1a 91 3c 96 88 64 bd
       0.08415142 0.07733127 0.017712658 -0.05579432
0002f0 92 2e 14 3d 36 74 a9 bd 61 cd f6 3d ac 76 9f bd
       0.036177225 -0.082741186 0.12050892 -0.07786307
000300 95 d4 b6 bd c5 b1 5b 3d eb 84 78 bc 33 20 ec 3c
       -0.089272656 0.05363633 -0.015168409 0.028823948
000310 76 97 ad bd 96 d1 3b bd 94 f8 7a 3c 7e 43 5e bd
       -0.084761545 -0.045854174 0.015318055 -0.054263584
000320 df cd f0 3d 31 22 a5 3d ef a2 11 bd e1 97 66 3d
       0.11758017 0.08063162 -0.035555776 0.056297187
000330 20 66 1b 3d 9c cd 9a 3d 72 4b ee 3d ba 0c 29 3d
       0.03793919 0.07558748 0.11635484 0.041271903
000340 e4 6c 7c 3d 0b 8e 14 bc 8f fc 47 3d 6b f1 b5 bd
       0.061627284 -0.009067069 0.048824843 -0.088839374
000350 1a 34 f4 bc a6 17 db 3c c1 3b 78 3d a8 cc 5b bd
       -0.02981 0.026744675 0.06060386 -0.053661972
000360 1f 83 e6 3c 9f 27 6d 3d 2d bf 98 3d 91 01 d6 bc
       0.028138695 0.057899114 0.07458339 -0.026123794
000370 bc a0 e9 3c 82 11 a0 3d c7 4f aa 3d c1 e2 9a bd
       0.028519027 0.07815839 0.083159976 -0.07562781
000380 be c6 0b 3d 42 a0 0d 3d 58 11 65 b7 a4 42 cc bd
       0.034125082 0.034576662 -1.3653502e-05 -0.09973648
000390 02 46 c6 bc b0 70 fb 3d 4b 79 c1 bd 5c 74 10 3d
       -0.024203304 0.12277353 -0.09446963 0.03526722
0003a0 e1 10 b0 bd f1 ad ba 3c 7d 8b 32 bd 5c d5 a6 bd
       -0.085969694 0.02278802 -0.043590058 -0.08146164
0003b0 8f 25 f8 3d 12 f5 b6 3d 5a 1e 2b 3d 78 53 a5 3d
       0.12116539 0.08933462 0.041776992 0.08072561
0003c0 96 67 d2 3d 53 6a 15 bd 7c b6 da ba 57 4c 98 3d
       0.10273664 -0.03647835 -0.0016686465 0.07436436
0003d0 86 ae 32 3d ad 82 c5 3d 80 c2 b5 bd dc 56 b5 3d
       0.04362347 0.09644065 -0.088749886 0.08854458
0003e0 4f 06 e8 bd f0 3c 94 bd 92 ac 3e 3c 77 cd e0 bd
       -0.11329328 -0.072381854 0.011637824 -0.10976689
0003f0 06 cc b0 bb 2a 9a 6f 3d 3a 59 97 3c 47 dc d3 3d
       -0.0053954152 0.05849663 0.018475164 0.10344749
